code/GCNN_BSC/BC_K1Epoch400T.pth (torch, 211323 bytes, 14 tensors)

conv1.bias f4 [32]
0.091812246 -0.19923094 -0.022820037 -0.04507256 -0.21300076 -0.18687055 0.024863135 0.051780075
-0.057480846 0.013216308 0.15728512 0.0247616 -0.3426986 0.04910136 -0.0041414793 -0.014240099
-0.17834613 0.008012298 0.09286932 0.09243072 0.05519525 -0.13724805 -0.14399457 0.10149137
0.04181089 -0.1722318 -0.3071091 -0.048727255 -0.021975711 -0.00699957 -0.08202841 0.031306386
00000000: 0f08 bc3d 3203 4cbe 16f1 babc 019e 38bd
00000010: df1c 5abe fe5a 3fbe c6ad cb3c 5817 543d
00000020: 0971 6bbd 3789 583c 5a0f 213e d7d8 ca3c
00000030: 3176 afbe 821e 493d 3fb5 87bb 4e4f 69bc
00000040: 5ea0 36be 0346 033c 4532 be3d 514c bd3d
00000050: 6a14 623d c18a 0cbe 5073 13be b5da cf3d
00000060: e541 2b3d 885d 30be 673d 9dbe 3b96 47bd
00000070: 6806 b4bc a65c e5bb 83fe a7bd 203b 003d

conv1.lin.weight f4 [32, 8]
0.38015294 -0.02211093 -0.02860825 0.083469786 0.09387264 -0.081846565 -0.66629016 -0.3980247
-0.08385787 -0.16066591 -0.24197955 -0.07263115 -0.25700474 0.3229346 0.15153311 0.52219206
-0.17870831 0.025747659 0.24363641 -0.20696008 -0.058468603 -0.18258786 0.10089587 -0.03932879
-0.035328027 -0.46936685 -0.13424316 -0.01754444 0.30336466 0.01469511 0.62398005 -0.20593701
0.03628789 0.24203481 0.28506064 -0.12026925 0.61270803 0.19162002 0.17765523 -0.10090858
0.048387703 0.4886318 0.2570487 -0.038361173 -0.21648687 -0.42919558 -0.00819022 0.55168504
-0.17300668 0.2403972 0.37722984 -0.15265879 -0.49285498 -0.46027097 -0.3631289 -0.080124594
-0.25240076 0.15703231 0.09812833 -0.21239112 0.39765126 -0.11316237 -0.4379713 0.34564412
-0.37128896 -0.12506114 0.0757927 -0.035521958 0.24737814 0.2091353 -0.27181134 -0.4991802
0.14208996 0.22760722 -0.32267815 0.3367133 0.2679942 -0.16493478 -0.42612523 -0.34461546
-0.13112864 0.15310274 -0.21959272 0.25949508 -0.4695391 0.11402171 -0.46658412 0.04074893
0.17278771 0.13645476 0.014587981 0.41383305 -0.34444723 -0.65930057 -0.3556971 0.05340786
-0.04788153 0.016465744 0.020702088 -0.14630216 -0.05920208 0.41146588 0.31407812 0.2859051
0.16548908 -0.026962057 -0.40705162 0.16571154 -0.3602316 -0.044373855 0.23961896 -0.276142
-0.0688282 0.31279826 0.04444181 -0.10425334 -0.33980983 -0.28813452 0.13857786 0.34756908
0.4944125 0.060207054 0.008908733 -0.300512 -0.41701686 -0.31236702 0.08651046 -0.5881197
-0.18312803 0.012092273 0.011070578 0.36496633 -0.07436775 -0.024101805 -0.49766582 0.30190656
-0.26009575 -0.42705286 -0.044513162 -0.06939147 -0.42137766 -0.29885268 -0.41189358 -0.01319547
0.118241206 0.41980323 0.16411646 0.051778127 -0.5927845 -0.6767749 -0.25020325 0.3101735
0.3034041 0.34514275 -0.5800432 -0.23853676 -0.32093665 0.19159277 0.35036007 -0.15100195
-0.43888324 0.24610892 0.03073672 0.08622514 0.22679663 -0.42371535 -0.4962893 -0.20728387
0.06401848 -0.13668813 -0.15141581 -0.19595702 -0.6674825 -0.079659656 0.10966697 0.5590336
0.048482724 0.03788654 0.29412836 0.2713426 -0.15317443 -0.47448593 -0.17306551 0.1886771
0.0029209144 0.52743495 0.012081876 -0.22951463 -0.5210389 0.2829471 0.3908342 -0.35151592
0.21612069 0.4442296 0.21121003 -0.16522259 0.11177845 -0.44238514 -0.3694307 0.2607039
-0.36230528 0.24770716 -0.3757287 0.16542733 0.2775069 0.42202353 0.4573548 0.09011369
0.20031328 -0.27221015 -0.030416917 -0.077261396 0.26382926 0.09248191 -0.20058747 0.46331283
-0.27178252 0.2538028 0.25765696 0.33097163 0.6033866 0.10974794 -0.3702774 -0.33800256
-0.4464757 0.70690304 -0.13451615 -0.14850734 0.17096831 -0.38152376 -0.49907497 0.21208632
-0.035964347 0.060616158 -0.12255071 0.033891622 0.16474867 -0.26622242 -0.21242598 -0.1641028
-0.04684928 -0.124193445 -0.42043605 0.20173143 -0.09473411 -0.27082458 -0.64871067 0.4784657
0.048135538 0.16240011 -0.23352952 -0.07978889 -0.34885386 -0.5267969 0.67290086 0.31781152
00000000: 68a3 c23e fb21 b5bc d95b eabc 35f2 aa3d
00000010: 4c40 c03d 2c9f a7bd fe91 2abf e5c9 cbbe
00000020: adbd abbd 9b85 24be 7dc9 77be a4bf 94bd
00000030: 2096 83be af57 a53e 7f2b 1b3e 61ae 053f
00000040: 50ff 36be c1ec d23c d37b 793e 58ed 53be
00000050: c67c 6fbd 50f8 3abe 7ea2 ce3d 3a17 21bd
00000060: 1fb4 10bd da50 f0be 0a77 09be 5cb9 8fbc
00000070: 9d52 9b3e c2c3 703c 28bd 1f3f 27e1 52be
00000080: 9ca2 143d f9d7 773e 78f3 913e b94f f6bd
00000090: 6fda 1c3f 0a38 443e 41eb 353e 28a9 cebd
000000a0: 2f32 463d f32d fa3e e39b 833e 9b20 1dbd
000000b0: bcae 5dbe 86bf dbbe 4630 06bc 3b3b 0d3f
000000c0: aa28 31be af2a 763e 4524 c13e 9652 1cbe
000000d0: 7d57 fcbe a3a8 ebbe 08ec b9be 5d18 a4bd
000000e0: ac3a 81be 14cd 203e 82f7 c83d 0f7d 59be
000000f0: f298 cb3e acc1 e7bd c63d e0be 44f8 b03e
00000100: 9619 bebe 0710 00be 3439 9b3d 797f 11bd
00000110: b250 7d3e 9027 563e db2a 8bbe 8c94 ffbe
00000120: 0880 113e de11 693e 1236 a5be b065 ac3e
00000130: 8936 893e aae4 28be 162d dabe 7071 b0be
00000140: 9646 06be f7c6 1c3e eadc 60be 8adc 843e
00000150: 6e67 f0be 3784 e93d 1de4 eebe 5ae8 263d
00000160: 43ef 303e ccba 0b3e 6d02 6f3c ede1 d33e
00000170: 635b b0be ecc7 28bf ee1d b6be 33c2 5a3d
00000180: 6c1f 44bd 2be3 863c 6d97 a93c 3cd0 15be
00000190: e17d 72bd a8ab d23e d9ce a03e 2762 923e
000001a0: f875 293e 88df dcbc 1269 d0be 49b0 293e
000001b0: 4770 b8be 5cc1 35bd ac5e 753e 7c62 8dbe
000001c0: cdf5 8cbd 1827 a03e 9e08 363d c682 d5bd
000001d0: 8efb adbe 5e86 93be 5be7 0d3e 93f4 b13e
000001e0: a323 fd3e ac9b 763d eff5 113c b5dc 99be
000001f0: 3c83 d5be 92ee 9fbe 652c b13d 038f 16bf
00000200: ea85 3bbe ab1e 463c 5f61 353c dedc ba3e
00000210: 1e4e 98bd 2671 c5bc 0ece febe 7f93 9a3e
00000220: 452b 85be aca6 dabe 6f53 36bd 1d1d 8ebd
00000230: d0be d7be 3803 99be b7e3 d2be d031 58bc
00000240: 7228 f23d 73f0 d63e 250e 283e 4d15 543d
00000250: bac0 17bf 1f41 2dbf a41a 80be 10cf 9e3e
00000260: c857 9b3e 8db6 b03e b67d 14bf fb42 74be
00000270: cf51 a4be e530 443e 6562 b33e 41a0 1abe
00000280: 4eb5 e0be fa03 7c3e 93cb fb3c ce96 b03d
00000290: 603d 683e 38f1 d8be a219 febe 3942 54be
000002a0: 1f1c 833d f9f7 0bbe bf0c 1bbe f5a8 48be
000002b0: 22e0 2abf 9a24 a3bd 1499 e03d d31c 0f3f
000002c0: d295 463d eb2e 1b3d fe97 963e 6bed 8a3e
000002d0: c2d9 1cbe d2ef f2be 1638 31be 9234 413e
000002e0: d06c 3f3b fa05 073f 10f3 453c e205 6bbe
000002f0: ce62 05bf 71de 903e 6c1b c83e e5f9 b3be
00000300: be4e 5d3e 1072 e33e 7147 583e 1c30 29be
00000310: 1aec e43d 4e80 e2be 0526 bdbe fb7a 853e
00000320: 1480 b9be f2a6 7d3e 835f c0be c865 293e
00000330: 6215 8e3e 7813 d83e 692a ea3e 878d b83d
00000340: ed1e 4d3e 215f 8bbe e62c f9bc 393b 9ebd
00000350: a114 873e 2867 bd3d cd66 4dbe 5737 ed3e
00000360: 1427 8bbe 71f2 813e 9deb 833e 1d75 a93e
00000370: 8b77 1a3f 87c3 e03d 0095 bdbe ac0e adbe
00000380: 7798 e4be 99f7 343f 9abe 09be 4f12 18be
00000390: 5112 2f3e 1557 c3be c186 ffbe 282d 593e
000003a0: 5a4f 13bd a648 783d defb fabd f1d1 0a3d
000003b0: e0b3 283e 4e4e 88be 3286 59be 900a 28be
000003c0: 08e5 3fbd 2259 febd 6543 d7be af92 4e3e
000003d0: f503 c2bd 85a9 8abe e711 26bf 75f9 f43e
000003e0: c529 453d 374c 263e 5d22 6fbe 5c68 a3bd
000003f0: f99c b2be 29dc 06bf 3b43 2c3f 31b8 a23e

conv2.bias f4 [128]
-0.075515814 0.005680071 -0.008689912 0.057162795 0.027035566 -0.10792271 0.014777961 0.017407008
-0.040438224 0.023637922 0.0043106107 0.01959122 -0.008847778 0.014874514 -0.044056915 0.02840895
0.065425925 -0.016957654 0.033823993 -0.035648283 0.062736 -0.09154414 0.016928915 -0.057536416
-0.004544926 0.019311141 0.06843344 0.05814785 0.0058658253 0.06581941 0.02754776 0.04805591
0.01992276 0.037037138 0.012171684 -0.04142788 0.02913716 -0.13052237 -0.012545254 0.008338209
0.03846949 0.053273316 0.074095815 0.04772338 -0.0017565585 0.011207951 -0.01595461 -0.05850059
0.089400336 0.0255474 -0.015174547 0.010416368 -0.008513989 0.064848915 -0.0033503543 0.05801318
-0.020068647 0.059377477 -0.0043503037 0.029530756 -0.06516428 -0.07290376 0.06462064 -0.1244745
0.052901637 -0.02136101 -0.0039410284 0.04725749 0.004690378 -0.087062396 0.007508257 -0.091511846
0.0075558177 -0.022501938 -0.02833304 -0.038196433 -0.058238417 0.02402938 -0.08994816 0.03061055
-0.04458719 0.036053393 0.10023326 -0.030118292 0.08588479 -8.5297885e-05 0.032673623 -0.007905519
0.032353573 0.061740197 0.020734306 -0.102245994 0.023232162 0.09484847 -0.06493704 -0.17496252
-0.0051964545 -0.04446678 -0.011003659 0.04819101 -0.09813003 -0.052771755 0.016542234 -0.0050400007
-0.005334183 -0.052458562 0.009342519 0.05941388 0.06341119 -0.09481417 0.011740844 -0.106985144
0.009702555 -0.023351604 -0.03158891 -0.011040333 0.012328083 -0.012023801 0.054309674 0.00805499
-0.11655505 -0.043770034 0.005982789 -0.12246837 -0.025233947 -0.004354697 0.04056185 0.0077728503
00000000: 09a8 9abd e41f ba3b 2260 0ebc 8923 6a3d
00000010: b179 dd3c 9506 ddbd 431f 723c 2499 8e3c
00000020: 8da2 25bd 51a4 c13c 0640 8d3b c47d a03c
00000030: 45f6 10bc 3cb4 733c 0675 34bd e3b9 e83c
00000040: 07fe 853d c7ea 8abc 078b 0a3d ef03 12bd
00000050: bb7b 803d 7e7b bbbd 82ae 8a3c 4eab 6bbd
00000060: 9aed 94bb 6632 9e3c d526 8c3d 712c 6e3d
00000070: 1c36 c03b 54cc 863d d7ab e13c 46d6 443d
00000080: 0e35 a33c 41b4 173d be6b 473c 48b0 29bd
00000090: 0eb1 ee3c a8a7 05be 9c8a 4dbc fc9c 083c
000000a0: 2f92 1d3d 1f35 5a3d 8cbf 973d 9779 433d
000000b0: 533c e6ba 8ea1 373c 3eb3 82bc 519e 6fbd
000000c0: 8617 b73d c848 d13c aa9e 78bc 6aa9 2a3c
000000d0: 427e 0bbc 82cf 843d 9e91 5bbb 3a9f 6d3d
000000e0: 0167 a4bc cc35 733d fe8c 8ebb 7cea f13c
000000f0: da74 85bd 914e 95bd d357 843d 7dec febd
00000100: 63af 583d 49fd aebc be23 81bb 1291 413d
00000110: beb1 993b c54d b2bd d307 f63b 906a bbbd
00000120: cb96 f73b fc55 b8bc b11a e8bc dd73 1cbd
00000130: 688b 6ebd 43d9 c43c be36 b8bd fac2 fa3c
00000140: 0fa1 36bd b9ac 133d 1847 cd3d a3ba f6bc
00000150: 5de4 af3d f4e1 b2b8 c7d4 053d 2686 01bc
00000160: 2e85 043d 4ae3 7c3d feda a93c 5966 d1bd
00000170: 6051 be3c ea3f c23d b6fd 84bd 6029 33be
00000180: 0547 aabb cc22 36bd b148 34bc f063 453d
00000190: 66f8 c8bd 3227 58bd 9483 873c 9726 a5bb
000001a0: 5fca aebb cade 56bd 5d11 193c f85b 733d
000001b0: badd 813d ee2d c2bd ab5c 403c 071b dbbd
000001c0: 77f7 1e3c dd4b bfbc 5f63 01bd 83e2 34bc
000001d0: bafb 493c 7aff 44bc d273 5e3d 14f9 033c
000001e0: 6ab4 eebd 3548 33bd 460b c43b b2d0 fabd
000001f0: 6cb7 cebc d9b1 8ebb 2f24 263d 65b3 fe3b

conv2.lin.weight f4 [128, 32]
0.18389085 -0.18969919 -0.1270206 0.26644737 0.24189459 0.054383166 0.0051341318 -0.03943913
-0.1855109 0.12533487 0.19824125 0.024493843 -0.24964781 0.16242322 -0.030665968 0.48814514
-0.078613624 -0.026721543 0.015219476 -0.05888664 0.28165156 -0.16298555 0.0859291 -0.004946645
0.263049 0.04676132 -0.028882459 0.15414943 0.2169795 -0.037784327 0.14914659 -0.18176718
-0.2031117 0.044796597 -0.6981675 0.001296628 -0.215244 0.1489608 -0.55819964 -0.35898137
-0.18461283 -0.043180395 0.08839252 0.07377575 -0.070309654 0.07681644 0.010851939 -0.13851394
0.07691616 -0.14771451 0.07125415 0.05868101 -0.042828836 -0.14008448 0.01634178 -0.57833034
-0.35252428 0.31422615 -0.061724756 0.11194314 -0.47420305 -0.0006073855 -0.124417506 0.12076134
0.08203401 0.10221772 0.0644697 -0.48636207 -0.35721132 -0.017009918 0.10829824 0.09212349
0.010201693 0.09654909 -0.14897384 0.107936576 0.097491026 0.087911114 0.03831558 -0.51838017
-0.06225651 0.068172015 0.082010105 0.15530789 0.0038847672 -0.20065843 -0.06393661 0.13905957
-0.22470896 -0.14706193 0.01642633 -0.13161871 0.09565562 0.095635034 -0.011475769 0.06562613
-0.2735464 -0.05483128 -0.07040893 -0.0635454 0.095168404 -0.49529046 -0.02510953 -0.0776693
0.22390817 0.009869528 -0.29359728 -0.10467783 0.02087653 0.2640877 0.069715 0.17004028
-0.10229819 -0.06990094 -0.6327655 0.06699524 -0.04792883 -0.30372584 -0.19577059 0.048077498
-0.692953 0.26075915 -0.039107665 -0.09404801 -0.035994038 0.10605702 0.022521509 0.048561357
-0.31962553 -0.019717943 -0.0531762 -0.27025124 -0.0790287 0.16053654 -0.069406345 0.12180397
0.059453964 -0.20303774 -0.10768997 -0.14712648 0.062695175 -0.3352233 -0.046859857 0.08243122
0.18881544 -0.29070687 0.13256231 -0.60965526 -0.09349574 -0.47400078 0.11884548 -0.0154368
0.18444932 0.21595597 -0.037948824 0.117826544 -0.122580156 0.15840802 -0.13035268 -0.5574686
0.17642516 -0.19346221 -0.014737824 0.33896625 0.31639934 -0.38808066 0.19362803 -0.052501787
0.26780066 -0.060052868 -0.46644175 -0.102491036 0.0832169 0.27071062 0.058615956 -0.050715584
-0.45732114 -0.22734831 -0.44987217 0.22546828 0.2563637 -0.3439875 -0.3952869 0.08670429
-0.36647943 0.3162434 -0.28410977 0.1073694 0.048644535 -0.011153802 -0.038132135 0.1656134
-0.08798984 0.024763448 0.06798298 -0.08250521 -0.022394383 0.15434907 -0.05259308 -0.06171769
-0.31577623 0.3042531 -0.20291002 0.011361644 0.16686451 0.022767942 0.25656465 -0.4633967
-0.20849806 -0.09983394 -0.06088528 -0.054360695 -0.36728635 0.24074265 -0.19773869 0.052963395
-0.12768604 -0.14013815 -0.17265478 -0.113943405 0.023239803 0.015593082 -0.52294934 0.17749299
0.008702762 0.29277402 -0.5138895 -0.16487971 0.17670159 -0.047095962 -0.5925634 -0.8475988
-0.2990068 -0.1690204 -0.067501076 0.034465786 0.20719828 -0.080718786 -0.15490542 -0.0166454
0.23023424 0.07317645 0.04019264 -0.27110413 -0.17998976 -0.038031947 -0.09322601 -0.3155048
-0.049864475 -0.076981254 -0.14481601 -0.046335377 -0.3654403 -0.17935826 -0.30981708 -0.47506317
00000000: e24d 3c3e 8140 42be b011 02be ca6b 883e
00000010: 37b3 773e e2c0 5e3d 383c a83b ed8a 21bd
00000020: 92f6 3dbe c957 003e c1ff 4a3e 50a7 c83c
00000030: ada3 7fbe 4652 263e 3237 fbbc 29ee f93e
00000040: 2e00 a1bd 23e7 dabc 1c5b 793c 1e33 71bd
00000050: a234 903e afe5 26be 99fb af3d 7717 a2bb
00000060: 5cae 863e cc88 3f3d e89a ecbc 59d9 1d3e
00000070: e02f 5e3e bdc3 1abd e2b9 183e 2d21 3abe
00000080: 83fc 4fbe a37c 373d 1bbb 32bf 9ef3 a93a
00000090: ec68 5cbe 2e89 183e 2ce6 0ebf 68cc b7be
000000a0: 250b 3dbe eddd 30bd 2307 b53d be17 973d
000000b0: 82fe 8fbd f051 9d3d 55cc 313c 99d6 0dbe
000000c0: 3886 9d3d 7942 17be b2ed 913d 805b 703d
000000d0: 4a6d 2fbd 4e72 0fbe 32df 853c 750d 14bf
000000e0: 107e b4be 40e2 a03e 19d3 7cbd 7242 e53d
000000f0: beca f2be f338 1fba 9bce febd b951 f73d
00000100: 7201 a83d 8657 d13d b108 843d 7304 f9be
00000110: 67e4 b6be 6258 8bbc 78cb dd3d 3eab bc3d
00000120: 0025 273c 88bb c53d 998c 18be da0d dd3d
00000130: 60a9 c73d be0a b43d ccf0 1c3d 90b4 04bf
00000140: af00 7fbd c59d 8b3d eaf4 a73d 0809 1f3e
00000150: 9497 7e3b 6779 4dbe 33f1 82bd a265 0e3e
00000160: 1b1a 66be 6797 16be 8390 863c 0ec7 06be
00000170: 18e7 c33d 4ddc c33d dd04 3cbc fe66 863d
00000180: 460e 8cbe c496 60bd 8f32 90bd 1724 82bd
00000190: a7e7 c23d b696 fdbe 80b2 cdbc 1511 9fbd
000001a0: 2f48 653e cdb3 213c 6252 96be 5561 d6bd
000001b0: 4205 ab3c 8136 873e bdc6 8e3d 0a1f 2e3e
000001c0: b781 d1bd 3928 8fbd ebfc 21bf cd34 893d
000001d0: 0551 44bd f481 9bbe 1678 48be e9ec 443d
000001e0: 5e65 31bf 3982 853e 5c2f 20bd 3e9c c0bd
000001f0: 7c6e 13bd 6c34 d93d 077f b83c 46e8 463d
00000200: f5a5 a3be 8687 a1bc 49cf 59bd 5f5e 8abe
00000210: cdd9 a1bd b163 243e ea24 8ebd 5c74 f93d
00000220: 0086 733d 20e9 4fbe 8f8c dcbd 53a8 16be
00000230: 5466 803d 63a2 abbe 1ff0 3fbd b3d1 a83d
00000240: d658 413e 88d7 94be 6abe 073e 5e12 1cbf
00000250: b27a bfbd 3bb0 f2be 4265 f33d a2ea 7cbc
00000260: 48e0 3c3e 9023 5d3e 3a70 1bbd 0b4f f13d
00000270: 4e0b fbbd b635 223e 2c7b 05be 43b6 0ebf
00000280: cca8 343e f51a 46be ea76 71bc fc8c ad3e
00000290: 18ff a13e 82b2 c6be 6d46 463e 1d0c 57bd
000002a0: 2b1d 893e fff9 75bd 74d1 eebe d2e6 d1bd
000002b0: 9f6d aa3d 959a 8a3e 4917 703d 25bb 4fbd
000002c0: ff25 eabe ffcd 68be a555 e6be 28e1 663e
000002d0: 1a42 833e 211f b0be 0b63 cabe 0592 b13d
000002e0: 31a3 bbbe a8ea a13e d676 91be 7de4 db3d
000002f0: 7e3f 473d 70be 36bc 7130 1cbd 8f96 293e
00000300: 0434 b4bd b7dc ca3c a93a 8b3d 7ef8 a8bd
00000310: 6d74 b7bc af0d 1e3e d76b 57bd b0cb 7cbd
00000320: 6cad a1be 10c7 9b3e a5c7 4fbe 3026 3a3c
00000330: 88de 2a3e d683 ba3c 715c 833e 5542 edbe
00000340: 8480 55be bd75 ccbd d862 79bd 52a9 5ebd
00000350: f50c bcbe 3e85 763e 037c 4abe 25f0 583d
00000360: 21c0 02be 6080 0fbe 6acc 30be 295b e9bd
00000370: 6661 be3c 207a 7f3c 02e0 05bf b9c0 353e
00000380: 0896 0e3c 7ae6 953e 438e 03bf 3ad6 28be
00000390: 43f1 343e b2e7 40bd 3cb2 17bf 3cfc 58bf
000003a0: 6b17 99be af13 2dbe 013e 8abd ff2b 0d3d
000003b0: c92b 543e e44f a5bd 879f 1ebe ef5b 88bc
000003c0: 86c2 6b3e 89dd 953d 0aa1 243d 29ce 8abe
000003d0: 3c4f 38be 63c7 1bbd 47ed bebd d889 a1be
000003e0: b13e 4cbd 59a8 9dbd a64a 14be 2aca 3dbd
000003f0: fe1a bbbe b1a9 37be 58a0 9ebe 7b3b f3be

conv3.bias f4 [128]
0.09351498 0.13801461 -0.054142922 0.05413362 0.028790813 -0.0011074194 -0.008574687 -0.05554786
0.09648633 -0.0370227 0.008848933 0.09943571 0.040429913 0.009653303 0.01618757 0.060185082
-0.14766805 0.095334515 -0.07120546 -0.11375036 0.05696181 -0.07511042 0.12161289 0.016219841
0.11997956 0.049355973 -0.0050610597 0.010998723 -0.12946965 -0.124882005 0.051129278 0.050828602
-0.0067376727 -0.051686917 -0.0017295952 0.07338902 0.044607442 0.036185455 0.09356138 0.002602357
0.044936165 0.07582096 -0.013739223 0.030097628 0.07207445 -0.02979789 -0.1792713 -0.03422966
0.048658833 0.021621142 0.029348202 -0.059989683 -0.04573741 0.031631157 -0.057996746 -0.07858213
0.020569768 -0.06776337 0.119331874 -0.07989648 0.111755 -0.08832944 0.08746493 0.019034477
0.07660044 0.11847608 -0.017461868 0.020215817 -0.019141138 0.08915502 0.053243082 -0.025952607
0.07301215 0.10222993 0.10204851 0.04339312 0.097941026 -0.05352725 0.037922524 0.08799209
-0.19532229 0.018874578 -0.09541697 -0.0058328044 0.058080062 0.011053429 -0.001342849 0.09468622
0.10478467 -0.006176869 0.029976636 0.03700618 0.04178561 -0.00029671408 0.10320555 -0.14459784
0.033491235 -0.036320165 0.06208035 -9.340738e-05 0.09786808 0.0718119 -0.00032594553 -0.020142298
0.06284963 0.14739643 -0.1877347 -0.04810881 0.08779005 0.06769568 -0.030560408 0.06789155
-0.09590304 0.0683331 -0.04904103 -0.08436313 0.12851825 0.09573948 0.10385487 0.033434555
0.0013921624 -0.17211187 -0.04631417 -0.0927715 0.11413212 0.08062179 0.09994782 0.069589175
00000000: c884 bf3d b453 0d3e f8c4 5dbd 37bb 5d3d
00000010: b6da eb3c d426 91ba d87c 0cbc 2786 63bd
00000020: a09a c53d 1da5 17bd 1dfb 103c f3a4 cb3d
00000030: d699 253d e328 1e3c cb9b 843c a284 763d
00000040: 4b36 17be be3e c33d 2bd4 91bd f3f5 e8bd
00000050: c950 693d 7ed3 99bd 2e10 f93d 79df 843c
00000060: d8b7 f53d 7d29 4a3d 3fd7 a5bb fd33 343c
00000070: b193 04be 23c2 ffbd ef6c 513d a731 503d
00000080: b2c7 dcbb a9b5 53bd 96b3 e2ba fc4c 963d
00000090: 4bb6 363d 3337 143d 1c9d bf3d 4e8c 2a3b
000000a0: fc0e 383d 0548 9b3d 7a1a 61bc 4d8f f63c
000000b0: c59b 933d b41a f4bc e592 37be 6634 0cbd
000000c0: 7c4e 473d d21e b13c a46b f03c beb7 75bd
000000d0: 2757 3bbd ac8f 013d ff8d 6dbd abef a0bd
000000e0: ee81 a83c 86c7 8abd 4564 f43d c4a0 a3bd
000000f0: cedf e43d 11e6 b4bd d020 b33d 31ee 9b3c
00000100: b1e0 9c3d 96a3 f23d 310c 8fbc a49b a53c
00000110: e0cd 9cbc e896 b63d 6b15 5a3d 909a d4bc
00000120: 6587 953d ed5d d13d cffe d03d fcbc 313d
00000130: 4e95 c83d 643f 5bbd a654 1b3d 3235 b43d
00000140: 9102 48be dc9e 9a3c f969 c3bd 1c21 bfbb
00000150: 5ce5 6d3d 7119 353c 8902 b0ba d9ea c13d
00000160: 5899 d63d 5567 cabb 9091 f53c cb93 173d
00000170: 6327 2b3d 4a90 9bb9 6e5d d33d 7511 14be
00000180: 1b2e 093d 74c4 14bd f747 7e3d b5e3 c3b8
00000190: 0f6f c83d 1e12 933d abe3 aab9 7601 a5bc
000001a0: 4fb7 803d 17ef 163e 863d 40be be0d 45bd
000001b0: 45cb b33d 08a4 8a3d d259 fabc ba0a 8b3d
000001c0: d068 c4bd 39f2 8b3d 3fdf 48bd 94c6 acbd
000001d0: 4a9a 033e 0f13 c43d ddb1 d43d acf2 083d
000001e0: 3879 b63a 183e 30be edb3 3dbd fcfe bdbd
000001f0: 1abe e93d 091d a53d 71b1 cc3d c584 8e3d

conv3.lin.weight f4 [128, 128]
-0.046149388 0.0060736304 -0.11115814 -0.15015076 0.07824994 -0.29375002 -0.22286624 -0.40964475
-0.07448327 -0.119509414 -0.010397659 -0.07845055 -0.09895865 -0.14350607 -0.04908807 -0.018696893
-0.0016652953 0.024251306 -0.32143494 -0.08710238 -0.24806058 -0.047022298 0.0031769525 -0.059074845
-0.30623198 -0.31832492 -0.06211547 -0.0046113497 -0.2990464 0.0070076413 0.020492854 -0.15863848
-0.15363072 -0.23170987 -0.07817352 -0.1052874 0.06312 -0.10875597 0.023384606 -0.060888596
-0.17592421 -0.14577837 -0.021813948 -0.14293721 0.18756412 -0.25350797 0.14152221 0.0997351
0.17811134 0.12686008 -0.078986116 -0.21714191 0.15487826 0.050825454 -0.25174916 -0.0051962943
-0.04535229 0.15006122 -0.14171821 -0.13323176 -0.02599314 -0.09355946 -0.24916258 -0.3185853
-0.21619903 -0.14177734 -0.11172955 0.04368027 0.07192224 -0.07961463 0.07523317 -0.1953292
-0.13348831 0.022492178 -0.06588388 -0.15829556 -0.12709989 0.07270677 -0.15739533 0.037548866
0.069666706 0.09571715 -0.342396 -0.3693939 0.027587825 -0.06766954 -0.056437302 -0.3417971
-0.08527945 0.03053423 -0.07397621 -0.09460672 -0.103023514 0.11670609 -0.12720364 -0.07593389
-0.1306664 -0.18554884 0.14632483 -0.07202195 -0.13143937 -0.11155003 0.10778261 -0.11987257
-0.21753235 -0.09488354 -0.10391263 -0.05033507 -0.10726349 -0.26222965 -0.100373976 -0.18939464
-0.15207039 -0.3603656 -0.079384826 -0.13662834 -0.056821276 0.08733919 -0.092484236 -0.18586889
-0.3002357 -0.06443936 -0.014003955 -0.2116545 -0.123229735 -0.049697272 -0.15980549 -0.11624815
-0.13503684 -0.47296453 -0.06102193 -0.14712517 -0.121667854 -0.26322246 0.19581082 -0.43055004
0.12833178 -0.24010254 0.09071637 0.06562852 -0.19857897 -0.04598574 -0.13256064 0.008048623
0.025266089 -0.098649584 -0.07567935 -0.29779467 -0.27197185 -0.26702848 -0.059371654 -0.19967583
-0.2841924 0.12750274 0.23188588 0.04170365 -0.067694195 -0.26707876 0.03002762 -0.18929797
-0.27122453 0.006513798 -0.120779514 -0.19187385 0.1402494 -0.41246533 0.046024762 -0.058226015
-0.08292653 0.07920951 -0.28301525 0.14513591 0.00047387186 -0.31216142 -0.06765594 -0.0019448904
0.10095378 -0.00030970364 -0.27241403 0.14643005 -0.06611652 -0.17860259 -0.23195079 -0.3432643
-0.031746794 -0.19784835 -0.25844863 -0.07952933 -0.32464835 -0.16606267 -0.3463423 -0.22902587
0.040660225 -0.16067052 -0.21439078 -0.21078503 -0.064035326 -0.3231108 -0.19529109 -0.4842787
-0.15473907 -0.15167968 -0.1210435 -0.02557766 -0.14727657 -0.24832183 -0.18259652 0.13071172
-0.082795076 -0.080181636 -0.14656901 -0.028697133 0.14308804 0.024686182 -0.075016975 -0.10352792
-0.028808383 -0.14341947 0.11025059 -0.09215923 -0.24096362 -0.1646863 -0.18257426 -0.21957171
-0.37684193 -0.2843423 -0.09335409 -0.054295372 -0.2671014 -0.22743165 -0.083184086 0.036650054
0.012039747 -0.34122488 0.10286794 -0.2962717 -0.35308984 -0.009517872 -0.122626685 -0.15684117
0.022263685 -0.25515392 -0.30047077 -0.013849024 -0.07242996 0.15858229 0.1972961 0.04932754
-0.23463674 -0.14151305 -0.043624185 -0.25951877 -0.055965032 0.09092218 -0.24439111 -0.28796545
00000000: 2407 3dbd 4e05 c73b e1a6 e3bd 1fc1 19be
00000010: 8141 a03d 6766 96be 0c37 64be f5bc d1be
00000020: af8a 98bd 5ac1 f4bd f15a 2abc afaa a0bd
00000030: d5aa cabd 41f3 12be 9210 49bd 3a2a 99bc
00000040: 0a46 daba adaa c63c 1f93 a4be bc62 b2bd
00000050: 9803 7ebe 749a 40bd 6b34 503b 77f8 71bd
00000060: 70ca 9cbe 7cfb a2be cb6c 7ebd ce1a 97bb
00000070: 9c1c 99be 5ba0 e53b a1e0 a73c 2072 22be
00000080: 5f51 1dbe 5a45 6dbe 7019 a0bd eca0 d7bd
00000090: 0f45 813d 73bb debd 1391 bf3c 5266 79bd
000000a0: 7a25 34be ed46 15be 2ab3 b2bc 225e 12be
000000b0: cf10 403e cccb 81be 33eb 103e eb41 cc3d
000000c0: d262 363e 9ce7 013e 79c3 a1bd 735a 5ebe
000000d0: 6898 1e3e 5a2e 503d 44e5 80be ad45 aabb
000000e0: 53c3 39bd a6a9 193e 941e 11be e86d 08be
000000f0: 91ef d4bc 1a9c bfbd 7a24 7fbe 9d1d a3be
00000100: 4763 5dbe 142e 11be 76d2 e4bd 15ea 323d
00000110: f84b 933d ff0c a3bd d913 9a3d 6104 48be
00000120: 29b1 08be 8441 b83c 21ee 86bd 3b18 22be
00000130: 7926 02be 49e7 943d 3e2c 21be d7cc 193d
00000140: 6bad 8e3d 5a07 c43d 874e afbe 3221 bdbe
00000150: ddff e13c 5496 8abd cd2a 67bd 0800 afbe
00000160: fea6 aebd ec22 fa3c d780 97bd 2bc1 c1bd
00000170: fefd d2bd 9a03 ef3d ac41 02be 3a83 9bbd
00000180: 6acd 05be 8400 3ebe 2dd6 153e 3e80 93bd
00000190: 0b98 06be 5874 e4bd 21bd dc3d c07f f5bd
000001a0: cdc0 5ebe 4d52 c2bd 25d0 d4bd 252c 4ebd
000001b0: f6ac dbbd f742 86be df90 cdbd abf0 41be
000001c0: 57b8 1bbe d781 b8be 8394 a2bd 4de8 0bbe
000001d0: 6dbd 68bd e4de b23d 6068 bdbd 6a54 3ebe
000001e0: 7eb8 99be c8f8 83bd d870 65bc f5bb 58be
000001f0: df5f fcbd 5e8f 4bbd 0da4 23be 8313 eebd
00000200: 1947 0abe 6828 f2be 22f2 79bd fba7 16be
00000210: ff2c f9bd 18c5 86be a282 483e 0e71 dcbe
00000220: 6869 033e 71dd 75be 81c9 b93d 3f68 863d
00000230: 4958 4bbe 8b5b 3cbd fabd 07be 5fde 033c
00000240: d4fa ce3c cb08 cabd c6fd 9abd 8b78 98be
00000250: e53f 8bbe f5b7 88be b12f 73bd d277 4cbe
00000260: ab81 91be 1490 023e 7e73 6d3e 72d1 2a3d
00000270: 41a3 8abd 8cbe 88be 7cfc f53c 54d7 41be
00000280: f1dd 8abe b371 d53b 405b f7bd 947a 44be
00000290: 8a9d 0f3e a82e d3be 7684 3c3d 677e 6ebd
000002a0: 62d5 a9bd 9838 a23d 60e7 90be 829e 143e
000002b0: 0172 f839 9fd3 9fbe 338f 8abd b1eb feba
000002c0: dbc0 ce3d b85f a2b9 da79 8bbe c2f1 153e
000002d0: 1968 87bd 99e3 36be 8284 6dbe 57c0 afbe
000002e0: ed08 02bd c298 4abe 6153 84be 46e0 a2bd
000002f0: 4f38 a6be 550c 2abe c753 b1be c285 6abe
00000300: 568b 263d d086 24be 4289 5bbe 08d8 57be
00000310: f424 83bd c76e a5be 63fa 47be 61f3 f7be
00000320: eb73 1ebe eb51 1bbe a8e5 f7bd 3e88 d1bc
00000330: abcf 16be 1448 7ebe 95fa 3abe 4bd9 053e
00000340: 7790 a9bd 4536 a4bd 3016 16be 4016 ebbc
00000350: ac85 123e ad3a ca3c 80a2 99bd 7206 d4bd
00000360: 8fff ebbc 8edc 12be 10cb e13d fabd bcbd
00000370: 2bbf 76be 87a3 28be bff4 3abe 68d7 60be
00000380: 6df1 c0be 5095 91be 6e30 bfbd d364 5ebd
00000390: 84c1 88be d8e3 68be 6b5c aabd 5e1e 163d
000003a0: 5c42 453c 07b5 aebe 6dac d23d edb0 97be
000003b0: 31c8 b4be d9f0 1bbc b323 fbbd f99a 20be
000003c0: 5562 b63c 89a3 82be 4ed7 99be 04e7 62bc
000003d0: 2956 94bd 6563 223e fd07 4a3e ad0b 4a3d
000003e0: 9d44 70be cce8 10be 46af 32bd a5df 84be
000003f0: 973b 65bd 6835 ba3d aa41 7abe 3570 93be

conv4.bias f4 [32]
-0.016953096 0.1278911 0.107817285 0.03179523 0.09840053 0.14894985 0.10013314 0.15864536
0.0685128 -0.070301555 0.041019734 0.19396766 0.08229015 0.13754669 0.13268892 0.10455156
0.090481214 0.032823753 0.07932856 -0.01724363 0.028194133 0.05454188 0.13063212 0.034819607
0.1465992 0.07489235 0.112209745 -0.0077540176 0.01508687 0.21209149 0.1438607 0.20350192
00000000: 38e1 8abc e2f5 023e 4fcf dc3d b73b 023d
00000010: 3886 c93d 4f86 183e 9b12 cd3d ee73 223e
00000020: 7050 8c3d 43fa 8fbd 4f04 283d 759f 463e
00000030: bd87 a83d 0ad9 0c3e 9bdf 073e 211f d63d
00000040: 374e b93d 3372 063d 0377 a23d 8342 8dbc
00000050: 62f7 e63c 4e67 5f3d 6dc4 053e 019f 0e3d
00000060: 1a1e 163e 2961 993d 39ce e53d 6a15 febb
00000070: eb2e 773c 832e 593e 3850 133e cf62 503e

conv4.lin.weight f4 [32, 128]
-0.15549071 -0.2290751 0.041665077 -0.12809242 -0.18165432 0.12532137 0.3658908 0.06266871
-0.12788077 -0.1655071 0.10465777 -0.113733605 -0.24046034 -0.1705265 0.07143733 -0.10333048
0.023706364 -0.15113625 -0.071936816 0.122243136 0.036874227 0.0868989 -0.29069752 -0.2775576
-0.1324731 0.034583528 -0.08736455 0.032438938 -0.09410879 -0.2472394 -0.03262512 0.04794817
-0.30418298 0.08545469 -0.25474945 0.017712526 0.017720792 -0.17184642 0.009724681 -0.0128866695
0.012423841 0.1293785 0.039284606 -0.17443193 -0.18659745 0.035096835 0.11180614 -0.061118387
0.05212494 0.102520086 0.0013019578 -0.07218855 0.06909756 0.012956094 -0.16787896 -0.1524889
-0.16953339 0.07111137 0.0061205337 -0.009509284 -0.15270959 0.03878836 0.09042637 -0.03618748
0.058535587 0.10503135 -0.07117286 0.02444745 0.046068884 -0.04284039 -0.17640431 -0.012957633
0.07557418 0.2038886 0.066905215 -0.377518 -0.029499782 -0.18924709 0.17138264 -0.31569183
-0.05402398 0.08971927 -0.106172785 0.09022571 0.1254122 0.08375473 0.062431365 -0.1263886
-0.19738491 0.026600346 0.05212412 0.06518022 0.18317063 0.06758302 0.1277376 -0.06022708
-0.1004145 -0.030223835 0.17564447 -0.106962115 -0.12550685 -0.08654786 -0.20297712 0.21562605
-0.16378756 -0.05602917 0.06621094 0.020302989 -0.26221994 0.059453 -0.108799905 -0.013699814
0.10286553 -0.11933817 -0.17055021 0.066713475 0.14071815 0.027081039 0.13748878 -0.007716504
0.11837833 0.098660976 0.0064325654 0.12048129 -0.08625367 0.051091757 -0.12887962 -0.02657995
0.03968557 0.1532231 -0.011351199 0.16016638 -0.027718253 -0.25546333 0.023395248 -0.21977974
-0.02686192 0.19346738 0.044598367 -0.02147641 0.12343342 -0.06961909 -0.026709171 0.12840813
-0.08386157 0.19204178 -0.11045928 0.15773985 0.097333826 0.10218429 0.15488064 0.046463232
0.07891947 -0.12566797 -0.07717153 0.0644775 -0.078335226 0.10337975 -0.063038364 -0.11587406
-0.03710901 -0.06545497 0.083118774 0.120140515 -0.14156002 0.085286975 -0.08670071 0.062969305
-0.029767515 -0.11855031 -0.24517867 0.18060766 0.20309244 0.057799205 0.03198409 0.017599376
-0.0056128195 -0.24892776 0.094141215 -0.12884904 0.12497008 0.18080412 0.01061887 0.0011941248
0.028895253 -0.19851199 -0.044618633 -0.17160766 0.0022455263 0.021662664 0.1665986 -0.019205624
0.089999124 0.035867136 -0.078639425 0.09128037 0.043897938 -0.10366204 -0.094860815 0.18610668
0.0021647057 -0.27122432 -0.019638916 -0.056180365 0.09578207 -0.10496791 0.28513008 0.14626966
-0.026101312 -0.09458331 -0.007981624 -0.0070129996 -0.03269126 -0.06711236 -0.030353583 0.02030869
0.07948687 -0.16330576 -0.056194115 0.032054383 0.021697083 -0.19548506 0.12350043 -0.13834602
0.060052924 0.12985617 0.10402216 0.21473807 0.119594425 0.09599708 0.1869027 0.2271387
-0.19065492 -0.051155657 -0.15071069 -0.09414265 0.03174 0.18400739 0.12316416 0.31869605
-0.05547746 0.11618588 0.09508309 0.20602465 0.15669166 0.15495853 0.020559236 -0.01569176
-0.08356731 -0.023577256 0.034579676 -0.054407183 0.0021229526 0.12109714 -0.09819456 0.1482178
00000000: f538 1fbe aa92 6abe 00a9 2a3d a92a 03be
00000010: 9703 3abe 3f54 003e 0a56 bb3e 7458 803d
00000020: 2df3 02be b17a 29be d056 d63d 2aed e8bd
00000030: 3c3b 76be 809e 2ebe bc4d 923d ee9e d3bd
00000040: d933 c23c 76c3 1abe 9c53 93bd 9c5a fa3d
00000050: 6e09 173d 0df8 b13d 4ed6 94be 081c 8ebe
00000060: 07a7 07be 75a7 0d3d 2fec b2bd b1de 043d
00000070: 1cbc c0bd 532c 7dbe eba1 05bd 4d65 443d
00000080: dfbd 9bbe de02 af3d 856e 82be dc19 913c
00000090: 322b 913c 82f8 2fbe 4554 1f3c 9c22 53bc
000000a0: 5e8d 4b3c cc7b 043e e5e8 203d 499e 32be
000000b0: 6713 3fbe b3c1 0f3d 9efa e43d 4657 7abd
000000c0: f680 553d 0df6 d13d 74a6 aa3a 97d7 93bd
000000d0: 0683 8d3d cc45 543c 76e8 2bbe 0d26 1cbe
000000e0: 299a 2dbe d7a2 913d c28e c83b d4cc 1bbc
000000f0: e75f 1cbe 8be0 1e3d 7631 b93d 5339 14bd
00000100: 03c3 6f3d ad1a d73d 14c3 91bd 0546 c83c
00000110: bab2 3c3d 6879 2fbd 55a3 34be 404c 54bc
00000120: a3c6 9a3d 2cc8 503e 9a05 893d 0a4a c1be
00000130: 87a9 f1bc fdc9 41be ee7e 2f3e 5ca2 a1be
00000140: 4048 5dbd bdbe b73d 1e71 d9bd 42c8 b83d
00000150: 0e6c 003e 9a87 ab3d 08b8 7f3d 036c 01be
00000160: 451f 4abe f8e8 d93c 1a80 553d 357d 853d
00000170: 1591 3b3e f768 8a3d a5cd 023e acb0 76bd
00000180: 1ea6 cdbd fa97 f7bc 25dc 333e f40e dbbd
00000190: de84 00be 0140 b1bd 3cd9 4fbe 13cd 5c3e
000001a0: edb7 27be d87e 65bd 9a99 873d 7452 a63c
000001b0: b141 86be fd84 733d 7cd2 debd 2f75 60bc
000001c0: 2aab d23d 9267 f4bd b7a4 2ebe 13a1 883d
000001d0: 6b18 103e 0ed9 dd3c dcc9 0c3e bada fcbb
000001e0: 5670 f23d c40e ca3d 45c8 d23b e5be f63d
000001f0: c4a5 b0bd 9745 513d 05f9 03be 32be d9bc
00000200: 568d 223d 84e6 1c3e 61fa 39bc a802 243e
00000210: 6411 e3bc 17cc 82be 64a7 bf3c f10d 61be
00000220: 870d dcbc 501c 463e c7ac 363d 4cef afbc
00000230: a9ca fc3d 7494 8ebd 31cd dabc 6c7d 033e
00000240: 9dbf abbd 9aa6 443e 7a38 e2bd 8e86 213e
00000250: f556 c73d ff45 d13d 0899 1e3e 3b50 3e3d
00000260: 88a0 a13d 1baf 00be 1b0c 9ebd c80c 843d
00000270: 386e a0bd c3b8 d33d 421a 81bd 614f edbd
00000280: 9eff 17bd 410d 86bd 2d3a aa3d 3b0c f63d
00000290: 1cf5 10be f0aa ae3d 2490 b1bd 0df6 803d
000002a0: 01db f3bc 81ca f2bd 1e10 7bbe 37f1 383e
000002b0: 77f7 4f3e dcbe 6c3d c001 033d 912c 903c
000002c0: beeb b7bb ebe6 7ebe 1ccd c03d 01f1 03be
000002d0: 50f0 ff3d b724 393e c5fa 2d3c 2e84 9c3a
000002e0: bdb5 ec3c ba46 4bbe 07c2 36bd ebb9 2fbe
000002f0: ae29 133b e675 b13c d398 2a3e 1d55 9dbc
00000300: 7651 b83d 6be9 123d b50d a1bd 34f1 ba3d
00000310: 53ce 333d c34c d4bd 6346 c2bd c092 3e3e
00000320: bcdd 0d3b eadd 8abe cbe1 a0bc 621d 66bd
00000330: 6429 c43d 6af9 d6bd 92fc 913e b7c7 153e
00000340: 6bd2 d5bc e5b4 c1bd 5cc5 02bc 4ecd e5bb
00000350: 45e7 05bd 3472 89bd 14a8 f8bc 695e a63c
00000360: 03ca a23d a039 27be cd2b 66bd 754b 033d
00000370: 15be b13c 3c2d 48be cbed fc3d 94aa 0dbe
00000380: 0efa 753d 04f9 043e 9209 d53d 4ce4 5b3e
00000390: eced f43d 1e9a c43d 6c63 3f3e 0c97 683e
000003a0: 0b3b 43be 9888 51bd e753 1abe ddcd c0bd
000003b0: cd01 023d 6f6c 3c3e 7e3d fc3d 212c a33e
000003c0: 553c 63bd ddf2 ed3d ecba c23d 20f8 523e
000003d0: c773 203e 73ad 1e3e d86b a83c 028c 80bc
000003e0: 5625 abbd 1725 c1bc 6ba3 0d3d 11da 5ebd
000003f0: 3c21 0b3b c701 f83d 3b1a c9bd 68c6 173e

lin1.weight f4 [128, 68]
-0.051037814 -0.1986492 -0.04963433 -0.06009313 0.053890057 -0.12783644 -0.12234375 -0.25538734
0.14017254 -0.08207491 0.08625964 0.1291171 0.06969615 0.100520484 -0.17412537 0.034415714
0.13697691 -0.22060412 0.015048985 0.10448403 -0.09945458 -0.0279923 0.20662244 0.23930871
-0.03014349 -0.047329973 0.11019218 0.07354076 -0.0027520664 0.071578994 0.3722333 -0.28922468
-0.0063085174 0.08681487 0.048842125 0.10371801 0.0034414413 -0.24308914 0.03240614 0.16867241
0.16504224 -0.17819737 0.05460124 -0.16790462 -0.2932142 -0.16952795 0.05357342 0.07304414
-0.09486644 -0.07610145 -0.046556316 0.056475267 0.023514554 -0.11871104 -0.026654847 0.004870887
-0.01134995 -0.17750642 0.057248734 0.17894976 0.14116456 -0.019159056 0.028241836 -0.1410387
0.45752674 0.2760226 -0.7501224 0.025736026 0.22263807 -0.02202022 0.22571877 -0.1743886
0.2184988 -0.050213244 0.15749644 0.11648663 0.19426376 0.28063956 0.026851555 0.45777822
-0.023431841 -0.009517458 -0.04855511 0.039752707 0.16113727 -0.0542858 0.13899007 -0.105321124
-0.05843536 -0.18371384 0.24546693 0.201335 0.22060305 0.018297343 -0.049955137 -0.007889797
0.04566594 0.029549941 0.2095621 -0.13518925 -0.021465313 -0.01059759 0.011930598 0.0032187626
0.114764564 -0.08271933 -0.0014170166 0.23154406 0.011595209 -0.02145186 0.047950536 -0.034598
0.21575116 -0.08314899 0.12393972 0.11495797 -0.09389187 -0.10407968 -0.028823154 -0.09750257
0.022047877 -0.14806485 0.197651 -0.36710668 0.37388766 -0.09544729 -0.2095104 -0.0062703737
0.037083216 -0.05059073 0.032368414 -0.05383697 0.37348133 0.1602928 -0.65118337 -0.34653696
0.042121723 -0.48646697 0.15214303 -0.05219836 -0.043358635 -0.09562987 0.026776489 0.06251993
0.00944871 -0.14560923 -0.36003053 0.15316814 -0.10723812 0.014018478 -0.08641745 0.23268367
-0.33171177 -0.016809193 -0.124078825 0.2913315 -0.07122649 -0.051985223 0.0918275 0.18470035
-0.19370465 -0.2685198 -0.00926132 0.15252247 -0.10208856 0.02460998 -0.18835655 0.4872349
0.078352086 -0.06536501 -0.14191814 0.1952229 0.22370538 -0.1308275 0.104375154 0.013819435
-0.091552906 -0.062269524 -0.0799089 0.19628336 -0.3278245 -0.009752202 0.2291196 0.035497937
0.119926885 -0.15843765 0.031969737 -0.19971044 0.0432283 -0.041854486 -0.14050122 -0.09920939
0.106301926 -0.17815726 0.11813382 0.012609124 -0.010435839 0.15851817 0.10184809 0.17163105
0.19113791 0.352285 -0.47428286 0.3554992 0.17757863 -0.0831417 0.13059746 -0.08307583
0.19339438 0.115058355 -0.0069977515 -0.098490074 0.11982316 0.014113362 0.15188035 0.12709223
0.11565617 0.076723605 0.13551113 0.042302474 0.06444327 0.0020570713 0.2104469 -0.079098046
-0.03198148 0.033254474 0.010142574 -0.123748474 0.20110352 0.15564588 0.15783475 0.15304433
0.06988791 0.004500996 0.3140298 -0.010451735 0.05119668 0.036241833 0.017491328 -0.0030889004
-0.004281241 -0.053593423 0.07760558 0.13248783 0.07346806 -0.0485984 0.0693827 -0.17551102
0.1676801 -0.07907667 0.037741162 0.04498116 0.048065107 0.14901501 -0.010774155 0.066509776
00000000: 070d 51bd b26a 4bbe 5e4d 4bbd 3724 76bd
00000010: d2bb 5c3d 8ee7 02be 5c8f fabd 21c2 82be
00000020: 6489 0f3e e416 a8bd e5a8 b03d 4637 043e
00000030: dbbc 8e3d afdd cd3d ec4d 32be 7ef7 0c3d
00000040: ad43 0c3e 0ce6 61be 0590 763c b9fb d53d
00000050: d8ae cbbd 1c50 e5bc d594 533e 580d 753e
00000060: 7bef f6bc 13dd 41bd 70ac e13d 8a9c 963d
00000070: 035c 34bb 0298 923d 5d95 be3e 4215 94be
00000080: aeb7 cebb ffcb b13d ae0e 483d 1c6a d43d
00000090: ce89 613b 5cec 78be 4dbc 043d 76b8 2c3e
000000a0: d500 293e 5f79 36be 8da5 5f3d 30ef 2bbe
000000b0: 2c20 96be bc98 2dbe cd6f 5b3d 2b98 953d
000000c0: 5649 c2bd 14db 9bbd d6b1 3ebd 9c52 673d
000000d0: 98a1 c03c c61e f3bd 445b dabc f69b 9f3b
000000e0: 24f5 39bc 3ec4 35be a67d 6a3d 9b3e 373e
000000f0: 718d 103e 74f3 9cbc 6c5b e73c 736c 10be
00000100: f240 ea3e d652 8d3e 0608 40bf 5cd4 d23c
00000110: 3cfb 633e c063 b4bc d222 673e ed92 32be
00000120: 26be 5f3e 67ac 4dbd bf46 213e 8b90 ee3d
00000130: 14ed 463e fdaf 8f3e cbf7 db3c e861 ea3e
00000140: 22f4 bfbc 1def 1bbc b9e1 46bd bcd3 223d
00000150: 2b01 253e c95a 5ebd 6a53 0e3e 9ab2 d7bd
00000160: eb59 6fbd 7b1f 3cbe af5b 7b3e c32a 4e3e
00000170: c4e5 613e 4fe4 953c c29d 4cbd 3544 01bc
00000180: 350c 3b3d b812 f23c 7297 563e 0d6f 0abe
00000190: 06d8 afbc 84a1 2dbc 8e78 433c e0f1 523b
000001a0: af09 eb3d c168 a9bd 30bb b9ba e319 6d3e
000001b0: d5f9 3d3c d0bb afbc c867 443d a2b6 0dbd
000001c0: dfed 5c3e 054a aabd 1cd4 fd3d 166f eb3d
000001d0: 614a c0bd ba27 d5bd 891e ecbc 6daf c7bd
000001e0: c09d b43c 509e 17be 0665 4a3e 68f5 bbbe
000001f0: 346e bf3e de79 c3bd e589 56be b577 cdbb
00000200: 92e4 173d 3a38 4fbd be94 043d 2884 5cbd
00000210: f238 bf3e cc23 243e f4b3 26bf 4b6d b1be
00000220: d487 2c3d 3312 f9be 62cb 1b3e f3cd 55bd
00000230: d398 31bd 98d9 c3bd 5e5a db3c 730a 803d
00000240: c3ce 1a3c 961a 15be ec55 b8be 1cd8 1c3e
00000250: a99f dbbd c2ad 653c a2fb b0bd a144 6e3e
00000260: 20d6 a9be 6fb3 89bc 0a1d febd 6729 953e
00000270: 32df 91bd 75ee 54bd 0e10 bc3d 1722 3d3e
00000280: 835a 46be 6d7b 89be cbbc 17bc da2e 1c3e
00000290: cf13 d1bd de9a c93c 8ae0 40be da76 f93e
000002a0: 0f77 a03d 17de 85bd fd52 11be 83e8 473e
000002b0: 0613 653e a5f7 05be a4c2 d53d e96a 623c
000002c0: 1780 bbbd 540e 7fbd 47a7 a3bd 81fe 483e
000002d0: 9dd8 a7be b3c7 1fbc 549e 6a3e 4966 113d
000002e0: 3a9c f53d 7b3d 22be b3f2 023d e580 4cbe
000002f0: 2810 313d 9c6f 2bbd 8ddf 0fbe 4b2e cbbd
00000300: d3b4 d93d db6e 36be 25f0 f13d 8096 4e3c
00000310: 15fb 2abc 9652 223e bb95 d03d 0dc0 2f3e
00000320: a8b9 433e b35e b43e 34d5 f2be fe03 b63e
00000330: 2cd7 353e 3246 aabd 57bb 053e a923 aabd
00000340: 2d09 463e b7a3 eb3d 654d e5bb 2ab5 c9bd
00000350: d865 f53d bb3b 673c 8686 1b3e 7724 023e
00000360: 24dd ec3d 4421 9d3d 6ec3 0a3e 5c45 2d3d
00000370: d5fa 833d eecf 063b 647f 573e 28fe a1bd
00000380: 03ff 02bd d835 083d 0a2d 263c d76f fdbd
00000390: 15ee 4d3e a261 1f3e 6f9f 213e a7b7 1c3e
000003a0: 6421 8f3d 177d 933b 84c8 a03e c13d 2bbc
000003b0: 9cb3 513d 5172 143d f949 8f3c 266f 4abb
000003c0: a749 8cbb c784 5bbd adef 9e3d e4aa 073e
000003d0: 6c76 963d 1e0f 47bd 8418 8e3d 29b9 33be
000003e0: 55b4 2b3e f3f2 a1bd 7a96 1a3d 2a3e 383d
000003f0: ebdf 443d 6497 183e 1586 30bc 4736 883d

lin1.bias f4 [128]
0.1700722 0.077365585 0.028728995 -0.0114221 0.08062544 -0.0912494 -0.045129962 -0.14928667
-0.10458516 -0.032494742 0.04457018 0.22147286 0.1041196 0.21418935 -0.02454002 0.09017536
-0.12171605 -0.05806143 0.14158994 0.014934544 -0.0826706 0.065330446 0.0067605036 0.23122461
-0.21842909 -0.02450647 -0.1164924 0.1914499 0.18870969 0.17558514 -0.009970546 -0.11672193
-0.06972844 0.0006731787 -0.055378646 0.10241792 0.083008125 0.06648222 -0.08226612 -0.11228126
-0.0146340765 -0.010760778 0.23307079 0.052919988 0.08330886 0.19374399 0.02143408 -0.23488063
0.11051697 -0.020864815 0.33518955 -0.021230834 -0.16646548 -0.10103675 0.3354582 0.04574857
-0.081271924 0.114783004 0.07330277 0.06928002 0.21231654 0.09923905 -0.06785062 0.104890555
0.019195475 0.118936345 -0.05882373 -0.023264343 0.044857427 -0.047424097 -0.12872976 -0.06861034
0.09008233 0.30501056 0.03127693 -0.035446428 0.19469304 -0.070973404 0.1586578 -0.09453332
0.015831294 0.066611774 -0.08880606 0.022105478 0.22213279 -0.017321955 0.032238197 -0.10787946
0.21188658 0.12595426 0.059217997 0.11777016 0.12323887 -0.042641435 -0.23614492 0.1553428
0.24386798 -0.22412196 0.23640501 0.19808637 -0.06570366 0.058826696 0.0056087538 -0.13603728
0.031068096 -0.21613137 -0.06561015 0.18303299 0.061956313 -0.04738351 -0.0008530789 0.030282624
0.12311125 -0.10226008 -0.16411251 -0.18645702 0.1600592 -0.14048125 0.2698582 -0.0813193
-0.077181116 -0.13515837 0.10380622 -0.05692209 -0.091807105 0.026444916 0.008526409 0.18751737
00000000: 6827 2e3e d971 9e3d 1259 eb3c c223 3bbc
00000010: f31e a53d f7e0 babd 32da 38bd 9bde 18be
00000020: bf30 d6bd 3519 05bd 398f 363d c8c9 623e
00000030: a83c d53d 7454 5b3e 2708 c9bc dcad b83d
00000040: 4446 f9bd d2d1 6dbd f4fc 103e 05b0 743c
00000050: 344f a9bd f8cb 853d 3787 dd3b 25c6 6c3e
00000060: e0ab 5fbe cbc1 c8bc 9193 eebd 710b 443e
00000070: 1d3d 413e 97cc 333e 805b 23bc e80b efbd
00000080: c9cd 8ebd 4278 303a b8d4 62bd 7dc0 d13d
00000090: 2a00 aa3d d527 883d 247b a8bd b8f3 e5bd
000000a0: c4c3 6fbc f94d 30bc 1caa 6e3e a1c2 583d
000000b0: d69d aa3d d364 463e 8696 af3c 8c84 70be
000000c0: b956 e23d b0ec aabc f79d ab3e 49ec adbc
000000d0: ed75 2abe 5bec cebd 2dc1 ab3e da62 3b3d
000000e0: e571 a6bd 5a13 eb3d c31f 963d afe2 8d3d
000000f0: 8269 593e d83d cb3d 44f5 8abd dcd0 d63d
00000100: d43f 9d3c e694 f33d 27f1 70bd dd94 bebc
00000110: 6cbc 373d c53f 42bd bcd1 03be 9483 8cbd
00000120: 167d b83d 582a 9c3e 3d1c 003d 4630 11bd
00000130: 9d5d 473e 815a 91bd 3177 223e af9a c1bd
00000140: a1b0 813c c16b 883d f4df b5bd 8c16 b53c
00000150: c776 633e c6e6 8dbc 330c 043d e8ef dcbd
00000160: ccf8 583e 27fa 003e 928e 723d 7b31 f13d
00000170: a964 fc3d c9a8 2ebd f9cf 71be 2f12 1f3e
00000180: 87b8 793e 3a80 65be 2814 723e 27d7 4a3e
00000190: a48f 86bd 43f4 703d a3c9 b73b 5b4d 0bbe
000001a0: 8582 fe3c 8b51 5dbe 9d5e 86bd 006d 3b3e
000001b0: e7c5 7d3d 3615 42bd 28a1 5fba 4413 f83c
000001c0: c021 fc3d bc6d d1bd 1c0d 28be 97ee 3ebe
000001d0: 8fe6 233e 51da 0fbe db2a 8a3e bc8a a6bd
000001e0: 2211 9ebd f566 0abe 5b98 d43d 2327 69bd
000001f0: 5d05 bcbd 02a3 d83c 5ab2 0b3c 8e04 403e

lin2.weight f4 [128, 128]
-0.14611612 -0.18141365 -0.14172748 -0.16206941 0.21266763 0.124218166 -0.1483679 -0.06016723
0.4775995 0.050243866 0.07126943 -0.10868541 0.29688025 0.15482049 -0.21662633 0.049542494
-0.037665576 -0.0028691543 0.0020371028 -0.07812516 0.07788005 0.081331596 0.58439744 0.07961331
-0.166256 0.08653308 0.24701646 0.14422761 -0.24053836 0.17455103 -0.011374484 -0.18545674
0.032102242 0.23974732 0.32595938 0.12588991 0.08596061 0.020908374 -0.124710195 -0.015504393
-0.05403881 0.13963833 -0.07722334 0.07624462 0.071343735 0.14530237 0.10632909 -0.07663667
0.25317705 -0.23119324 -0.09790138 -0.053329278 -0.3649523 0.034225896 0.3991655 -0.24418628
-0.05651172 0.24334738 0.051211063 0.66319615 0.3867879 0.14674322 0.037710823 -0.048084773
-0.16447298 -0.034932025 0.028676316 -0.15906784 -0.06588204 -0.06973188 -0.04681444 0.08242405
-0.055593725 0.18128107 0.13059993 0.13411273 0.21697761 -0.073625654 0.17659764 0.042847916
0.021624748 0.08985463 -0.12176441 0.077103235 0.24639547 -0.02563718 0.21078368 0.042034578
-0.011118016 -0.070294656 -0.10801564 0.13893144 0.06608196 0.021298107 -0.07232573 0.058933098
0.3682427 -0.18365958 0.08915818 0.16225138 0.29012924 0.29818726 -0.10290951 0.029572843
0.18925434 -0.22276774 0.12865843 -0.020444378 0.14273378 0.019386604 -0.1559213 -0.007840113
0.24317116 0.0005439015 -0.10770571 -0.21391074 0.16785766 -0.019593798 0.394334 0.026759913
-0.108791865 -0.009940329 0.120741054 -0.21839426 -0.02779332 0.0931273 -0.0011777268 0.27298895
-0.11234101 -0.031220306 -0.14036663 -0.061558675 0.0077865575 -0.0001745075 -0.07688463 0.051233314
-0.07342564 -0.07914972 0.017626451 -0.022634994 0.016376939 0.07396739 -0.014177629 -0.040636215
-0.018160362 -0.062652886 -0.030177122 0.030662172 0.027878188 0.03316943 -0.027049137 -0.098197445
-0.06064557 0.05867023 -0.027922425 -0.07626628 -0.04650716 0.015081978 -0.028120622 0.017722763
-0.056943268 0.08118085 0.023784695 -0.065390505 0.055968195 -0.011777744 -0.005875733 -0.02521469
0.015936218 -0.050280508 -0.087413795 -0.015194669 0.035381414 0.043643616 0.08803878 0.0017098351
-0.05074443 -0.0031601302 0.010061082 0.0067522377 -0.08811289 0.00417272 -0.046838026 -0.09405234
-0.054702353 0.06271999 0.044605963 0.036414918 -0.09583666 -0.034193352 -0.058408897 0.02908357
-0.06562243 -0.0036799363 -0.014814831 0.006458734 0.014467768 -0.079065725 0.01592797 0.0726408
-0.06817706 -0.10811729 -0.03862575 -0.020731008 0.0038916108 -0.0005543232 0.034520727 0.04872682
-0.016703302 -0.08911298 0.09321602 -0.08784745 0.08888193 -0.034538437 4.81117e-05 -0.045292225
0.07166363 -0.021568088 -0.0066552754 0.062805094 -0.094327405 0.0874633 -0.007737874 -0.0764319
-0.09817138 0.015351609 -0.095896676 -0.06003846 0.06692498 -0.07349276 0.036396556 -0.060498662
-0.050934862 0.045498885 -0.09512843 -0.045575645 -0.006797869 0.04858219 -0.054976676 -0.011504256
-0.040240623 -0.06635543 -0.08213676 -0.007632641 -0.043171894 0.039459955 -0.093983896 0.08779491
-0.022792963 0.0033156832 0.011998325 -0.10743141 -0.004655972 -0.015323877 -0.06807879 -0.08142262
00000000: 779f 15be 80c4 39be 0221 11be 86f5 25be
00000010: 8bc5 593e 1866 fe3d c1ed 17be ea71 76bd
00000020: ec87 f43e 83cc 4d3d b5f5 913d 7596 debd
00000030: b000 983e 4389 1e3e 4bd3 5dbe 12ed 4a3d
00000040: 3847 1abd 6c08 3cbb ea80 053b 1500 a0bd
00000050: 937f 9f3d 2e91 a63d 129b 153f 4e0c a33d
00000060: 033f 2abe 4138 b13d e2f1 7c3e 67b0 133e
00000070: b04f 76be 81bd 323e 0b5c 3abc 5fe8 3dbe
00000080: a47d 033d 5280 753e 26e4 a63e 49e9 003e
00000090: 1e0c b03d 0a48 ab3c 0f68 ffbd 2306 7ebc
000000a0: cd57 5dbd 5afd 0e3e 4527 9ebd 2426 9c3d
000000b0: aa1c 923d 25ca 143e 11c3 d93d b0f3 9cbd
000000c0: 6ca0 813e ecbd 6cbe 8580 c8bd cd6f 5abd
000000d0: 07db babe 7430 0c3d 6c5f cc3e f80b 7abe
000000e0: d578 67bd 0e30 793e b1c2 513d 39c7 293f
000000f0: 1009 c63e db43 163e aa76 1a3d 8af4 44bd
00000100: 9b6b 28be e214 0fbd 98ea ea3c aee2 22be
00000110: 2aed 86bd 97cf 8ebd 80c0 3fbd f1cd a83d
00000120: 3fb6 63bd bfa1 393e fdbb 053e d954 093e
00000130: 612f 5e3e 0cc9 96bd 03d6 343e 4c81 2f3d
00000140: 6226 b13c b405 b83d 9e5f f9bd 4de8 9d3d
00000150: 184f 7c3e 1005 d2bc add7 573e 732c 2c3d
00000160: 5728 36bc a5f6 8fbd 4e37 ddbd 0b44 0e3e
00000170: fb55 873d 5e79 ae3c 831f 94bd d563 713d
00000180: 4f8a bc3e 4211 3cbe 9098 b63d 3a25 263e
00000190: d28b 943e 00ac 983e 39c2 d2bd bf42 f23c
000001a0: e4cb 413e 3a1d 64be 09bf 033e f87a a7bc
000001b0: ce28 123e a8d0 9e3c d5a9 1fbe d173 00bc
000001c0: dc01 793e 9d94 0e3a d094 dcbd 6b0b 5bbe
000001d0: e1e2 2b3e 2c83 a0bc 25e6 c93e 9b37 db3c
000001e0: 45ce debd c3dc 22bc 1647 f73d bfa2 5fbe
000001f0: d1ae e3bc 87b9 be3d f45d 9aba 35c5 8b3e
00000200: 0b13 e6bd bac1 ffbc 45bc 0fbe f324 7cbd
00000210: 6126 ff3b 00fc 36b9 b075 9dbd 06da 513d
00000220: 2f60 96bd 4019 a2bd 5965 903c 066d b9bc
00000230: ee28 863c 377c 973d 4949 68bc 2972 26bd
00000240: 0ac5 94bc 2850 80bd 0336 f7bc 3c2f fb3c
00000250: cc60 e43c abdc 073d 2796 ddbc be1b c9bd
00000260: 7d67 78bd 3250 703d 92bd e4bc 7f31 9cbd
00000270: 4b7e 3ebd 671a 773c 385d e6bc 542f 913c
00000280: 583d 69bd 2542 a63d 1fd8 c23c 75eb 85bd
00000290: e83e 653d 70f7 40bc 3989 c0bb 0a8f cebc
000002a0: ac8c 823c eff2 4dbd 0106 b3bd 10f3 78bc
000002b0: 1aec 103d a6c3 323d ad4d b43d 8c1c e03a
000002c0: 64d9 4fbd 301a 4fbb 3dd7 243c e041 dd3b
000002d0: 8874 b4bd 50bb 883b 3bd9 3fbd 839e c0bd
000002e0: 930f 60bd 5773 803d beb4 363d cf27 153d
000002f0: 0346 c4bd 540e 0cbd 2b3e 6fbd ab40 ee3c
00000300: 0d65 86bd 162b 71bb e8b9 72bc caa3 d33b
00000310: 380a 6d3c 36ed a1bd 607b 823c b3c4 943d
00000320: 6aa0 8bbd 996c ddbd 0936 1ebd 13d4 a9bc
00000330: 650a 7f3b 0050 11ba 9b65 0d3d c695 473d
00000340: 5dd5 88bc de80 b6bd 0ae8 be3d 5de9 b3bd
00000350: bb07 b63d 2d78 0dbd 8bcb 4938 5784 39bd
00000360: 62c4 923d 8faf b0bc 7f14 dabb f59f 803d
00000370: ba2e c1bd f51f b33d fe8d fdbb 5488 9cbd
00000380: 140e c9bd 5185 7b3c 7a65 c4bd e3ea 75bd
00000390: f70f 893d 5f83 96bd 8e14 153d 72cd 77bd
000003a0: 13a1 50bd 0a5d 3a3d b2d2 c2bd 87ad 3abd
000003b0: a9c0 debb 1efe 463d 392f 61bd 597c 3cbc
000003c0: 5ad3 24bd 5be5 87bd 5137 a8bd 3c1b fabb
000003d0: 03d5 30bd c3a0 213d a17a c0bd d1cd b33d
000003e0: 4fb8 babc ef4b 593b 9f94 443c 0005 dcbd
000003f0: 2091 98bb 0011 7bbc e56c 8bbd e7c0 a6bd
