code/GCNN_BSC/BC_K2Epoch400T.pth (torch, 212347 bytes, 14 tensors)

conv1.bias f4 [32]
-0.112843044 -0.059524227 -0.27614877 -0.27399972 0.13516733 0.042922653 -0.31604752 -0.011720986
0.045199275 0.016748112 -0.0043817647 0.13367082 0.075564414 0.06464617 -0.07509473 -0.14904094
-0.06145942 -0.027119478 0.01565838 0.042365417 -0.17883693 0.04425331 -0.18284744 0.04197485
-0.15646015 -0.32254958 0.035246238 -0.023826849 -0.1464271 0.042382352 -0.048889685 0.014039143
00000000: 411a e7bd adcf 73bd 5f63 8dbe b149 8cbe
00000010: 4e69 0a3e aacf 2f3d fbd0 a1be 6109 40bc
00000020: e022 393d 5633 893c e894 8fbb 01e1 083e
00000030: 84c1 9a3d 3665 843d 44cb 99bd 309e 18be
00000040: dfbc 7bbd ab29 debc 0146 803c 5c87 2d3d
00000050: 0721 37be f542 353d 5c3c 3bbe d2ed 2b3d
00000060: 1737 20be 3825 a5be 5c5e 103d 8630 c3bc
00000070: fcf0 15be 1e99 2d3d 8d40 48bd 6f04 663c

conv1.lin.weight f4 [32, 16]
-0.106888935 -0.016188769 -0.1012486 0.17727587 0.07751946 0.0493279 0.049210303 -0.20509581
-0.22153333 0.36714703 0.51743746 -0.2881887 -0.42917892 -0.08073156 -0.01585351 -0.02221127
-0.15004604 -0.29729033 -0.15424787 0.26708812 0.22762826 -0.34228683 -0.6173786 0.47607872
-0.15641786 0.05682744 -0.0030631525 0.27198285 -0.17662187 0.049600046 -0.70119 -0.17032051
-0.060317345 0.5238948 -0.17410181 0.121741034 0.15577419 0.31956732 -0.0880011 0.35181934
-0.005684154 -0.09797272 0.16332059 -0.19590725 0.21098965 0.06223141 -0.27394715 0.26823273
-0.101484515 -0.49737382 -0.25029767 0.02074131 0.33695167 0.32164657 -0.247932 0.44970918
0.16081032 0.23058833 -0.14874256 0.09749839 -0.35393703 -0.17853497 0.0024634313 0.17200425
0.31984285 -0.034312963 -0.5008774 0.10254279 -0.23240668 0.024890244 -0.64965075 0.055521384
0.3221593 -0.1091012 0.085036546 0.12437884 -0.14978044 -0.41880023 -0.5652328 -0.053547192
-0.22291899 -0.06548304 0.31093517 -0.019322433 0.5566891 -0.05606622 -0.4298891 -0.048127253
-0.18313316 -0.09725401 -0.67632014 0.44891095 -0.0068193483 0.031357277 -0.55482364 -0.11854941
-0.11210959 -0.12436658 0.054326404 -0.04620169 0.21538137 0.30334547 0.20424403 0.18621011
-0.115929924 0.18543743 -0.10082141 -0.43699402 0.07475086 0.20473753 0.6567335 0.33330917
-0.26139587 0.5773919 -0.112735786 0.011582471 -0.45038953 -0.06326206 -0.023180347 0.07577017
-0.06395326 0.46365306 0.3719994 -0.19363362 0.50543183 0.120365925 -0.04574665 0.24387316
0.013951823 -0.10908835 -0.365184 0.15501414 -0.06854223 -0.37995073 -0.5318841 -0.02603955
-0.24025042 0.04512874 -0.2363961 0.20253813 0.05895263 0.15056485 -0.7207147 0.6021391
0.034718502 0.3516697 0.29398674 -0.1513418 -0.018233534 0.20433708 -0.04723411 -0.02295261
-0.23968415 0.039916147 -0.69020283 0.3243822 -0.40912345 0.13606463 -0.3284794 -0.14007998
0.06583943 0.6960985 -0.03103913 -0.03723709 -0.5187052 -0.07528971 -0.047689054 0.10914769
-0.0918902 -0.46012303 -0.045883216 0.03005514 0.32097644 -0.43156138 -0.01203074 0.30955335
-0.18400764 0.34155568 0.21958518 -0.070822686 0.24183829 -0.09213997 0.06701734 0.17367111
0.078700885 0.4878929 -0.03845259 -0.37075037 -0.07580128 -0.42450872 -0.31046376 -0.24312417
-0.2734587 0.31701064 0.18637645 0.19704881 -0.32868087 -0.1564736 -0.43464455 -0.09480418
0.14180064 0.26057994 0.43775415 0.2926243 -0.12254634 -0.182266 -0.13192677 -0.4110618
0.218133 0.13971882 0.27915558 0.068753496 -0.25139582 -0.19869733 -0.4225057 -0.38191253
-0.11873109 0.29116192 0.13780575 0.16352771 -0.23232862 -0.0405955 0.036747456 -0.23344982
0.09760335 0.059872888 0.31728986 -0.10408335 0.021127691 0.081843324 0.024130356 0.22180763
-0.03522448 0.19185163 0.07783292 -0.600016 0.06336841 -0.17932223 0.087206155 0.38774565
0.05798298 -0.006271229 -0.38130572 0.0137969935 -0.1082452 0.19828135 0.68783367 0.08615329
-0.112298794 -0.2551343 0.21551225 0.049950927 -0.13960478 0.05104346 0.21124157 -0.13161029
00000000: 96e8 dabd 4f9e 84bc 6d5b cfbd ce87 353e
00000010: 86c2 9e3d 0d0c 4a3d be90 493d a304 52be
00000020: a2d9 62be b2fa bb3e c876 043f 788d 93be
00000030: 57bd dbbe 9756 a5bd 38df 81bc 69f4 b5bc
00000040: aba5 19be 7036 98be 27f3 1dbe c6bf 883e
00000050: 6217 693e 3840 afbe 860c 1ebf 97c0 f33e
00000060: 012c 20be e4c3 683d 2cbf 48bb 5641 8b3e
00000070: 5ddc 34be 6b29 4b3d 3081 33bf 8068 2ebe
00000080: 520f 77bd f81d 063f bf47 32be 5d53 f93d
00000090: 4583 1f3e 549e a33e ec39 b4bd aa21 b43e
000000a0: 2442 babb eca5 c8bd 833d 273e e99b 48be
000000b0: ac0d 583e 5de6 7e3d cd42 8cbe cd55 893e
000000c0: 1dd7 cfbd c8a7 febe 0427 80be aee9 a93c
000000d0: ee84 ac3e dcae a43e e3e1 7dbe 4840 e63e
000000e0: 76ab 243e 591f 6c3e f84f 18be 3cad c73d
000000f0: 3c37 b5be dfd1 36be 8571 213b e221 303e
00000100: 71c2 a33e c08b 0cbd 8039 00bf f401 d23d
00000110: 04fc 6dbe a0e6 cb3c 834f 26bf 646a 633d
00000120: 10f2 a43e 7370 dfbd a427 ae3d 55ba fe3d
00000130: 0b60 19be fc6c d6be 19b3 10bf 4d54 5bbd
00000140: e044 64be f91b 86bd e532 9f3e 144a 9ebc
00000150: 2d83 0e3f b1a5 65bd 6d1a dcbe 1521 45bd
00000160: 4287 3bbe 1c2d c7bd 5123 2dbf a8d7 e53e
00000170: d774 dfbb 7d70 003d ec08 0ebf 08ca f2bd
00000180: b699 e5bd e8b3 febd 5d85 5e3d fc3d 3dbd
00000190: ef8c 5c3e 1950 9b3e 5925 513e ddad 3e3e
000001a0: ab6c edbd 4fe3 3d3e 757b cebd aebd dfbe
000001b0: fb16 993d b7a6 513e b01f 283f 80a7 aa3e
000001c0: aed5 85be f5cf 133f 05e2 e6bd 68c4 3d3c
000001d0: 7599 e6be 8a8f 81bd b6e4 bdbc 642d 9b3d
000001e0: edf9 82bd ef63 ed3e b576 be3e e447 46be
000001f0: fb63 013f 6982 f63d d760 3bbd e3b9 793e
00000200: 3096 643c b669 dfbd 66f9 babe 07bc 1e3e
00000210: de5f 8cbd e788 c2be 8e29 08bf e550 d5bc
00000220: 3504 76be ead8 383d d211 72be 2866 4f3e
00000230: 5078 713d ac2d 1a3e c280 38bf ca25 1a3f
00000240: fd34 0e3d 0d0e b43e 6e85 963e 58f9 1abe
00000250: 7e5e 95bc bd3d 513e 8e78 41bd 1d07 bcbc
00000260: c36f 75be 1d7f 233d 22b1 30bf 6c15 a63e
00000270: a178 d1be 8754 0b3e 742e a8be 2071 0fbe
00000280: d3d6 863d 8333 323f c645 febc eb85 18bd
00000290: ddc9 04bf 7e31 9abd 9955 43bd d388 df3d
000002a0: ee30 bcbd 3f95 ebbe 0af0 3bbd 3236 f63c
000002b0: 0657 a43e 9df5 dcbe 951c 45bc c77d 9e3e
000002c0: 806c 3cbe 63e0 ae3e f0da 603e 7c0b 91bd
000002d0: 75a4 773e e1b3 bcbd 6340 893d d7d6 313e
000002e0: ee2d a13d 19cd f93e 7780 1dbd fed2 bdbe
000002f0: b43d 9bbd 3559 d9be 1bf5 9ebe 8bf5 78be
00000300: c702 8cbe 384f a23e 78d9 3e3e 2ac7 493e
00000310: dc48 a8be 9e3a 20be bb89 debe b228 c2bd
00000320: 3034 113e bc6a 853e 5021 e03e dad2 953e
00000330: 93f9 fabd f0a3 3abe d017 07be b176 d2be
00000340: 425e 5f3e 7312 0f3e 7bed 8e3e a2ce 8c3d
00000350: f4b6 80be 5077 4bbe ab52 d8be 0a8a c3be
00000360: 4929 f3bd 2d13 953e f31c 0d3e cf73 273e
00000370: 8ee7 6dbe 7847 26bd 8084 163d 780d 6fbe
00000380: 44e4 c73d 463d 753d d173 a23e a729 d5bd
00000390: fb13 ad3c 799d a73d 06ad c53c 8a21 633e
000003a0: 8b47 10bd c174 443e de66 9f3d a69a 19bf
000003b0: 4cc7 813d 3fa0 37be 2499 b23d 9986 c63e
000003c0: 907f 6d3d e27e cdbb 813a c3be c90c 623c
000003d0: a9af ddbd 440a 4b3e de15 303f 2371 b03d
000003e0: e9fc e5bd f7a0 82be 3eaf 5c3e 5899 4c3d
000003f0: 8ef4 0ebe f212 513d b64f 583e d9c4 06be

conv2.bias f4 [128]
-0.08120624 0.0005664351 -0.0056299414 -0.0073111993 -0.06545996 0.006771079 0.052829158 -0.075225934
-0.05414571 0.06694309 -0.029188592 -0.08151499 -0.030060332 0.036007617 0.01468895 0.0658932
0.09979672 -0.12429029 0.07993687 -0.016302932 0.040973175 -0.043034818 -0.05725922 -0.043427654
0.03694638 -0.031446397 -0.17435463 0.061359797 -0.035388853 0.005440058 -0.09481053 -0.011614492
0.006418945 0.06366486 0.068162635 -0.07888415 0.015916081 -0.10915215 0.082594804 0.05506847
0.03542846 -0.13585916 0.016369564 0.09137081 -0.015200064 -0.0031361226 -0.0140310265 -0.026221903
0.04955071 0.025455108 -0.016903603 -0.10392672 -0.048167456 -0.034355797 -0.029073054 -0.04502331
0.020498438 -0.044075925 0.020477451 -0.080378585 0.029598426 -0.19635771 -0.024957184 -0.05574779
0.016308729 0.012321829 -0.046677914 0.020724364 0.06912888 0.015287593 0.031527895 0.033949345
-0.09694512 -0.026298525 -0.0005852864 -0.015643569 -0.07328799 0.027852392 0.04262175 -0.014626049
0.07499862 -0.007263895 -0.0420853 0.062344596 -0.010579412 0.073196374 0.010097242 0.0036537508
-0.10332754 0.016205551 0.041043755 -0.059546083 0.048927587 0.010285378 0.023154287 -0.09910825
0.0047160615 -0.009158734 0.029852156 -0.04374334 -0.10655301 -0.03374543 -0.0014933442 0.052283652
0.04346825 0.015562695 -0.06965478 0.08040849 0.01202455 0.030355303 -0.02590199 0.06861325
-0.034287397 -0.034295823 0.0044587865 -0.16672684 0.04897951 0.053410206 -0.020584758 0.009154311
-0.0030758034 -0.16630757 -0.033915468 0.004243714 0.0003494397 -0.097426265 0.096563905 -0.041343223
00000000: 754f a6bd d17c 143a 5f7b b8bb c992 efbb
00000010: df0f 86bd eddf dd3b 6363 583d 0e10 9abd
00000020: e4c7 5dbd 7519 893d ea1c efbc 55f1 a6bd
00000030: 1641 f6bc b97c 133d eca9 703c 04f3 863d
00000040: 3962 cc3d e88b febd f1b5 a33d ba8d 85bc
00000050: 7dd3 273d 4745 30bd a588 6abd 32e1 31bd
00000060: 1655 173d f0cd 00bd 058a 32be 6954 7b3d
00000070: e7f3 10bd 8442 b23b 062c c2bd b64a 3ebc
00000080: 0356 d23b b962 823d da98 8b3d 038e a1bd
00000090: 7162 823c 2a8b dfbd 7727 a93d 7a8f 613d
000000a0: 6f1d 113d aa1e 0bbe 7719 863c 9f20 bb3d
000000b0: b009 79bc 6887 4dbb 64e2 65bc 51cf d6bc
000000c0: aff5 4a3d 3b87 d03c 6d79 8abc 88d7 d4bd
000000d0: 3d4b 45bd aab8 0cbd 9d2a eebc 5d6a 38bd
000000e0: 57ec a73c f588 34bd 54c0 a73c 879d a4bd
000000f0: 6678 f23c ff11 49be 0273 ccbc cb57 64bd
00000100: e299 853c 7fe1 493c 5731 3fbd 24c6 a93c
00000110: 7193 8d3d d078 7a3c 6523 013d 780e 0b3d
00000120: 2a8b c6bd 0170 d7bc e86d 19ba f126 80bc
00000130: 0418 96bd b32a e43c 2594 2e3d 19a2 6fbc
00000140: e098 993d f805 eebb a361 2cbd 0c5d 7f3d
00000150: 4555 2dbc fbe7 953d e76e 253c c473 6f3b
00000160: 649d d3bd 81c1 843c 7f1d 283d 98e6 73bd
00000170: 4b68 483d 0184 283c 0fae bd3c 44f9 cabd
00000180: 3189 9a3b 840e 16bc 828c f43c 372c 33bd
00000190: 7738 dabd a638 0abd 51bc c3ba 6227 563d
000001a0: c40b 323d adfa 7e3c 2aa7 8ebd 35ad a43d
000001b0: 9e02 453c afab f83c 6930 d4bc 1b85 8c3d
000001c0: f170 0cbd c779 0cbd 031b 923b 71ba 2abe
000001d0: bd9e 483d a9c4 5a3d 5ea1 a8bc f7fb 153c
000001e0: 6b93 49bb 884c 2abe f2ea 0abd da0e 8b3b
000001f0: 0135 b739 6c87 c7bd 4cc3 c53d 8357 29bd

conv2.lin.weight f4 [128, 32]
0.21704336 -0.13583419 0.04224407 -0.33795273 -0.119326286 -0.19332953 0.25332087 -0.076495074
-0.16594425 0.043375373 -0.08618768 0.09219153 -0.03550932 0.21716467 0.03315698 0.08611878
0.08669718 0.00027077092 0.051107127 0.04777861 -0.0137033295 0.17822534 -0.10328732 -0.21929799
0.019934002 0.15234905 0.11293553 -0.2050513 -0.18201599 -0.1417806 0.1798308 0.00047647912
-0.33349055 -0.11693207 0.04025411 0.06713372 -0.16357946 0.18408194 -0.129155 -0.0072129155
0.16363283 -0.29648212 0.1613171 0.0758479 -0.2427947 -0.10176026 0.007633117 0.079375155
-0.26518524 -0.16374442 -0.14493261 -0.06804936 -0.28259546 -0.24717256 0.069834605 0.10953752
-0.106708296 -0.22003537 -0.08553168 -0.4271504 0.10331701 0.18433863 -0.14759678 -0.13209487
-0.04498143 -0.08287544 -0.26040894 -0.0880406 0.4138815 -0.07628775 -0.1829633 0.015228231
0.11878386 0.004111108 -0.0035125487 -0.12442813 0.17550918 0.19744399 0.09907048 -0.3276139
0.028776908 -0.2211664 0.0038524966 0.033826053 0.10383093 -0.39687017 0.15901805 0.08547973
0.14454906 -0.01896944 -0.2698435 -0.18202475 -0.29610938 -0.11956422 -0.014018399 -0.036762234
0.029304555 0.011841391 0.16194275 0.09256362 0.14724784 -0.1844194 -0.038556606 0.029299295
0.22418825 -0.12531395 -0.0542436 -0.30484828 -0.029331798 -0.32770592 0.033785146 0.14966498
-0.28643164 -0.0503789 -0.05164092 -0.0035543977 -0.079440944 -0.0016642316 0.048048895 -0.053862825
0.09564957 0.03335637 -0.03115104 -0.14921851 0.16310094 -0.17067048 -0.44138613 0.10116044
-0.24000183 0.14909329 0.1865359 0.14163019 -0.20214127 0.1499105 0.13353781 0.0055523557
0.024107885 0.104601145 0.015349981 -0.12366935 0.16631559 -0.099697314 -0.112994276 0.0232171
-0.41831887 0.043579873 -0.2332203 -0.1885211 -0.08710286 0.11328279 -0.07025776 0.06470486
0.15245207 0.07031106 0.23918605 -0.12507382 -0.13440484 -0.11534581 -0.30508673 -0.09173666
-0.20012888 -0.08317251 0.24264964 0.030078527 -0.0257494 -0.2521564 0.09051464 0.07433572
-0.12192496 -0.49689955 0.16153531 -0.39163703 -0.33339614 -0.18178886 0.17702205 0.0710715
-0.0021215405 -0.14748678 -0.1379077 -0.25283316 -0.25344172 -0.50303817 0.13598315 0.03071197
0.026010007 0.06348007 -0.0707493 -0.023223175 -0.29923546 -0.30820215 -0.042752378 -0.0021461912
0.07716693 0.19005163 0.044546116 -0.021629846 -0.12243335 0.010329278 -0.4504822 0.034309287
0.18407503 -0.00562635 -0.08104848 -0.014698219 0.15267783 -0.09212857 -0.39537388 0.20162049
-0.085415736 0.091292426 0.059597254 -0.103940524 -0.23081663 0.1429603 -0.16417746 0.043226577
0.030336548 -0.11477645 -0.20580485 -0.14904112 0.07761148 0.11125672 -0.33957228 0.1560631
-0.1185284 -0.14998975 0.066894874 0.20905091 -0.051304456 0.3587519 0.18668737 -0.07906112
-0.10904252 0.26637143 0.16139032 -0.29990447 -0.33603635 0.12151746 0.07383024 -0.0431432
0.15733609 0.006586737 -0.03579733 -0.13966519 0.27973196 -0.17159663 0.084738925 -0.012860842
-0.18293509 0.11097353 -0.1813549 -0.20727184 0.15099223 0.10095344 0.061611228 -0.0007686805
00000000: 9d40 5e3e 1e18 0bbe 1e08 2d3d 2408 adbe
00000010: 5761 f4bd 2df8 45be 46b3 813e 73a9 9cbd
00000020: 4aed 29be 60aa 313d 2b83 b0bd eace bc3d
00000030: 3972 11bd 6a60 5e3e 9dcf 073d 0b5f b03d
00000040: 4b8e b13d 42f6 8d39 b555 513d 81b3 433d
00000050: ee83 60bc b480 363e 4d88 d3bd a78f 60be
00000060: a24c a33c 6401 1c3e be4a e73d f8f8 51be
00000070: 6662 3abe ef2e 11be 9125 383e f2cf f939
00000080: 46bf aabe 157a efbd 7ee1 243d 677d 893d
00000090: 6081 27be fa7f 3c3e 3541 04be 525a ecbb
000000a0: 5d8f 273e 81cc 97be 4f30 253e 2556 9b3d
000000b0: 2d9f 78be af67 d0bd 3a1f fa3b 718f a23d
000000c0: 5cc6 87be 9eac 27be 3769 14be 765d 8bbd
000000d0: 5ab0 90be ce1a 7dbe 7205 8f3d 3555 e03d
000000e0: e189 dabd f450 61be 3c2b afbd 75b3 dabe
000000f0: de97 d33d 44c3 3c3e 9c23 17be e143 07be
00000100: 733e 38bd 99ba a9bd 5254 85be a14e b4bd
00000110: 47e8 d33e c03c 9cbd bb5a 3bbe d57f 793c
00000120: f444 f33d 79b6 863b ca32 66bb 2dd4 febd
00000130: aeb8 333e c22e 4a3e 77e5 ca3d 02bd a7be
00000140: 8dbd eb3c 7279 62be 2b7a 7c3b 308d 0a3d
00000150: 50a5 d43d 9132 cbbe a1d5 223e ff0f af3d
00000160: ab04 143e cd65 9bbc ed28 8abe b264 3abe
00000170: a69b 97be 16de f4bd 6dad 65bc ff93 16bd
00000180: 1b10 f03c 6502 423c 52d4 253e ff91 bd3d
00000190: 23c8 163e 70d8 3cbe 88ed 1dbd 1305 f03c
000001a0: 9b91 653e 4d52 00be 8a2e 5ebd 1315 9cbe
000001b0: 3d49 f0bc 12c9 a7be 4b62 0a3d c741 193e
000001c0: 2ba7 92be 1b5a 4ebd 6e85 53bd e6f0 68bb
000001d0: efb1 a2bd 5922 daba ebce 443d 449f 5cbd
000001e0: ece3 c33d b0a0 083d 7730 ffbc bdcc 18be
000001f0: ef03 273e 3ec4 2ebe 5dfd e1be 342d cf3d
00000200: 0ac3 75be e9ab 183e 4403 3f3e 8107 113e
00000210: 1ffe 4ebe 2382 193e 23be 083e 89f0 b53b
00000220: e67d c53c 2039 d63d 7d7e 7b3c 5b46 fdbd
00000230: a24e 2a3e 1b2e ccbd 8b69 e7bd ca31 be3c
00000240: e42d d6be cf80 323d 4dd1 6ebe ad0b 41be
00000250: fc62 b2bd cf00 e83d 4de3 8fbd fb83 843d
00000260: 651c 1c3e 3fff 8f3d 30ed 743e 5a13 00be
00000270: 6ca1 09be 6d3a ecbd 5434 9cbe 6ee0 bbbd
00000280: 96ee 4cbe 5956 aabd 2679 783e 3e67 f63c
00000290: 68f0 d2bc a51a 81be bd5f b93d 533d 983d
000002a0: cbb3 f9bd 9e69 febe 8369 253e a684 c8be
000002b0: e6b2 aabe dc26 3abe 4545 353e ef8d 913d
000002c0: 8b09 0bbb c606 17be ad37 0dbe 5973 81be
000002d0: 1dc3 81be 1cc7 00bf 2b3f 0b3e ab97 fb3c
000002e0: f012 d53c d701 823d 02e5 90bd 873e bebc
000002f0: 6435 99be accc 9dbe 1e1d 2fbd 1da7 0cbb
00000300: b209 9e3d e59c 423e fd75 363d 1331 b1bc
00000310: 56be fabd 223c 293c 9aa5 e6be e587 0c3d
00000320: 2a7e 3c3e 3f5d b8bb bffc a5bd ccd0 70bc
00000330: 9457 1c3e e7ad bcbd 726e cabe 9a75 4e3e
00000340: 72ee aebd 86f7 ba3d 401c 743d c5de d4bd
00000350: 325b 6cbe 2f64 123e 231e 28be 5a0e 313d
00000360: 5a84 f83c ea0f ebbd 82be 52be 3c9e 18be
00000370: c5f2 9e3d 90da e33d 6bdc adbe 01cf 1f3e
00000380: 05bf f2bd ea96 19be 2e00 893d 7111 563e
00000390: 9f24 52bd 54ae b73e f92a 3f3e ccea a1bd
000003a0: af51 dfbd d661 883e 8143 253e 148d 99be
000003b0: f50c acbe 25de f83d 4f34 973d edb6 30bd
000003c0: b61c 213e 8ed5 d73b 39a0 12bd 6404 0fbe
000003d0: 0739 8f3e 07b7 2fbe 9a8b ad3d 48b6 52bc
000003e0: 5653 3bbe 1746 e33d 19b5 39be 123f 54be
000003f0: b59d 1a3e adc0 ce3d 0e5c 7c3d 4681 49ba

conv3.bias f4 [128]
-0.02471493 0.0658803 0.1541649 -0.07037017 -0.18315354 0.09372514 -0.06750245 0.028481206
0.04759954 0.08960625 0.02672267 -0.035653733 -0.01676294 0.16628517 0.011164022 -0.064433984
0.12464986 0.042110927 -0.04548249 -0.104907095 -0.15261024 -0.07490119 0.05404596 0.039218336
-0.014739128 0.02799426 -0.07239504 0.015691174 0.09875567 0.037105683 0.018671745 0.06371491
-0.07478544 0.06337874 0.11385908 0.020084664 0.0062930477 -0.044101767 -0.0053315805 0.09753932
-0.08714955 0.12789623 0.0910428 0.032438252 -0.080285005 0.04519893 0.20687912 -0.047621258
0.010409126 0.108004846 0.1674546 0.0016371716 0.0545092 0.0076093725 0.08811471 0.038666356
0.031310856 0.11414654 0.17615587 0.08397666 0.08026851 -0.14700522 0.111431204 -0.013059515
0.08930604 0.047870953 0.09509642 -0.17112522 -0.23072399 0.083925806 0.04867768 -0.016533159
0.036031198 0.081481695 -0.08748243 -0.04443626 -0.032247458 0.006580978 0.011745504 0.1392378
0.0801143 -0.05598866 0.06199253 -0.07701606 0.051438488 -0.18369374 0.04490714 0.049972802
0.045201417 0.025885612 -0.14095046 -0.11075296 -0.03544188 0.058104824 0.06514707 0.16251218
0.19416231 -0.024642656 -0.09723439 0.08504539 0.12245748 -0.100231126 0.05664414 -0.053759363
0.07545887 0.04974409 0.10262038 0.048742138 -0.0019234052 -0.03067413 0.09430132 0.13226315
-0.0040878695 0.052760977 0.05716905 0.14217003 0.06556455 0.007881758 -0.093096666 0.111629166
-0.152819 -0.042937454 -0.014137865 -0.007479926 -0.037502706 0.10451404 0.05320533 0.044531275
00000000: f776 cabc 40ec 863d 67dd 1d3e 3c1e 90bd
00000010: 9a8c 3bbe f7f2 bf3d b93e 8abd 6b51 e93c
00000020: bcf7 423d 7b83 b73d 80e9 da3c a609 12bd
00000030: 6f52 89bc a946 2a3e 4de9 363c f7f5 83bd
00000040: 6d48 ff3d 827c 2c3d d94b 3abd 88d9 d6bd
00000050: dc45 1cbe cc65 99bd 4c5f 5d3d 68a3 203d
00000060: 627c 71bc 3854 e53c da43 94bd c78a 803c
00000070: 6a40 ca3d 21fc 173d 7df5 983c f67c 823d
00000080: 1c29 99bd b6cc 813d f32e e93d 9888 a43c
00000090: e935 ce3b 0ea4 34bd 8ab4 aebb b2c2 c73d
000000a0: 777b b2bd 3bf7 023e a674 ba3d f9dd 043d
000000b0: 776c a4bd 8322 393d 1fd8 533e 820e 43bd
000000c0: 0a8b 2a3c a531 dd3d 3879 2b3e 5d96 d63a
000000d0: 0a45 5f3d 0b58 f93b 7c75 b43d 9d60 1e3d
000000e0: d03f 003d a9c5 e93d 3462 343e f5fb ab3d
000000f0: d163 a43d 8988 16be 0b36 e43d 93f7 55bc
00000100: 16e6 b63d 5514 443d e9c1 c23d 733b 2fbe
00000110: e942 6cbe 4be1 ab3d 3f62 473d 8c70 87bc
00000120: 7395 133d e0df a63d fd29 b3bd cc02 36bd
00000130: e915 04bd 3fa5 d73b 3770 403c 5b94 0e3e
00000140: f712 a43d 5d54 65bd e1eb 7d3d 99ba 9dbd
00000150: 2ab1 523d 361a 3cbe 8df0 373d 48b0 4c3d
00000160: 1f25 393d 100e d43c 5155 10be 73d2 e2bd
00000170: 812b 11bd 53ff 6d3d d46b 853d 9869 263e
00000180: 7cd2 463e 65df c9bc d322 c7bd 472c ae3d
00000190: fdca fa3d fa45 cdbd b003 683d c732 5cbd
000001a0: 2e8a 9a3d 75c0 4b3d a22a d23d d6a5 473d
000001b0: c51a fcba 5048 fbbc 0d21 c13d fe6f 073e
000001c0: 89f3 85bb e51b 583d 182a 6a3d 0595 113e
000001d0: b546 863d 7d22 013c 77a9 bebd d59d e43d
000001e0: 957c 1cbe 2fdf 2fbd 81a2 67bc 2b1a f5bb
000001f0: 709c 19bd 750b d63d d5ed 593d 6d66 363d

conv3.lin.weight f4 [128, 128]
-0.11164606 0.16851531 -0.04057156 0.06613662 0.1532047 0.014633346 -0.21139102 -0.016985899
-0.21047713 -0.13679487 -0.07254198 0.049757816 0.012947189 -0.06547173 0.1333961 0.05799989
0.117635004 0.32254875 0.09748087 -0.35776582 0.068467356 -0.013281274 -0.10356587 -0.16712616
-0.11235762 0.05650791 -0.10613881 0.005353947 0.24029529 0.2632295 -0.06191556 0.046303645
-0.2126616 -0.20504083 0.1171211 -0.086536 0.107345805 -0.026421705 -0.0843801 -0.02864329
-0.10841163 0.111459285 -0.08858647 0.09094516 -0.066567704 -0.11836063 0.08724339 0.17050768
0.028199729 0.14097106 0.08354398 0.13764687 -0.12629634 0.14663166 0.13765939 -0.14096238
0.17065972 -0.14196777 -0.14933237 0.02433493 -0.1628592 -0.11239043 -0.041901376 0.07820154
-0.042754143 0.05509141 0.050619923 -0.13329223 -0.112613685 -0.14307815 -0.04044573 -0.15280043
-0.27685332 -0.2806014 -0.067423545 -0.10977355 -0.19512327 0.052705135 0.15842968 -0.17686287
-0.097027116 -0.07022818 0.008613532 -0.15951937 0.004919916 -0.006911951 -0.22250982 -0.016458469
0.20005654 -0.055018883 -0.20118329 -0.34799907 -0.012993278 -0.048075426 -0.18092582 0.013162599
-0.09881342 0.066019095 -0.13363113 0.02225466 -0.07074309 0.17800227 -0.23513427 -0.16774544
-0.101048045 0.05590945 0.11700426 -0.05320732 0.23150557 -0.15733786 -0.42556608 -0.06864635
-0.04077817 0.01946093 0.033125944 0.029965324 -0.19111207 -0.13230747 0.122239485 0.04552924
0.01842161 -0.042618833 0.03698815 -0.010973033 0.05883344 0.11053622 -0.04223056 0.107808724
-0.0760701 -0.113940276 0.050603878 0.056155913 0.11372597 -0.07486895 -0.16150048 0.08256087
-0.39072174 0.054921377 -0.12510602 0.03838714 -0.06991526 0.08251678 -0.098541886 -0.2851628
-0.14835745 0.03944752 -0.14967272 -0.26961946 0.059459757 -0.19798139 -0.07096923 0.14654541
-0.07113101 -0.115012705 0.0038194272 -0.11886809 -0.07537605 -0.16911879 -0.23061791 -0.10151996
0.16312417 -0.14804721 -0.12202825 0.020805003 0.04364067 -0.04949998 -0.19807972 0.10700774
0.0033959865 6.546721e-05 -0.08318164 0.06471468 -0.09427906 0.08423158 0.019635743 -0.019874386
-0.14378048 0.010777061 -0.13052844 -0.14151046 -0.087820165 0.02000497 0.14511079 -0.041836224
-0.08674694 -0.18291385 -0.023394667 -0.02339478 0.005020526 -0.07844316 -0.066688105 0.07552101
-0.16151224 -0.004748258 0.14002128 0.14178501 -0.078908786 0.15222417 0.22781993 -0.15299827
-0.2570571 -0.07795325 -0.21858962 -0.026481247 -0.24470372 0.17470412 -0.0073359045 -0.027487025
0.03267119 -0.08798223 0.042558394 0.054860577 0.005869566 0.10745533 -0.052279923 0.0047350335
-0.028632276 -0.010981034 0.09752926 0.086938195 -0.08389519 -0.109727 -0.1027699 -0.026484169
-0.20373465 -0.08769982 -0.053303014 -0.17673537 0.031173926 0.18332882 -0.25759017 -0.059975863
-0.058660485 0.0961326 -0.2810069 -0.25537783 0.048645895 0.023801027 -0.05978984 -0.0829465
-0.18010531 0.09697141 0.050269224 -0.28776425 0.06155865 0.1522541 0.21281222 0.02624949
-0.044142 0.00069262745 -0.079964235 -0.20653977 -0.08838504 0.02655735 -0.077423 -0.052226562
00000000: b1a6 e4bd 478f 2c3e 5d2e 26bd a372 873d
00000010: b1e1 1c3e b4c0 6f3c e376 58be 0326 8bbc
00000020: 5187 57be f413 0cbe e490 94bd dace 4b3d
00000030: 7220 543c 0b16 86bd fd98 083e 4b91 6d3d
00000040: 9fea f03d 1c25 a53e 0da4 c73d 152d b7be
00000050: 9d38 8c3d b399 59bc 581a d4bd 1f23 2bbe
00000060: c01b e6bd d774 673d 4e5f d9bd 2a70 af3b
00000070: f80f 763e 04c6 863e 2c9b 7dbd e4a8 3d3d
00000080: f6c3 59be 39f6 51be 30dd ef3d c939 b1bd
00000090: 1ed8 db3d 5572 d8bc 79cf acbd 55a5 eabc
000000a0: eb06 debd c444 e43d d36c b5bd 7541 ba3d
000000b0: a654 88bd 0f67 f2bd aaac b23d 9199 2e3e
000000c0: 1e03 e73c b85a 103e 1b19 ab3d 4df3 0c3e
000000d0: d453 01be 9c26 163e 95f6 0c3e 7158 10be
000000e0: 6cc1 2e3e 0060 11be 96ea 18be 0c5a c73c
000000f0: 90c4 26be f42c e6bd c7a0 2bbd 2128 a03d
00000100: f81e 2fbd 88a7 613d d656 4f3d c27d 08be
00000110: 01a2 e6bd 1483 12be 6caa 25bd b777 1cbe
00000120: b8bf 8dbe fdaa 8fbe 5b15 8abd f4d0 e0bd
00000130: 65ce 47be 57e1 573d 643b 223e 8a1b 35be
00000140: 27b6 c6bd cbd3 8fbd c61f 0d3c 0c59 23be
00000150: 3f37 a13b a67d e2bb 9dd9 63be e9d3 86bc
00000160: 9fdb 4c3e 7b5b 61bd fe02 4ebe ef2c b2be
00000170: c2e1 54bc bdea 44bd 9e44 39be f1a7 573c
00000180: b15e cabd 0535 873d 99d6 08be 684f b63c
00000190: c1e1 90bd 3a46 363e 0ac7 70be 76c5 2bbe
000001a0: 47f2 cebd 4f01 653d ee9f ef3d ebef 59bd
000001b0: cc0f 6d3e 2d1d 21be cce3 d9be 7596 8cbd
000001c0: 0307 27bd 876c 9f3c 12af 073d d779 f53c
000001d0: e2b2 43be 9c7b 07be b258 fa3d de7c 3a3d
000001e0: ebe8 963c 1691 2ebd e380 173d 3cc8 33bc
000001f0: 55fb 703d d060 e23d f4f9 2cbd d2ca dc3d
00000200: a4ca 9bbd 8559 e9bd 0346 4f3d be03 663d
00000210: 29e9 e83d e454 99bd 6260 25be ac15 a93d
00000220: ae0c c8be 3df5 603d cb1b 00be d53b 1d3d
00000230: bb2f 8fbd 8ffe a83d 54d0 c9bd dc00 92be
00000240: 04eb 17be b993 213d ce43 19be 900b 8abe
00000250: 138c 733d a2bb 4abe 5158 91bd 0010 163e
00000260: 23ad 91bd c88b ebbd 5b4f 7a3b 1d71 f3bd
00000270: c25e 9abd 7a2d 2dbe 1a27 6cbe b2e9 cfbd
00000280: 060a 273e b099 17be f2e9 f9bd 416f aa3c
00000290: 8fc0 323d 7ec0 4abd 69d5 4abe e026 db3d
000002a0: 338f 5e3b 714b 8938 235b aabd 2189 843d
000002b0: 6115 c1bd 9b81 ac3d 23db a03c 9ccf a2bc
000002c0: 313b 13be 4592 303c 3fa9 05be 1ee8 10be
000002d0: 0fdb b3bd 76e1 a33c ec97 143e 765c 2bbd
000002e0: 61a8 b1bd c54d 3bbe 2ca6 bfbc 69a6 bfbc
000002f0: 3983 a43b cfa6 a0bd c693 88bd c2aa 9a3d
00000300: 7763 25be 4697 9bbb bd61 0f3e 1730 113e
00000310: ee9a a1bd a7e0 1b3e a149 693e 94ab 1cbe
00000320: fd9c 83be f4a5 9fbd f5d5 5fbe 33ef d8bc
00000330: 9d93 7abe a3e5 323e 0762 f0bb 782c e1bc
00000340: 3ad2 053d 0730 b4bd b651 2e3d 7cb5 603d
00000350: 7d55 c03b 8a11 dc3d 7923 56bd 5728 9b3b
00000360: 3c8e eabc cbe9 33bc 6cbd c73d a70c b23d
00000370: 3ed1 abbd 8db8 e0bd 0679 d2bd 54f5 d8bc
00000380: d19f 50be f79b b3bd 4354 5abd 1efa 34be
00000390: 7660 ff3c 8dba 3b3e dce2 83be 40a9 75bd
000003a0: fa45 70bd 2be1 c43d 23e0 8fbe e2c0 82be
000003b0: eb40 473d 5ffa c23c 31e6 74bd dbdf a9bd
000003c0: 876d 38be f298 c63d 1ae7 4d3d d655 93be
000003d0: ec24 7c3d 80e8 1b3e 72eb 593e 2c09 d73c
000003e0: 3ece 34bd 7191 353a 4ac4 a3bd 297f 53be
000003f0: 3703 b5bd cd8e d93c f38f 9ebd 85eb 55bd

conv4.bias f4 [32]
0.059990358 0.099313945 0.09852462 0.029117325 0.10897312 0.018622627 0.15447457 0.13898332
0.05180679 0.02763199 0.002159566 0.12965164 -0.015207587 0.16532509 0.031091858 0.011332672
0.16598251 0.20838143 0.094190255 -0.037648115 0.12020393 0.0798559 0.125523 0.15093891
0.035758667 0.09672025 0.008324687 -0.056776468 0.24163033 0.09575325 0.15343235 0.098261625
00000000: 73b8 753d 1c65 cb3d 47c7 c93d 7587 ee3c
00000010: 4d2d df3d 7b8e 983c 952e 1e3e a551 0e3e
00000020: 5b33 543d 7c5c e23c 8187 0d3b 66c3 043e
00000030: 3e29 79bc fb4a 293e 5ab4 fe3c acac 393c
00000040: 52f7 293e f161 553e d2e6 c03d e934 1abd
00000050: 7a2d f63d 7d8b a33d 1a89 003e bb8f 1a3e
00000060: ae77 123d 4415 c63d 4564 083c 718e 68bd
00000070: f16d 773e 481a c43d 5f1d 1d3e 643d c93d

conv4.lin.weight f4 [32, 128]
-0.12724337 0.11540346 -0.18476617 0.02153518 -0.21263354 -0.2066592 -0.076591745 0.022488322
-0.12946358 -0.083117776 0.16473429 0.1878781 0.3197558 -0.06432712 0.0061016483 -0.012061785
-0.007637232 0.085674495 -0.042470645 -0.092281125 -0.0967992 -0.06377325 -0.18619688 -0.12321916
0.07403801 0.062059913 -0.1553172 0.026133383 -0.17542449 -0.14469375 -0.013787037 0.030857066
0.17496881 0.1032476 0.17064045 0.06972759 -0.08395348 0.15815163 -0.15319294 0.037327476
0.068776235 -0.05984538 -0.3921704 -0.20193776 -0.051218554 0.28328547 -0.06339228 -0.07200936
0.021572916 0.14934331 0.10190949 -0.19025625 0.20498809 -0.29042965 -0.37718064 0.08414444
0.089952365 0.17531209 -0.12477836 -0.033373054 0.09715991 -0.16962273 -0.36252886 0.104126036
0.045009457 -0.097268805 0.08263383 -0.17345951 0.040563226 -0.20713969 -0.101365894 0.0840684
-0.18143646 -0.06179708 -0.123420924 0.21273345 -0.06069939 0.14379026 -0.33565664 0.009741619
-0.25171092 0.073231615 -0.1617424 0.02134817 0.13335823 0.060133185 0.01721693 0.13117605
-0.05546471 0.11323702 -0.26264107 0.08377787 -0.19331232 -0.05439987 -0.012005425 0.0052838894
0.06358235 -0.08763238 -0.31673023 -0.15621632 -0.03805099 0.041325286 -0.2324399 -0.32418925
0.07259509 0.13311328 -0.059484866 -0.14296861 0.054186072 -0.030408662 -0.29055378 0.17895032
-0.21977381 -0.17906493 -0.27378964 0.058735944 0.02128115 -0.07530086 0.11687288 -0.07633424
-0.21594691 -0.19848268 -0.0062630693 -0.04381093 -0.2174353 -0.09064685 -0.23210804 0.050920997
0.024597272 -0.06568752 0.025574164 -0.14247243 0.09935538 -0.36939183 -0.21123672 -0.05991972
0.08823906 0.27340597 0.082292825 -0.03608027 -0.12262649 0.2247597 -0.014061558 -0.17478171
0.030745434 -0.07797012 -0.08847291 -0.15483731 -0.2897551 -0.110483326 0.043242138 -0.06897752
-0.14881591 -0.15883899 -0.11160452 0.19310854 0.098300524 -0.09184118 0.045880526 0.26306635
0.11665166 0.24998577 0.09629133 -0.023349993 0.12653363 -0.04761957 -0.25156996 -0.22979875
-0.03764868 0.14855286 0.12894915 -0.08459878 -0.08666951 -0.21645488 -0.024014024 -0.113456674
0.06470082 -0.07863322 0.2954585 -0.07898422 0.16164294 -0.1354565 -0.07957248 -0.07050847
0.055750657 -0.044418678 0.11802446 -0.11958417 -0.14493312 -0.3015517 -0.021334367 -0.06776355
-0.1788957 -0.09485414 -0.12019054 -0.17602761 0.09461892 -0.006486782 0.14672157 -0.04001793
-0.3391375 0.07524658 0.16558877 -0.21733747 -0.13376641 -0.08917393 -0.027595518 -0.07821223
-0.057414148 0.027074398 -0.018187748 -0.13886605 -0.14650036 -0.025872577 -0.16586603 -0.06695287
-0.3000953 -0.13169593 -0.16568483 -0.15559147 0.10495586 -0.20872775 0.13782479 0.039571133
-0.28409332 -0.008145743 0.09319601 0.0071675237 0.19240966 -0.058483295 -0.07818222 0.15372035
-0.14690773 -0.09442107 -0.0039082225 -0.15528604 0.057276946 0.0982982 0.15706493 -0.08849587
-0.12569226 0.008482353 0.08836694 -0.10074895 -0.32323274 0.12990232 0.07770015 0.1800353
0.16035461 0.0021512134 -0.3314551 -0.327288 -0.22345498 0.11619535 0.087805755 0.008212537
00000000: 164c 02be a658 ec3d 5833 3dbe 8c6a b03c
00000010: 9bbc 59be 789e 53be 22dc 9cbd 6e39 b83c
00000020: 1a92 04be a739 aabd 1bb0 283e 1e63 403e
00000030: 08b7 a33e f0bd 83bd 56f0 c73b cb9e 45bc
00000040: bf41 fabb 1c76 af3d b3f5 2dbd e3fd bcbd
00000050: a93e c6bd 8d9b 82bd 65aa 3ebe 545a fcbd
00000060: 3da1 973d 8932 7e3d 790b 1fbe ad15 d63c
00000070: 7aa2 33be 992a 14be 06e3 61bc f5c7 fc3c
00000080: 062b 333e 7a73 d33d 5fbc 2e3e 57cd 8e3d
00000090: cdef abbd 80f2 213e 9cde 1cbe b2e4 183d
000000a0: 8eda 8c3d 6e20 75bd 8fca c8be c6c8 4ebe
000000b0: 8cca 51bd cb0a 913e d0d3 81bd a579 93bd
000000c0: afb9 b03c 74ed 183e ecb5 d03d 89d2 42be
000000d0: 66e8 513e 32b3 94be d21d c1be ec53 ac3d
000000e0: f238 b83d 0385 333e cc8b ffbd 2fb2 08bd
000000f0: c6fb c63d 95b1 2dbe 629d b9be 0840 d53d
00000100: d65b 383d de34 c7bd ed3b a93d 5f9f 31be
00000110: a025 263d 6d1c 54be ec98 cfbd 0e2c ac3d
00000120: 7bca 39be ef1e 7dbd 1cc4 fcbd ccd6 593e
00000130: ec9f 78bd c13d 133e 30db abbe 509b 1f3c
00000140: 41e0 80be 75fa 953d cd9f 25be 5be2 ae3c
00000150: 0f8f 083e 374e 763d 850a 8d3c 0453 063e
00000160: f72e 63bd d0e8 e73d e478 86be bb93 ab3d
00000170: aaf3 45be 66d2 5ebd 67b2 44bc 7a24 ad3b
00000180: 7737 823d 9b78 b3bd 772a a2be 2cf7 1fbe
00000190: 5bdb 1bbd b444 293d ba04 6ebe 22fc a5be
000001a0: bcac 943d d94e 083e 67a6 73bd 5d66 12be
000001b0: 37f2 5d3d 961b f9bc 77c3 94be c13e 373e
000001c0: 630c 61be cc5c 37be 282e 8cbe 1a95 703d
000001d0: ce55 ae3c 5637 9abd 0c5b ef3d 2055 9cbd
000001e0: 3021 5dbe 0b3f 4bbe 6f3a cdbb 1773 33bd
000001f0: 5ca7 5ebe 0ea5 b9bd bbad 6dbe 8992 503d
00000200: 3880 c93c 2e87 86bd e980 d13c 4be4 11be
00000210: d57a cb3d ed20 bdbe 704e 58be 616e 75bd
00000220: aeb6 b43d defb 8b3e 2489 a83d e8c8 13bd
00000230: 9923 fbbd 6827 663e 7362 66bc faf9 32be
00000240: d9dd fb3c ccae 9fbd 4931 b5bd ac8d 1ebe
00000250: c85a 94be 1545 e2bd ab1e 313d 1644 8dbd
00000260: 3363 18be b0a6 22be e990 e4bd 3fbe 453e
00000270: c951 c93d 3b17 bcbd 38ed 3b3d a2b0 863e
00000280: 11e7 ee3d 45fc 7f3e 6434 c53d 7c48 bfbc
00000290: 0892 013e bd0c 43bd c7cd 80be 5d50 6bbe
000002a0: 8135 1abd 3e1e 183e 3f0b 043e 2042 adbd
000002b0: c97f b1bd 59a6 5dbe 0fb9 c4bc f95b e8bd
000002c0: dd81 843d 740a a1bd 5646 973e 7bc2 a1bd
000002d0: ba85 253e 1cb5 0abe e5f6 a2bd bf66 90bd
000002e0: cd5a 643d 5cf0 35bd cfb6 f13d 8ce8 f4bd
000002f0: 5969 14be fc64 9abe 69c5 aebc 9ec7 8abd
00000300: 6f30 37be e342 c2bd 7526 f6bd 9540 34be
00000310: 90c7 c13d 128f d4bb 2e3e 163e d7e9 23bd
00000320: 6ea3 adbe e11a 9a3d 1a90 293e b78d 5ebe
00000330: 10fa 08be d2a0 b6bd ff0f e2bc bc2d a0bd
00000340: 192b 6bbd 21cb dd3c 79fe 94bc e732 0ebe
00000350: 3104 16be baf2 d3bc c9d8 29be 961e 89bd
00000360: 17a6 99be 4cdb 06be 49a9 29be 5f53 1fbe
00000370: 19f3 d63d babc 55be f121 0d3e 5715 223d
00000380: ae74 91be b975 05bc 8ddd be3d 8cdd ea3b
00000390: 0a07 453e 2e8c 6fbd 001e a0bd de68 1d3e
000003a0: fb6e 16be d55f c1bd 8c10 80bb 4e03 1fbe
000003b0: 3b9b 6a3d 9150 c93d a1d5 203e 533d b5bd
000003c0: 79b5 00be 91f9 0a3c baf9 b43d 7755 cebd
000003d0: c37e a5be 1d05 053e 4221 9f3d 2c5b 383e
000003e0: 0034 243e 5ffb 0c3b 7cb4 a9be 4b92 a7be
000003f0: 62d1 64be d4f7 ed3d 81d3 b33d e08d 063c

lin1.weight f4 [128, 68]
-0.08157736 0.37534365 0.23609793 0.23245896 0.36382127 -0.24048047 -0.18557763 0.035996467
0.29971588 -0.13428411 -0.10157084 -0.0664722 -0.22124487 -0.097443774 -0.18331192 -0.10437042
0.228601 0.35650596 -0.00200203 -0.09902289 0.007850257 0.06998765 0.04128387 0.07718367
0.17916074 0.2381278 0.17704883 0.08769091 0.13245614 0.02251117 -0.04729153 -0.0949941
0.08697223 0.039547008 0.1508382 0.05565737 0.006310396 0.16352783 -0.13258561 -0.03925379
-0.02712676 0.029124828 0.08592391 0.099451676 0.0041249893 0.05434104 0.035545588 0.058746833
-0.10478349 -0.0038971615 0.007360021 0.1183073 -0.1072493 0.06387443 0.13520661 -0.059726648
0.14469683 0.19573855 0.13988598 0.11768453 -0.1576509 0.04739402 -0.05788975 0.094894595
-0.10477329 -0.10730336 0.30603054 -0.23454079 0.08625817 0.25142232 0.23238616 0.09792217
0.39757693 -0.058441125 0.18311206 0.110125616 0.23542659 -0.03133941 -0.3159923 0.101165794
0.0960538 0.2674333 -0.20749125 0.08801053 0.13458219 0.0742743 0.17755257 0.13604492
-0.12963502 0.26199967 -0.12457936 -0.08911809 -0.09937007 0.1608997 0.31751263 -0.11016386
0.0033232635 0.0068805153 -0.3003556 0.030734701 0.03171337 0.0036232779 -0.309668 -0.13465188
-0.16011365 0.1633738 -0.019467391 -0.33837104 0.10175379 -0.06842191 0.052187726 0.022529742
0.16116546 0.005586522 0.13789302 0.17604269 0.027204828 0.033578973 -0.026822252 0.08692065
-0.1516342 -0.018036988 0.25673124 0.14645264 0.003086182 0.087119475 0.2512951 0.11583258
-0.14341599 0.14742656 -0.12335872 -0.08844331 -0.05411351 -0.15618235 0.604446 -0.40206894
0.18323152 -0.13128486 0.103014834 0.030260801 -0.20709012 -0.15906093 0.024883447 0.16501829
-0.09586951 -0.069592945 0.1303271 -0.008272345 -0.09965885 0.05043037 0.038386747 0.3340879
-0.06342546 -0.17464586 -0.11433663 -0.014300475 -0.18962254 0.19309796 -0.032233644 0.15324926
-0.26540932 -0.04246853 -0.006249897 0.18362348 -0.015502267 0.024878554 -0.04250136 0.1201148
-0.0030057922 -0.01740972 -0.028909275 -0.07301788 0.042828854 0.0755119 -0.085446194 0.008628436
0.13605714 0.08911317 -0.032411292 0.039618347 -0.09095183 0.18676792 -0.2315356 0.060473103
0.07632342 0.045200188 -0.025227139 -0.0044609555 0.17425303 0.074777514 -0.05323838 0.14189239
-0.021146463 -0.09750999 0.070763424 0.08889942 0.011670227 -0.06025191 -0.021941956 0.11232132
0.15770991 -0.16044782 0.43160862 -0.4348262 -0.06768255 -0.019429706 -0.12931554 0.050202876
0.34154582 -0.026164517 -0.11183529 -0.103617 0.33442193 0.104935475 -0.3040681 0.007708174
0.075948685 0.14682366 -0.029163267 -0.13057879 0.05252518 0.20048852 0.17750886 -0.057760257
0.15620446 0.017372545 -0.096036956 0.014591096 0.105944164 0.057410695 0.20375359 -0.0796927
-0.0049814247 -0.1634177 -0.18999559 -0.024972456 0.16610926 -0.17273395 -0.050931 -0.0077884328
0.15273102 0.0992549 -0.011507605 -0.23804682 0.102844 0.117302895 0.11649189 0.20995203
0.13053304 0.09444761 0.16164245 0.07254843 -0.115885764 0.049181893 0.15050484 0.08258279
00000000: 0812 a7bd 0b2d c03e a8c3 713e b909 6e3e
00000010: c846 ba3e 8340 76be 1008 3ebe 0871 133d
00000020: 5c74 993e c681 09be 5f04 d0bd 9422 88bd
00000030: 048e 62be 9a90 c7bd 1fb6 3bbe 29c0 d5bd
00000040: 6116 6a3e f387 b63e 7d34 03bb 83cc cabd
00000050: 5d9e 003c af55 8f3d 4619 293d 7912 9e3d
00000060: ea75 373e c6d7 733e 4a4c 353e 4b97 b33d
00000070: 95a2 073e 5869 b83c c3b4 41bd 448c c2bd
00000080: 7f1e b23d 0bfc 213d 5475 1a3e fbf8 633d
00000090: 70c7 ce3b d773 273e 86c4 07be 95c8 20bd
000000a0: f038 debc 3197 ee3c e0f8 af3d 52ad cb3d
000000b0: eb2a 873b b694 5e3d 4098 113d 85a0 703d
000000c0: ba98 d6bd 8567 7fbb 552c f13b 194b f23d
000000d0: 85a5 dbbd 99d0 823d 9a73 0a3e eea3 74bd
000000e0: 682b 143e b06f 483e 453e 0f3e 9604 f13d
000000f0: 3d6f 21be 3b20 423d cd1d 6dbd 1958 c23d
00000100: 6193 d6bd ddc1 dbbd 09b0 9c3e 762b 70be
00000110: 20a8 b03d 6dba 803e a3f6 6d3e 6b8b c83d
00000120: 348f cb3e f65f 6fbd ba81 3b3e 8a89 e13d
00000130: ab13 713e c15d 00bd bec9 a1be 0330 cf3d
00000140: dbb7 c43d 04ed 883e 9678 54be dd3e b43d
00000150: eacf 093e 201d 983d 57d0 353e 5c4f 0b3e
00000160: 0bbf 04be d224 863e 7723 ffbd 8c83 b6bd
00000170: 8982 cbbd e4c2 243e 0491 a23e 979d e1bd
00000180: 1ccb 593b f275 e13b 36c8 99be 57c7 fb3c
00000190: e1e5 013d 8474 6d3b ce8c 9ebe 2fe2 09be
000001a0: d5f4 23be 764b 273e 147a 9fbc f83e adbe
000001b0: 4b64 d03d c920 8cbd ccc2 553d 4b90 b83c
000001c0: 8f08 253e 250f b73b d433 0d3e 8944 343e
000001d0: a9dc de3c 1b8a 093d 57ba dbbc 7403 b23d
000001e0: ff45 1bbe 4ec2 93bc 4772 833e aef7 153e
000001f0: 8b41 4a3b b26b b23d c0a9 803e a239 ed3d
00000200: a4db 12be fdf6 163e 7fa3 fcbd c421 b5bd
00000210: 21a6 5dbd 44ee 1fbe f9bc 1a3f fbdb cdbe
00000220: 0ba1 3b3e 8a6f 06be 71f9 d23d 80e5 f73c
00000230: 6f0f 54be dee0 22be 5fd8 cb3c 8efa 283e
00000240: 3c57 c4bd bf86 8ebd 7874 053e bb88 07bc
00000250: f019 ccbd 1390 4e3d 6c3b 1d3d 920d ab3e
00000260: 35e5 81bd 5dd6 32be 5329 eabd 8a4c 6abc
00000270: 692c 42be 79bb 453e 6d07 04bd 60ed 1c3e
00000280: bbe3 87be 7bf3 2dbd f0cb ccbb cb07 3c3e
00000290: 38fd 7dbc 1cce cb3c e815 2ebd c0fe f53d
000002a0: d3fc 44bb d49e 8ebc 25d3 ecbc 668a 95bd
000002b0: 4f6d 2f3d fca5 9a3d 6afe aebd 495e 0d3c
000002c0: 9052 0b3e f780 b63d b4c1 04bd d946 223d
000002d0: f444 babd 1740 3f3e ab17 6dbe a5b2 773d
000002e0: 744f 9c3d d523 393d 25a9 cebc 352d 92bb
000002f0: 636f 323e f424 993d 7d10 5abd 3d4c 113e
00000300: 593b adbc 51b3 c7bd 6aec 903d e610 b63d
00000310: 7b34 3f3c b5ca 76bd 9ebf b3bc b808 e63d
00000320: b57e 213e 6f4c 24be cefb dc3e 8aa1 debe
00000330: 269d 8abd 0c2b 9fbc 4b6b 04be 88a1 4d3d
00000340: 18df ae3e f856 d6bc e709 e5bd 2635 d4bd
00000350: 5a39 ab3e 69e8 d63d d0ae 9bbe da94 fc3b
00000360: fc8a 9b3d f158 163e cee7 eebc 72b6 05be
00000370: a524 573d dd4c 4d3e e2c4 353e 0596 6cbd
00000380: 10f4 1f3e de50 8e3c 06af c4bd 7e0f 6f3c
00000390: 41f9 d83d 7a27 6b3d c8a4 503e ed35 a3bd
000003a0: 383b a3bb f856 27be 348e 42be 0993 ccbc
000003b0: 8c18 2a3e 2be1 30be 069d 50bd 1c36 ffbb
000003c0: 8565 1c3e 2746 cb3d 658a 3cbc 8cc2 73be
000003d0: e09f d23d 803c f03d 4d93 ee3d aafd 563e
000003e0: 74aa 053e c06d c13d 9985 253e 4594 943d
000003f0: 8455 edbd f472 493d f11d 1a3e 2a21 a93d

lin1.bias f4 [128]
0.01744727 -0.013456151 0.09556434 0.02768336 -0.17835428 -0.042825118 -0.080686234 0.20729047
0.18770278 -0.11341189 -0.061351925 -0.08215906 -0.09023312 0.1749555 0.15353218 -0.0774234
0.16070952 0.19138569 -0.15659003 -0.09357505 0.074272275 0.20343542 -0.13337748 -0.16094771
-0.0352304 0.23240525 0.10438603 0.1059013 0.09417803 0.10335473 -0.12894173 -0.085008964
-0.014240793 0.050404508 0.07082689 0.12568748 0.10069047 -0.2348148 -0.11668324 0.27822724
-0.047651283 -0.2789433 -0.0027377815 0.00089873583 0.0055368426 0.0049147927 0.13624555 0.2936847
-0.027056467 0.010027261 -0.065740585 -0.11087636 -0.10077435 -0.1355597 0.19348474 0.2211561
-0.033522554 0.068735056 -0.21729906 0.07161636 0.24038143 -0.12164316 -0.1204809 0.03865966
-0.06498008 -0.10391691 0.10528332 0.040554546 0.16063844 0.05946214 0.15466157 0.07859927
0.07621493 0.16997306 -0.106382616 -0.1634847 0.17721575 0.26676935 0.27074492 -0.24732572
-0.10396429 -0.2011581 0.22123696 0.048286468 -0.09661191 0.009392781 0.13654564 -0.0020971822
-0.11858724 -0.18652372 0.19386202 0.09204051 0.04571965 0.09902443 0.113783106 -0.033272613
-0.2601769 -0.11732712 -0.09420873 -0.029927237 0.24545114 0.02482854 -0.060459998 0.21488582
0.14307308 0.18375587 -0.052272815 -0.01356655 0.092482954 -0.11719914 0.12376417 -0.026335958
0.3038889 -0.22684751 -0.022806272 0.01830486 -0.06407376 -0.2575614 -0.12205127 0.19661365
-0.104413226 -0.034363866 -0.023984613 -0.2547241 -0.09670015 0.13782434 0.098839976 -0.19028535
00000000: 94ed 8e3c 3077 5cbc 3db7 c33d 37c8 e23c
00000010: 81a2 36be 6469 2fbd d33e a5bd f443 543e
00000020: 2835 403e 7e44 e8bd 284c 7bbd 0243 a8bd
00000030: 24cc b8bd 8927 333e 8a37 1d3e 2990 9ebd
00000040: 0991 243e 9cfa 433e 2359 20be 47a4 bfbd
00000050: 101c 983d 6051 503e 1b94 08be 7acf 24be
00000060: c04d 10bd a4fb 6d3e 58c8 d53d c8e2 d83d
00000070: 69e0 c03d a5ab d33d 4d09 04be 2e19 aebd
00000080: 3752 69bc f574 4e3d b00d 913d 38b4 003e
00000090: ce36 ce3d 4a73 70be 9ff7 eebd cd73 8e3e
000000a0: fe2d 43bd a8d1 8ebe 5a6c 33bb 2499 6b3a
000000b0: 676e b53b 450c a13b f483 0b3e d75d 963e
000000c0: 86a5 ddbc 6249 243c 00a3 86bd 2513 e3bd
000000d0: c862 cebd 29d0 0abe dd20 463e bf76 623e
000000e0: f24e 09bd f7c4 8c3d a583 5ebe 99ab 923d
000000f0: 8d26 763e 0d20 f9bd b1be f6bd 9759 1e3d
00000100: 4714 85bd 64d2 d4bd c89e d73d 861c 263d
00000110: 677e 243e 938e 733d 9a5f 1e3e a7f8 a03d
00000120: 9316 9c3d 6b0d 2e3e 21df d9bd 8868 27be
00000130: 0c78 353e fe95 883e 149f 8a3e f442 7dbe
00000140: 3beb d4bd 64fc 4dbe f18b 623e 08c8 453d
00000150: 77dc c5bd 2ee4 193c 9fd2 0b3e e170 09bb
00000160: dedd f2bd 1300 3fbe c483 463e bc7f bc3d
00000170: 8744 3b3d 52cd ca3d 1e07 e93d dd48 08bd
00000180: e835 85be 3349 f0bd 82f0 c0bd f729 f5bc
00000190: 8b57 7b3e 3965 cb3c e7a4 77bd 070b 5c3e
000001a0: c081 123e 802a 3c3e 051c 56bd 3c46 5ebc
000001b0: b467 bd3d 1a06 f0bd 1278 fd3d 82be d7bc
000001c0: 5397 9b3e b74a 68be 38d4 babc 13f4 953c
000001d0: 1a39 83bd 16df 83be 04f6 f9bd 1755 493e
000001e0: 9ad6 d5bd 20c1 0cbd 617b c4bc 326b 82be
000001f0: ba0a c6bd d321 0d3e 9d6c ca3d 2ada 42be

lin2.weight f4 [128, 128]
-0.06795211 -0.029018454 -0.024903046 0.046045616 -0.07951425 -0.06368256 -0.092013486 0.043869436
0.023164012 0.017627949 0.06803594 -0.017538927 0.0014614997 0.025077509 -0.04711074 -0.091112055
0.05418867 0.052547432 0.028211921 -0.0080807535 -0.089855544 0.058227044 0.0035003235 -0.023067323
0.0740103 0.019935613 -0.08298241 -0.09801522 0.04592603 -0.038319997 -0.06836848 -0.11173109
-0.041670583 0.050806105 0.040745832 0.016838321 -0.07199782 -0.07442597 -0.059139494 -0.10530703
0.015372028 -0.055635404 -0.027568154 -0.005432863 -0.07300788 -0.072090775 -0.013538728 0.032990944
0.0316875 0.028314358 -0.0065096645 0.016363388 0.08562343 -0.08511931 0.04929437 -0.040736698
0.00037448344 -0.050114684 0.03182611 0.006576068 0.0403077 0.030465167 0.05779083 -0.049746472
-0.022313712 0.052747812 -0.016667191 -0.045721177 -0.026293287 -0.034292787 0.07165542 0.02725604
-0.10968312 -0.03628856 -0.03467593 0.028558657 8.55889e-05 0.05533962 -0.0019228269 0.014638304
0.028752303 -0.01015558 -0.0544846 0.010944247 0.034232356 0.059345078 -0.032207817 -0.08536731
-0.02619237 0.062841915 0.03179554 -0.04208096 -0.042155884 0.021972194 0.04445844 -0.06006509
-0.106354974 0.05366529 0.05116143 0.019605123 -0.030748608 0.00449775 9.111866e-05 0.046426635
-0.014192981 0.053009503 -0.03106059 -0.09477987 -0.058641005 0.086427525 -0.05909726 0.07058271
0.0029291185 0.03502379 0.06633899 -0.084625885 0.03645042 0.07369398 -0.055231247 0.042970717
-0.10878523 -0.119855985 -0.020583851 -0.06326422 0.035135716 -0.053105723 -0.03819334 0.044477664
0.03711369 -0.03635807 0.03171692 -0.036884304 -0.050119158 0.06430694 -0.017929407 -0.06279377
-0.005002038 -0.030968929 0.050993312 -0.015185475 0.033703875 -0.0041807317 0.06921184 -0.05871572
0.047462765 -0.08804014 -0.054936755 0.037003532 -0.089023516 0.07144677 -0.068216056 -0.07250669
-0.0913326 0.019240627 -0.030591976 0.044579953 -0.028923344 -9.92089e-05 0.048764247 -0.018120646
0.019519743 0.052614488 0.062342383 0.023691867 -0.075415075 -0.036510862 0.051536597 0.0077310787
0.031008922 -0.013206704 0.014831004 0.013726603 -0.08506389 -0.011898459 0.034742408 -0.03003095
-0.02022292 -0.03674344 0.06709537 -0.0554517 0.014255031 0.035290144 0.023421483 -0.021674832
-0.063984 0.062253468 -0.029075667 0.019311868 0.028781448 0.0723957 0.018114576 -0.08770835
0.037780322 0.03480503 -0.09132934 -0.0003516145 -0.008898444 0.07568376 -0.022048123 -0.077233136
-0.06494078 -0.08148221 0.019443855 0.0066922056 -0.07172997 -0.034388587 0.07577279 -0.037008245
0.052263614 0.011947502 0.013017216 -0.020667855 0.028317623 -0.010636464 -0.040540967 -0.044946566
0.053299822 -0.049461737 -0.095462844 0.059587512 0.04542436 0.010480769 0.03299498 0.03733931
-0.061524894 -0.062462505 0.008500449 -0.0073020384 -0.025403356 -0.005728401 -0.054117076 -0.024963522
0.019540131 0.0062180497 -0.08798551 -0.062700175 0.06223787 0.06365458 -0.07599364 0.058804072
-0.071693115 0.013755833 0.057350866 -0.061120633 0.000979367 -0.006404073 -0.0617192 0.056965783
-0.006367914 0.007834818 0.012378673 -0.03323256 0.019428376 -0.08335563 -0.007870965 -0.049138315
00000000: 7a2a 8bbd 1cb8 edbc 7901 ccbc 549a 3c3d
00000010: 5ed8 a2bd 016c 82bd 9171 bcbd 70b0 333d
00000020: 74c2 bd3c 7d68 903c 6d56 8b3d ccad 8fbc
00000030: cb8f bf3a 596f cd3c 31f7 40bd f598 babd
00000040: f0f4 5d3d fa3b 573d b01c e73c 2365 04bc
00000050: 2f06 b8bd 7b7f 6e3d af65 653b aff7 bcbc
00000060: b692 973d 0350 a33c aff2 a9bd 34bc c8bd
00000070: ef1c 3c3d 6ef5 1cbd c604 8cbd 45d3 e4bd
00000080: c6ae 2abd 101a 503d 1ae5 263d 85f0 893c
00000090: 9873 93bd a56c 98bd 413c 72bd 36ab d7bd
000000a0: f5da 7b3c f3e1 63bd 9cd6 e1bc 2806 b2bb
000000b0: 2885 95bd 54a4 93bd 8ad1 5dbc 8321 073d
000000c0: c1ca 013d 83f3 e73c 064f d5bb 830c 863c
000000d0: 565b af3d 0853 aebd e5e8 493d 86db 26bd
000000e0: 5156 c439 0e45 4dbd 185c 023d 0e7c d73b
000000f0: b019 253d 1692 f93c 14b6 6c3d f5c2 4bbd
00000100: 3fcb b6bc 170e 583d a289 88bc 2146 3bbd
00000110: 0565 d7bc 9876 0cbd 14c0 923d 0f48 df3c
00000120: 8ba1 e0bd 50a3 14bd 5908 0ebd d8f3 e93c
00000130: 317e b338 ccab 623d 5d07 fcba 7fd5 6f3c
00000140: f389 eb3c 9763 26bc 3e2b 5fbd 804f 333c
00000150: 3a37 0c3d d313 733d 58ec 03bd 0ed5 aebd
00000160: 6291 d6bc 43b3 803d 0a3c 023d 165d 2cbd
00000170: a6ab 2cbd 08ff b33c 0e1a 363d d006 76bd
00000180: a3d0 d9bd 23d0 5b3d a68e 513d ec9a a03c
00000190: 81e4 fbbc dd61 933b f516 bf38 db29 3e3d
000001a0: ad89 68bc 7e20 593d c772 febc f31b c2bd
000001b0: 8d31 70bd ea00 b13d f80f 72bd ab8d 903d
000001c0: 74f6 3f3b 1b75 0f3d bddc 873d 5650 adbd
000001d0: 094d 153d dfec 963d 293a 62bd 1002 303d
000001e0: caca debd 0e77 f5bd 779f a8bc ac90 81bd
000001f0: 78ea 0f3d 6385 59bd 9f70 1cbd 362e 363d
00000200: 8604 183d 33ec 14bd 9ae9 013d ff13 17bd
00000210: bf49 4dbd 5bb3 833d b1e0 92bc 059a 80bd
00000220: 23e8 a3bb 8db2 fdbc 5dde 503d 80cc 78bc
00000230: 130d 0a3d 85fe 88bb f0be 8d3d e57f 70bd
00000240: 5168 423d 644e b4bd 5d05 61bd 0491 173d
00000250: f651 b6bd af52 923d dcb4 8bbd 637e 94bd
00000260: 960c bbbd 859e 9d3c 069c fabc 7899 363d
00000270: a6f0 ecbc 5f0e d0b8 05bd 473d c071 94bc
00000280: dee7 9f3c 4a82 573d ba5a 7f3d 7215 c23c
00000290: 3873 9abd 6a8c 15bd 0a18 533d fd54 fd3b
000002a0: 6c06 fe3c ee60 58bc bdfd 723c 8ce5 603c
000002b0: fa35 aebd c1f1 42bc 0e4e 0e3d 7803 f6bc
000002c0: 8aaa a5bc 4a80 16bd 4c69 893d 5221 63bd
000002d0: ef8d 693c 668c 103d 69de bf3c 6b8f b1bc
000002e0: 0b0a 83bd 7efd 7e3d 1830 eebc ec33 9e3c
000002f0: 12c7 eb3c 3244 943d 0565 943c 6fa0 b3bd
00000300: 8abf 1a3d b88f 0e3d e10a bbbd e658 b8b9
00000310: c7ca 11bc 1600 9b3d 449e b4bc 682c 9ebd
00000320: acff 84bd 25e0 a6bd b848 9f3c 4a4a db3b
00000330: 2ae7 92bd 0cdb 0cbd c42e 9b3d f595 17bd
00000340: 5f12 563d 75bf 433c 2946 553c a24f a9bc
00000350: 5cfa e73c 9044 2ebc 490e 26bd e419 38bd
00000360: ea50 5a3d 6498 4abd 0682 c3bd 0912 743d
00000370: e50e 3a3d 88b7 2b3c bf25 073d 1bf1 183d
00000380: 8701 7cbd afd8 7fbd 7845 0b3c f045 efbb
00000390: b31a d0bc 4fb5 bbbb dea9 5dbd 4d80 ccbc
000003a0: a012 a03c c8c0 cb3b bf31 b4bd f368 80bd
000003b0: 23ed 7e3d 555d 823d 8ea2 9bbd 8adc 703d
000003c0: d7d3 92bd 2560 613c bee8 6a3d a159 7abd
000003d0: 1a5e 803a 42d9 d1bb 46cd 7cbd f454 693d
000003e0: efa9 d0bb 9c5d 003c ebcf 4a3c dd1e 08bd
000003f0: 4228 9f3c 5bb6 aabd 38f5 00bc 4245 49bd
