code/GraphSAGE_BPR/GraphSAGE_4.pth (torch, 29441 bytes, 12 tensors)

weight f4 [32, 5]
0	0x3e416d4d	0.18889351
1	0xbe9b907f	-0.3038368
2	0x3d2e94b1	0.042622272
3	0x3d5eb595	0.05437239
4	0xbc4756de	-0.012166707
5	0xbc48aa41	-0.012247623
6	0xbe0ac8a2	-0.13553098
7	0x3ee61091	0.44934514
8	0x3db5da7f	0.088795654
9	0x3e83e7d7	0.25762817
10	0x3c563d3e	0.013076125
11	0xbe1bd30f	-0.15217231
12	0xbdd3bcd2	-0.10338749
13	0xbcb88473	-0.022524094
14	0x3ed786fd	0.42095175
15	0xbeeedbf8	-0.46652198
16	0x3e01183f	0.12606905
17	0xbe32c0c6	-0.1745635
18	0xbe5a375e	-0.21310183
19	0x3ee3cd3f	0.44492528
20	0xbdfaaefc	-0.12240407
21	0x3eda4576	0.4263112
22	0xbef23192	-0.47303444
23	0x3e8399cc	0.25703275
24	0xbeb6a54e	-0.35672992
25	0xbd8ee4dd	-0.06977246
26	0xbc88e223	-0.016709393
27	0x3d5a73e5	0.053333182
28	0xbe50ad47	-0.203786
29	0xbe80dd02	-0.25168616
30	0x3e1ec007	0.1550294
31	0x3dc33f07	0.09533506
32	0x3e81a9c5	0.25324836
33	0xbe73c53d	-0.23805709
34	0xbeec7dbe	-0.46189684
35	0xbebbb5d3	-0.36662158
36	0x3d8f7270	0.07004249
37	0xbee14a21	-0.44001868
38	0x3de710b5	0.112824835
39	0x3e638dbd	0.22222038
40	0xbe0d48fc	-0.13797373
41	0xbd494110	-0.049134314
42	0xbe512b6a	-0.20426717
43	0xbebc910f	-0.3682942
44	0xbe90c0a8	-0.28271985
45	0x3a99cfc6	0.0011734895
46	0x3f003cdb	0.5009286
47	0x3ec4c003	0.38427743
48	0x3e246b04	0.16056448
49	0xbea47bc1	-0.32125667
50	0xbdbc7e35	-0.092037596
51	0x3d9ea250	0.077458024
52	0x3d16dbe2	0.03683079
53	0xbbcccba0	-0.00624986
54	0x3ed73c69	0.42038277
55	0x3c0352c2	0.0080153365
56	0x3d96f350	0.07370627
57	0x3c19c976	0.009386411
58	0xbdd66b63	-0.10469701
59	0x3f03ecaa	0.51532996
60	0xbf33a2b3	-0.70170134
61	0xbe7ba03e	-0.24572846
62	0x3e848199	0.25880125
63	0x3e26962e	0.16268227
64	0xbea011a0	-0.31263447
65	0xbdd71155	-0.10501353
66	0xbe250c63	-0.16118006
67	0xbe4935ff	-0.19649504
68	0x3e064a0b	0.13114183
69	0x3dea9736	0.114546224
70	0xbe533b79	-0.20628156
71	0x3d04e968	0.032449156
72	0xbe415d18	-0.18883169
73	0xbed370f9	-0.4129713
74	0xbe5c7869	-0.21530308
75	0x3d9679a9	0.073474236
76	0x3e1307bd	0.1435842
77	0xbed32c5f	-0.4124479
78	0xbf4063d5	-0.7515233
79	0xbcfcc1a1	-0.030854048
80	0x3ddeabdd	0.10872624
81	0x3e121943	0.14267449
82	0x3d82916d	0.06375394
83	0xbd293d91	-0.04131848
84	0xbed7830a	-0.42092162
85	0x3ea75466	0.32681578
86	0x3d837c7c	0.06420228
87	0x3ec7f05b	0.39050564
88	0x3c8fe633	0.017565822
89	0xbe0b2a38	-0.13590324
90	0xbdc5f2f4	-0.0966548
91	0x3dfd161c	0.12357733
92	0x3eac413e	0.33643526
93	0xbd8b7736	-0.06809847
94	0x3d1e3bbd	0.03863119
95	0x3c04d4e2	0.008107396
96	0x3c25fdbe	0.010131298
97	0xbd0c061b	-0.03418551
98	0xbd04b270	-0.032396734
99	0xbe25e1ac	-0.16199368
100	0xbca9e7a1	-0.020740332
101	0x3d955bf1	0.07292927
102	0x3f208ce0	0.6271496
103	0xbe207b78	-0.156721
104	0x3e166daa	0.14690271
105	0xbed30aca	-0.4121917
106	0x3e4fabce	0.20280382
107	0x3c612fc8	0.013744302
108	0xbada0359	-0.0016633078
109	0xbdbf1852	-0.093308106
110	0xbec99390	-0.39370394
111	0x3d589210	0.05287367
112	0xbe328e94	-0.17437202
113	0xbe97ef55	-0.29674783
114	0xbe9f52ee	-0.31117958
115	0x3ddd309b	0.108002864
116	0xbc6d896e	-0.014498098
117	0xbf100108	-0.56251574
118	0x3dbebf9d	0.09313891
119	0xbd16eb95	-0.036845762
120	0x3d34618d	0.044038344
121	0x3ee658bc	0.44989574
122	0xbd05cdb0	-0.032666862
123	0x3e5cb481	0.21553232
124	0x3e928c2a	0.28622562
125	0xbe858384	-0.260769
126	0x3df3ca36	0.11903803
127	0xbf120a76	-0.5704721
128	0xbd85cdb7	-0.065333776
129	0xbf0b1fc1	-0.5434533
130	0x3e8adbcc	0.27120817
131	0xbef289c6	-0.47370738
132	0xbe9ccd25	-0.30625263
133	0xbe8633b2	-0.26211315
134	0x3ec35931	0.38153985
135	0xbebd9273	-0.37025794
136	0xbe515673	-0.20443134
137	0xbeea6519	-0.45780256
138	0x3def8b50	0.116964936
139	0x3c811319	0.015756177
140	0xbea3b53f	-0.31974217
141	0xbed084e5	-0.4072639
142	0xbc951983	-0.018200641
143	0xbe5ff9fb	-0.21872704
144	0xbe5dad86	-0.21648225
145	0x3dcb7c9a	0.09935875
146	0x3d91a73f	0.07111978
147	0x3e7f5ecc	0.24938506
148	0xbec94fe6	-0.3931877
149	0xbec2be7d	-0.38035956
150	0x3e2dc985	0.16971405
151	0xbe522fe1	-0.20526077
152	0x3eb27b86	0.34859866
153	0x3d958811	0.07301343
154	0xbd68aad5	-0.056803543
155	0x3c61c47e	0.013779758
156	0x3e14cfe8	0.14532435
157	0xbce9180e	-0.028453853
158	0x3e35952c	0.17732686
159	0xbe506e39	-0.20354547

bias f4 [32]
0	0x3eb741ec	0.35792482
1	0xbbb2cb23	-0.0054563447
2	0xbe2551c2	-0.1614447
3	0xbe94e2d3	-0.29079303
4	0x3ed74b52	0.42049652
5	0xbeaca730	-0.33721304
6	0xbe69d383	-0.22834592
7	0x3edf715c	0.43641174
8	0xbe8fc84a	-0.28082496
9	0x3f1475a2	0.57991993
10	0x3ecefa02	0.40425116
11	0x3ec90032	0.39257962
12	0x3ef58468	0.4795258
13	0x3f08e4f5	0.5347436
14	0xbee2ea0e	-0.44319195
15	0xbebaca35	-0.36482397
16	0x3d10ad93	0.035321783
17	0xbee82d71	-0.4534717
18	0x3e0e0d86	0.13872346
19	0xbf456427	-0.77105945
20	0x3e1cebae	0.1532428
21	0x3eb19920	0.34687138
22	0xbe842ff2	-0.2581783
23	0xbe494e73	-0.19658832
24	0xbe8aa384	-0.27077878
25	0xbdc9632c	-0.09833369
26	0xbe614c5c	-0.22001785
27	0x3ee08f91	0.43859532
28	0xbe9e0349	-0.3086188
29	0xbd86874c	-0.065687746
30	0x3ea5fd66	0.3241989
31	0x3f2776eb	0.6541583

weight f4 [32, 5]
0	0xbe34365e	-0.17598864
1	0xbd94255a	-0.07233687
2	0x3dd54ac8	0.10414654
3	0xbf30040d	-0.6875618
4	0x3e998296	0.29982442
5	0xbcc2dfae	-0.0237883
6	0xbf30dd21	-0.69087416
7	0x3e9284af	0.28616855
8	0xbd0a1c9d	-0.033718694
9	0xbea62241	-0.3244801
10	0xbf17dd8e	-0.5932244
11	0xbf46500e	-0.77465904
12	0xbd03bb50	-0.032161057
13	0x3e97039c	0.2949494
14	0x3e8e5a48	0.27803254
15	0xbea7ff23	-0.3281184
16	0xbeeb7333	-0.45986328
17	0xbe9ceece	-0.30650944
18	0x3eca4704	0.39507306
19	0x3c296fa4	0.010341559
20	0xbea3ee3a	-0.3201769
21	0x3e9e5320	0.30922794
22	0x3e0b91ad	0.1362979
23	0xbde994ec	-0.11405358
24	0xbf15520e	-0.5832833
25	0xbea0425a	-0.31300622
26	0x3eb60578	0.35551047
27	0xbe1a7775	-0.15084632
28	0x3eed145b	0.46304592
29	0x3e567c50	0.20945859
30	0xbeb3c757	-0.35113022
31	0xbd5af959	-0.053460453
32	0x3e02d15b	0.12775175
33	0xbefd85b7	-0.4951608
34	0xbe90c324	-0.2827388
35	0xbd18b1e4	-0.037279025
36	0xbe5f91b9	-0.21832933
37	0xbe286764	-0.1644569
38	0x3e56a513	0.20961408
39	0xbdfbfd90	-0.123042226
40	0xbe3de454	-0.18544132
41	0x3ec110fa	0.37708265
42	0x3ea8718e	0.32899135
43	0xbe2a323e	-0.16620728
44	0xbeac8986	-0.33698672
45	0x3e670d67	0.22563706
46	0xbf1c1abc	-0.60978293
47	0xbead9480	-0.3390236
48	0x3dbb2bca	0.091392115
49	0xbf106af6	-0.5641321
50	0x3d7a38c1	0.06108928
51	0xbf54b574	-0.83089375
52	0x3e71dd00	0.23619461
53	0xbf110cad	-0.56659967
54	0x3de30d1e	0.11086486
55	0xbd337cc9	-0.043820176
56	0xbf1d99a8	-0.61562586
57	0xbe2f64dc	-0.17128319
58	0xbf231ec4	-0.6371882
59	0x3eb45c75	0.3522679
60	0xbeecffe3	-0.46288976
61	0xbec07259	-0.3758724
62	0xbe99889e	-0.29987043
63	0x3dc2f371	0.09519089
64	0x3c46c2ba	0.012131387
65	0xbe8fa9f6	-0.28059357
66	0x3d7867f5	0.060646016
67	0x3e7d200a	0.24719253
68	0xbe2f5182	-0.17120937
69	0xbf0f71c7	-0.56032985
70	0xbec9dad5	-0.39424768
71	0xbea46d74	-0.32114756
72	0xbe84d7f0	-0.25945997
73	0x3e4dceb4	0.20098382
74	0x3ed82106	0.42212695
75	0xbe82fe35	-0.2558457
76	0x3e5f4bb8	0.21806228
77	0xbc851dbb	-0.016249528
78	0x3eb48a44	0.35261738
79	0x3e2f004c	0.17089957
80	0x3ec28e7a	0.37999326
81	0x3da72f3b	0.08163305
82	0xbd674605	-0.05646326
83	0xbe6394fa	-0.22224799
84	0x3e6dd3d5	0.23225339
85	0xbe8185e4	-0.25297463
86	0xbe186f9d	-0.14886327
87	0xbd4b24bd	-0.049595583
88	0xbec23d1a	-0.37937242
89	0xbe64d99f	-0.22348641
90	0xbd8cd228	-0.068760216
91	0xbeae50da	-0.3404606
92	0x3ee900bc	0.45508373
93	0xbf1d83ce	-0.61529243
94	0xbe1611ce	-0.1465523
95	0x3d6b979f	0.057517644
96	0x3eb5d057	0.35510513
97	0x3e3b7613	0.1830676
98	0x3ee59310	0.44838762
99	0x3e0f438c	0.13990611
100	0xbcd38c6b	-0.025823792
101	0x3eb4f97d	0.35346594
102	0xbe86221a	-0.26197892
103	0xbf002a03	-0.50064105
104	0xbef5a837	-0.479799
105	0xbf3ccb6d	-0.73747903
106	0x3e27fbf9	0.16404714
107	0xbeeea4b4	-0.46610034
108	0x3e4768e4	0.19473606
109	0xbed07938	-0.40717483
110	0xbe842b0a	-0.25814086
111	0x3dd2d030	0.10293615
112	0x3de21d30	0.11040723
113	0x3e594134	0.2121628
114	0xbe30ecac	-0.17277783
115	0xbf4aed98	-0.7926879
116	0xbf3cce8c	-0.73752666
117	0x3ecc904b	0.39953837
118	0x3e1d5726	0.15365276
119	0x3ec46b8c	0.38363302
120	0x3e3aeb70	0.18253875
121	0x3ea4ce38	0.32188582
122	0xbe5620f8	-0.20911014
123	0xbec681fd	-0.38771048
124	0xbf53e19b	-0.8276612
125	0x3e285d66	0.16441879
126	0xbec57776	-0.38567704
127	0x3ee5848f	0.44827697
128	0xbf2bb79f	-0.6707706
129	0x3edd5bd2	0.43234116
130	0x3ec4f7e3	0.38470373
131	0xbd7bf765	-0.06151523
132	0xbed00a2c	-0.4063276
133	0xbd8d46ba	-0.06898256
134	0x3dd70281	0.104985245
135	0x3eba2def	0.3636317
136	0x3ccfe4e2	0.025377695
137	0x3e5bb065	0.21454008
138	0xbf089082	-0.533455
139	0xbe5b2de0	-0.21404219
140	0xbebaeca4	-0.36508667
141	0xbeb15d15	-0.34641328
142	0x3e8b566d	0.27214375
143	0x3e803965	0.2504379
144	0x3cc871b7	0.024468286
145	0x3e6fdb34	0.23423463
146	0xbe69e35e	-0.2284064
147	0xbe1b60b0	-0.15173602
148	0xbb8d70ab	-0.0043164096
149	0xbeeb84c2	-0.45999724
150	0x3e7ea77f	0.24868582
151	0xbec007cf	-0.37505957
152	0x3c7f9108	0.015598543
153	0xbf3bd846	-0.7337688
154	0x3e83c9cc	0.25739896
155	0x3e4805ad	0.19533415
156	0xbef2c15d	-0.4741315
157	0xbd699ee7	-0.057036307
158	0xbe54c108	-0.2077676
159	0xbd4c6d97	-0.0499092

weight f4 [32, 32]
0	0xbe33f74b	-0.17574804
1	0xbd09ae34	-0.0336134
2	0x3dae2ee8	0.085050404
3	0xbdbca3c8	-0.09210926
4	0x3e10057b	0.1406459
5	0xbe0bee4d	-0.13665123
6	0x3d81c9fc	0.063373536
7	0x3c202c3b	0.00977617
8	0xbe10b4ba	-0.14131442
9	0xbd5b8a50	-0.053598702
10	0xb9eb4387	-0.00044873005
11	0xbe7a6434	-0.24452287
12	0x3f09c223	0.53811854
13	0x3d98629a	0.07440682
14	0xbda950a9	-0.08267338
15	0xbe1166e2	-0.14199403
16	0xbd35e575	-0.04440828
17	0x3e211087	0.15728961
18	0xbe4fe2e2	-0.20301393
19	0xbe553936	-0.20822605
20	0x3da07abd	0.078359105
21	0x3e5558ae	0.2083461
22	0x3e122d8d	0.14275189
23	0xbe4fdb80	-0.20298576
24	0xbe5181f4	-0.2045973
25	0x3f82f41c	1.0230746
26	0x3e547e37	0.20751272
27	0xbdbb509d	-0.09146235
28	0xbe238af2	-0.15970972
29	0x3e53368d	0.20626278
30	0x3dec1b63	0.11528661
31	0x3df1fd25	0.118158616
32	0xbeccb43a	-0.39981252
33	0xbee59485	-0.44839874
34	0xbe0c4878	-0.1369952
35	0x3d58c752	0.05292446
36	0x3ca9cd0d	0.020727659
37	0xbe41b4a2	-0.18916562
38	0x3dc8367b	0.09776016
39	0x3e08a198	0.13342893
40	0x3d97b026	0.074066445
41	0x3db8d4fd	0.09024999
42	0xbef0e6c6	-0.47051066
43	0xbe8ce264	-0.27516472
44	0x3f0c9fc9	0.5493131
45	0xbdc924f0	-0.098214984
46	0x3cc85980	0.02445674
47	0xbf08cfbd	-0.53441983
48	0x3d3c2fbd	0.045943964
49	0xbd914b3c	-0.07094428
50	0xbf1a8a57	-0.6036734
51	0xbef3fcc3	-0.4765378
52	0x3e9a381a	0.30120927
53	0x3f2b6531	0.6695128
54	0xbc1e82c0	-0.009674728
55	0x3edb3f5f	0.42821786
56	0x3ee4dc25	0.44699207
57	0x3f4c73bf	0.79864115
58	0xbe00aacc	-0.12565154
59	0x3e8b7ddc	0.2724446
60	0xbe932509	-0.28739193
61	0xbe122609	-0.14272322
62	0xbebed098	-0.3726852
63	0x3d332148	0.04373291
64	0xbe42fc0a	-0.19041458
65	0x3dd91437	0.10599559
66	0xbcdcc7d2	-0.02695075
67	0xbe277c57	-0.16356026
68	0xbe3ec420	-0.18629503
69	0xbccb79a8	-0.024838284
70	0xbdb491ca	-0.088168696
71	0x3dac2b49	0.084066935
72	0x3e0c4aa7	0.13700353
73	0xbe60a4d1	-0.21937872
74	0xbdfc73ff	-0.12326812
75	0xbc4f3450	-0.01264675
76	0x3d5be669	0.053686533
77	0x3b2b1a63	0.0026108257
78	0x3dab5a16	0.08366792
79	0x3d3aaa6f	0.045572694
80	0x3c976dda	0.018484998
81	0xbdfa3524	-0.12217167
82	0xbe1e14c7	-0.15437613
83	0x3ca6934d	0.02033391
84	0xbd2e96cc	-0.04262428
85	0xbd48f573	-0.049062204
86	0x3d86cd88	0.06582171
87	0xbdfc889c	-0.12330744
88	0xbe17120a	-0.14752975
89	0x3d3029f6	0.043008767
90	0x3d2d8fd1	0.042373482
91	0xbe04d504	-0.12971884
92	0x3d2d9f6e	0.042388372
93	0x3dbd8699	0.09254188
94	0x3dcd4ace	0.100240335
95	0xbe3831cd	-0.17987747
96	0x3c7c68fa	0.015405888
97	0xbdca2613	-0.09870543
98	0x3e6b75cf	0.22994159
99	0x3f197237	0.59939903
100	0xbd4b395d	-0.049615253
101	0x3c8e59b2	0.017376754
102	0x3da9f3d1	0.082984574
103	0x3cf4b05d	0.029869253
104	0x3dcfbc72	0.10143365
105	0x3d23621c	0.039888486
106	0xbd5b27a2	-0.053504594
107	0x3cb49e5c	0.022048168
108	0x3e4fb0f4	0.20282346
109	0xbda17871	-0.078843005
110	0x3e2b3e77	0.16723047
111	0xbdb41f12	-0.08794989
112	0x3e0bacc0	0.13640118
113	0xbe63d389	-0.22248663
114	0x3df2eaa8	0.118611634
115	0x3e48a365	0.1959358
116	0xbdd55920	-0.1041739
117	0x3d950f92	0.072783604
118	0xbe08b0ff	-0.13348769
119	0xbec3c132	-0.38233334
120	0xbda23d14	-0.07921806
121	0xbe5839f5	-0.21115859
122	0xbe9f0221	-0.31056312
123	0xbd6876a8	-0.056753784
124	0x3dbfb98b	0.093615614
125	0x3c5db5ce	0.013532115
126	0x3d97ae18	0.074062526
127	0x3d2f84f7	0.042851415
128	0xbdfe672e	-0.12422024
129	0x3c3adb2e	0.011404796
130	0xbd994d34	-0.074854285
131	0xbee7d3ab	-0.45278677
132	0xbd62de55	-0.055387814
133	0x3ac810f2	0.0015263839
134	0xbda79eba	-0.081845716
135	0xbd993056	-0.074799225
136	0x3d69711c	0.056992635
137	0x3dcccbca	0.09999807
138	0x3d0069a9	0.031350765
139	0x3de2726e	0.11056982
140	0x3dfba633	0.12287559
141	0x3e506ea2	0.20354703
142	0xbe1c1e3e	-0.15245911
143	0xbea132d8	-0.31484103
144	0x3c6335d4	0.013867814
145	0x3da86a2c	0.08223376
146	0xbd002964	-0.031289473
147	0xbc0576e3	-0.008146021
148	0x3d585f60	0.05282533
149	0xbe5f83a7	-0.21827565
150	0x3ca9bc98	0.020719811
151	0xbe83284f	-0.2561669
152	0x3d210034	0.039306834
153	0x3f09640b	0.5366828
154	0x3def398d	0.11680899
155	0x3ebf23a9	0.37331894
156	0xbcc66d85	-0.024222145
157	0xbdcdf33d	-0.1005616
158	0xbc8ff39a	-0.017572213
159	0xbc478965	-0.0121787535
160	0xbe2bfbf8	-0.16795337
161	0xbd7ba6bb	-0.061438303
162	0x3db6c1cb	0.08923682
163	0x3de64075	0.11242763
164	0xbe67a871	-0.22622849
165	0x3d40b16e	0.04704421
166	0x3e1b81d8	0.1518625
167	0x3dcee335	0.1010193
168	0x38ae4000	8.3088875e-05
169	0xbdb05b89	-0.08611209
170	0x3dbb57e7	0.091476254
171	0xbe30aa98	-0.17252576
172	0xbdf538a0	-0.11973691
173	0xbd596570	-0.053075254
174	0x3e2d4613	0.16921262
175	0xbe65dd0b	-0.22447602
176	0xbe3e2d09	-0.18571867
177	0xbda9a37c	-0.08283135
178	0xbd11408e	-0.035461955
179	0xbc360984	-0.011110667
180	0xbdd0854c	-0.10181674
181	0xbd9ccba0	-0.07656026
182	0xbd2cd810	-0.04219824
183	0xbdb4a381	-0.088202484
184	0x3d618606	0.055059455
185	0x3c36c359	0.011154973
186	0x3dca13dc	0.09867069
187	0x3da84345	0.08215956
188	0xbc8791e7	-0.016549064
189	0x3de7865b	0.11304923
190	0xbdc7bf91	-0.09753335
191	0x3c78e26c	0.015190702
192	0x3ca596a4	0.020213433
193	0xba117519	-0.000554876
194	0x3da0c619	0.07850284
195	0x3d61c477	0.055119004
196	0xbe3b5bc2	-0.18296722
197	0xbd227944	-0.03966643
198	0xbe49450d	-0.19655247
199	0xbe42650a	-0.18983856
200	0x3d1a59b8	0.03768322
201	0xbd6489ec	-0.055795595
202	0xbd1bdb82	-0.038051136
203	0xbe0785d3	-0.13234644
204	0xbe6b9715	-0.23006852
205	0xbdb9ee43	-0.09078648
206	0x3d4c6a54	0.04990609
207	0xbdaa4c3e	-0.08315323
208	0xbd99e5aa	-0.07514508
209	0xbe7f347f	-0.2492237
210	0xbbb178eb	-0.005416026
211	0xbe3858d0	-0.1800263
212	0xbcc098a7	-0.02351029
213	0x3c75da04	0.015005592
214	0xbde14f1e	-0.110014185
215	0x3ce1717b	0.027519932
216	0xbe2ada5f	-0.16684864
217	0x3dc69e81	0.09698201
218	0x3c369008	0.011142738
219	0xbe6dcb58	-0.232221
220	0x3d59f787	0.053214576
221	0xbe1f53d2	-0.15559319
222	0x3d29c9b4	0.041452125
223	0xbd36fcbc	-0.04467462
224	0xbd7c6820	-0.06162274
225	0x3cfc3c84	0.030790575
226	0x3d398619	0.0452939
227	0xbe0f1fda	-0.13976994
228	0xbd2a3480	-0.041553974
229	0x3e4a9b88	0.19785893
230	0x3e13da69	0.14438786
231	0x3d837c75	0.06420223
232	0x3e02cdd3	0.12773828
233	0x3d524e21	0.05134404
234	0xbd40e8f3	-0.047097158
235	0x3e0231a1	0.12714244
236	0x3ea6c1da	0.32569772
237	0xbd82e0cf	-0.06390535
238	0xbd94b3ae	-0.07260834
239	0x3e3c1893	0.1836875
240	0x3cff88d1	0.031193169
241	0x3c8a3191	0.016869338
242	0x3ca0b9b0	0.019619793
243	0x3e3b6cc3	0.18303208
244	0x3d7cdf6c	0.06173651
245	0xbd90884e	-0.07057248
246	0x3bc170a0	0.0059033185
247	0x3f08d23f	0.5344581
248	0xbd903553	-0.07041421
249	0x3e854335	0.26027837
250	0x3e7381a7	0.23779927
251	0xbcbb8f8e	-0.0228956
252	0xbb05a64f	-0.0020393317
253	0xbdc86014	-0.097839504
254	0xbd1783f2	-0.036991067
255	0xbc10e911	-0.00884463

bias f4 [32]
0	0xbd6a3a2e	-0.05718439
1	0xbdc17aaa	-0.094472244
2	0xbe2ecd37	-0.17070471
3	0x3d751f41	0.05984426
4	0xbdc74918	-0.097307384
5	0x3cd139d5	0.025540272
6	0xbdbaa833	-0.09114113
7	0xbd8c3cd1	-0.06847537
8	0x3e544886	0.2073079
9	0x3b1b48e8	0.0023694579
10	0xbd45d570	-0.048299253
11	0xbd843085	-0.06454567
12	0xbd48a3ed	-0.048984457
13	0xbd2416d8	-0.040060848
14	0x3dc7e9c5	0.09761385
15	0xbe2ba4d0	-0.1676209
16	0xbdf03858	-0.11729497
17	0xbe27e443	-0.16395669
18	0xbd143732	-0.03618545
19	0xbd7b8b92	-0.0614124
20	0x3e2308c4	0.15921313
21	0x3e315a16	0.17319521
22	0xbd80347d	-0.06260011
23	0xbde403ea	-0.11133559
24	0x3e964d88	0.29356027
25	0x3d6cf4f9	0.05785081
26	0xbd682d0a	-0.056683578
27	0xbd8ec279	-0.069706865
28	0xbe616942	-0.22012809
29	0xbce6ead3	-0.028188145
30	0xbd642d1a	-0.055707075
31	0xbde49033	-0.11160316

weight f4 [32, 32]
0	0x3d99c048	0.07507378
1	0x3dcd266c	0.10017094
2	0xbd7e0ad9	-0.062022064
3	0x3e28a97a	0.164709
4	0x3d62981f	0.055320855
5	0xbc4e1497	-0.012578151
6	0x3df34e73	0.118801974
7	0x3e954da8	0.2916081
8	0x3de9ce0a	0.11416252
9	0x3d47a36d	0.04873984
10	0xbcb307f7	-0.021854384
11	0xbce580de	-0.02801555
12	0x3ed26c9e	0.41098493
13	0xbda18353	-0.07886376
14	0x3d895c20	0.067070246
15	0xbe895cf0	-0.26828718
16	0xbe6b3813	-0.2297061
17	0x3d6fc7d1	0.05854017
18	0xbd519790	-0.051169932
19	0xbd5e94c6	-0.0543411
20	0xbeb9a6bc	-0.3626002
21	0x3ec146b9	0.3774927
22	0x3dcbdc2a	0.09954102
23	0x3ec6150f	0.3868794
24	0xbe2ec574	-0.1706751
25	0x3df963e6	0.12177257
26	0x3da32a30	0.07967031
27	0x3dbf70b2	0.09347667
28	0xbe6d7df0	-0.23192573
29	0xbca00591	-0.019533904
30	0xbc803601	-0.015650751
31	0x3d972b99	0.073813625
32	0xbd56168c	-0.052267596
33	0xbef653ee	-0.48110908
34	0x3e4609a2	0.19339612
35	0x3df78feb	0.12087997
36	0x3f260d93	0.6486446
37	0x3e90dd76	0.2829396
38	0x3d27ddf3	0.04098315
39	0x3e3810b7	0.17975126
40	0x3de562ae	0.11200462
41	0xbe19b8ee	-0.15011951
42	0xbe3586ef	-0.17727254
43	0xbd6b84c0	-0.057499647
44	0x3ea482d3	0.3213106
45	0xbd5c371b	-0.05376349
46	0xbddd045a	-0.107918456
47	0xbe0ef112	-0.13959149
48	0x3d488974	0.04895921
49	0x3c6e7d25	0.014556204
50	0xbd44acb1	-0.048016254
51	0xbf11bfc9	-0.56933266
52	0xba203eb7	-0.0006112861
53	0x3e90709e	0.2821092
54	0xbdc852bb	-0.097814046
55	0xbe6afa1c	-0.22946972
56	0xbe1fda56	-0.15610632
57	0x3e468f83	0.19390683
58	0x3ecbd358	0.3980968
59	0xbeacfdc8	-0.3378737
60	0xbc01c048	-0.007919379
61	0xbc365fe5	-0.0111312615
62	0x3eb62f2c	0.35582864
63	0x3e7e93e1	0.24861099
64	0x3ddd7c9b	0.10814782
65	0xbdaec0ca	-0.08532865
66	0xbdbcd1f9	-0.092197366
67	0x3d4b9656	0.04970392
68	0xbdd26895	-0.10273854
69	0xbe56a1d2	-0.20960167
70	0x3c8eaa1c	0.017415099
71	0x3ca7b7d4	0.020473398
72	0x3cd2b980	0.025723219
73	0xbda73cc2	-0.081658855
74	0xbdbf2f91	-0.093352444
75	0x3d4efaba	0.05053208
76	0xbd0d3702	-0.034476288
77	0xbcd3c281	-0.025849583
78	0x3d1640f8	0.036683053
79	0x3d203ade	0.03911864
80	0xbe5126f4	-0.20425016
81	0xbde814e2	-0.11332108
82	0x3c31ded9	0.010856354
83	0xbd0cc689	-0.034369025
84	0x3ea02a6a	0.3128236
85	0xbe9d6b1e	-0.30745786
86	0xbdaae931	-0.08345259
87	0xbe155733	-0.14584045
88	0x3dbff4e3	0.0937288
89	0xbe2cd3b1	-0.16877629
90	0x3df4aea8	0.119473755
91	0xbda0fb3d	-0.0786042
92	0xbdd8ebf4	-0.105918795
93	0xbdb63c43	-0.08898213
94	0xbdb6511b	-0.089021884
95	0x3db61c9d	0.08892176
96	0xbe661883	-0.22470288
97	0xbeb58ff8	-0.35461402
98	0xbec25e94	-0.37962782
99	0xbdce5e80	-0.10076618
100	0xbf326a71	-0.69693667
101	0x3ecaa266	0.39577025
102	0x3df9ec0e	0.12203227
103	0xbe3c8206	-0.18408975
104	0xbe1ecd5d	-0.15508027
105	0xbf8a106e	-1.0786264
106	0xbf1a249e	-0.60212123
107	0xbf1a5583	-0.6028673
108	0xbebee88c	-0.37286794
109	0xbf0640ed	-0.5244282
110	0x3e206bb9	0.15666093
111	0x3f031e8c	0.51218486
112	0x3d3d78b1	0.04625768
113	0xbdf2f027	-0.11862212
114	0xbf28fae3	-0.6600782
115	0x3f2b172d	0.6683224
116	0xbf9a85fc	-1.2072139
117	0xbf3845b0	-0.71981335
118	0xbdee8347	-0.11646133
119	0xbf0f996e	-0.5609349
120	0xbf626d58	-0.88448095
121	0xbf09722c	-0.5368984
122	0xbe6b3ac7	-0.2297164
123	0xbf1c0a87	-0.60953563
124	0xbd04f176	-0.032456838
125	0x3d8093fd	0.062782265
126	0xbf0e5ac6	-0.5560726
127	0xbf1001f6	-0.5625299
128	0xbdbba68d	-0.091626264
129	0xbd2ccdc1	-0.04218841
130	0x3e53cdeb	0.2068402
131	0x3e4d4e22	0.20049337
132	0x3d46770b	0.048453372
133	0x3c8ac11f	0.01693779
134	0x3e493b57	0.19651543
135	0x3db88c96	0.0901119
136	0xbd542462	-0.05179251
137	0x3ee3257a	0.4436453
138	0x3e640d60	0.22270727
139	0xbd4a9df6	-0.04946705
140	0x3ec37a9f	0.3817949
141	0x3d276169	0.040864382
142	0xbe099f61	-0.13439704
143	0xbe3f3c92	-0.1867545
144	0xbd23e2f6	-0.04001137
145	0x3db59402	0.08866121
146	0xb6caed6e	-6.0477096e-06
147	0xbe7a7706	-0.24459466
148	0x3e422cec	0.18962449
149	0x3dc234ec	0.0948275
150	0x3d27904c	0.040909097
151	0x3e8016c5	0.25017372
152	0xbe8b1593	-0.27164897
153	0x3dfff09d	0.12497065
154	0x3dee8195	0.116458096
155	0x3e26fec8	0.16308129
156	0x3d952bcc	0.07283744
157	0x3d8e3280	0.06943226
158	0x3e34394e	0.17599985
159	0xbc37e390	-0.011223689
160	0xbe07dc23	-0.13267569
161	0xbd32cfb0	-0.043655097
162	0x3c4cf6e4	0.012510035
163	0xbd7bdbbd	-0.061488856
164	0x3d23bed1	0.0399769
165	0xb8cfba90	-9.905279e-05
166	0xbe471a52	-0.19443634
167	0xbd9b25a5	-0.075755395
168	0xbcfbd300	-0.030740261
169	0xbdb01a5d	-0.085987784
170	0xbe147fbf	-0.14501856
171	0x3d375747	0.04476097
172	0xbe13e246	-0.14441785
173	0xbc300b1c	-0.010744836
174	0x3dcba25a	0.099430755
175	0xbe55d403	-0.20881657
176	0xbe2784f2	-0.16359308
177	0xbd33da04	-0.043909088
178	0xbb8a822f	-0.004226945
179	0xbe4b1f06	-0.19836053
180	0xbe3e3af0	-0.1857717
181	0x3d1e59cd	0.03865986
182	0x3e2ece47	0.17070876
183	0xbe036ded	-0.12834902
184	0x3d1fb3e3	0.038989913
185	0xbb56d5b0	-0.0032781176
186	0x3d90b6f9	0.07066149
187	0x3d65876d	0.056037355
188	0xbe0ccf7a	-0.13751021
189	0x3c8b6748	0.017017022
190	0x3d6c9e08	0.057767898
191	0xbe4ba559	-0.19887294
192	0xbe49e4f0	-0.19716239
193	0xbc0911a0	-0.0083660185
194	0xbe364b8d	-0.17802258
195	0x3d905f51	0.0704943
196	0x3d45be14	0.048276976
197	0xbdd1edf1	-0.10250462
198	0xbe0db3ad	-0.13838072
199	0xbe3ed980	-0.18637657
200	0x3dd0e262	0.10199429
201	0x3d822814	0.063553005
202	0xbd6ee36c	-0.058322355
203	0xbd94a54b	-0.0725809
204	0x3de20071	0.110352404
205	0x3d3d7e85	0.046263237
206	0x3da33a12	0.079700604
207	0x3c6466ea	0.013940552
208	0xbd6967c9	-0.056983743
209	0xbdf03b0a	-0.11730011
210	0xbd670717	-0.056403246
211	0xbde37410	-0.111061215
212	0xbe450cb6	-0.1924313
213	0xbe36ffff	-0.17871092
214	0xbd8542e8	-0.06506902
215	0x3db5eced	0.08883081
216	0x3dc7fd40	0.097651005
217	0xbde782e5	-0.11304263
218	0xbe02f8ab	-0.12790172
219	0xbe22bce0	-0.15892363
220	0xbe496173	-0.1966608
221	0xbdd46a1d	-0.10371802
222	0x3ca20696	0.019778531
223	0x3d980d05	0.07424358
224	0x3e15b07d	0.14618106
225	0x3ea4d084	0.32190335
226	0x3e1ec175	0.15503486
227	0x3ec9fb0b	0.39449343
228	0x3ea1e772	0.3162189
229	0xbe48362f	-0.1955192
230	0xbdb0dc74	-0.08635798
231	0x3e801ba3	0.25021085
232	0x3e0a10f3	0.13483028
233	0x3eec40c9	0.46143177
234	0x3e8c295b	0.27375302
235	0x3ea96851	0.330874
236	0x3f6759ff	0.903717
237	0x3ed3666e	0.41289085
238	0xbbc62cc0	-0.006047815
239	0xbeb1a515	-0.3469626
240	0x3cbba8be	0.022907611
241	0x3da3f9bd	0.08006618
242	0x3d681ee9	0.056670103
243	0xbef80f15	-0.48449007
244	0x3f13de6d	0.5776127
245	0x3f2b0c21	0.6681538
246	0x3e0d9a5d	0.13828416
247	0x3efd3666	0.49455565
248	0x3ec28da5	0.3799869
249	0x3ed342df	0.41261956
250	0xbcf4808b	-0.02984645
251	0x3f2a7a9b	0.6659333
252	0xbb5007e7	-0.0031742991
253	0x3e54d723	0.20785193
254	0x3e8b29fe	0.27180475
255	0x3eaaca68	0.3335755

weight f4 [32, 32]
0	0x3e02b2ef	0.1276357
1	0xbf0870bf	-0.53297037
2	0x3e310b38	0.17289436
3	0xbd0757be	-0.03304266
4	0xbe20eab3	-0.1571453
5	0x3d7bec1e	0.061504476
6	0x3d1755aa	0.03694693
7	0xbb034fa0	-0.0020036474
8	0xbec7a613	-0.38993892
9	0x3bb5869c	0.0055397283
10	0xbe2971af	-0.16547273
11	0xbe0dd011	-0.13848902
12	0xbc87ad5e	-0.01656216
13	0x3deaa380	0.114569664
14	0x3d283be5	0.041072745
15	0xbd145ac3	-0.03621937
16	0xbddfa883	-0.10920813
17	0x3e2a9587	0.16658603
18	0x3ca51f6e	0.020156588
19	0x3e604867	0.2190262
20	0xbf1d2ef1	-0.6139975
21	0xbd72e745	-0.059302587
22	0xbd00fa9b	-0.031488996
23	0xbd8ce48d	-0.0687953
24	0x3d91bff0	0.07116687
25	0x3db84165	0.08996848
26	0x3d4d5235	0.050127227
27	0x3eac1620	0.3361063
28	0x3cbfa957	0.023396177
29	0xbd9ce9f4	-0.076618105
30	0x3dcad083	0.09903052
31	0x3c57f150	0.013180092
32	0xbe4a9e3e	-0.19786927
33	0x3b972456	0.004612486
34	0x3def68c7	0.116899066
35	0x3e1504e7	0.14552651
36	0xbe8d95b1	-0.27653268
37	0x3df4d843	0.11955311
38	0xbdc101d1	-0.094241746
39	0xbda322e0	-0.07965636
40	0x3e9feb07	0.31234
41	0xbe873fbe	-0.2641582
42	0xbd9ae7ad	-0.0756372
43	0xbe00fd34	-0.1259659
44	0xbeacb9a9	-0.33735397
45	0xbdec92c9	-0.115514345
46	0x3e046c22	0.12931874
47	0xbe202d37	-0.15642248
48	0x3cbcdfa6	0.023055863
49	0xbe2b3ab6	-0.16721615
50	0xbea44ef0	-0.32091475
51	0xbb587d66	-0.0033033728
52	0xbdf679f9	-0.12034983
53	0x3cfcf554	0.0308787
54	0xbd120c2d	-0.035656143
55	0xbe0fb5ed	-0.14034243
56	0x3f8789b2	1.0588896
57	0xbcdd5a2c	-0.027020536
58	0xbe1807ab	-0.14846675
59	0x3e7f30b4	0.24920923
60	0xbc94ee13	-0.018179929
61	0xbe089d3b	-0.13341229
62	0xbdfd4cc0	-0.123681545
63	0x3d1b6984	0.037942424
64	0xbc3c8bf8	-0.0115079805
65	0xbb251b4c	-0.0025193272
66	0xbdc5755c	-0.09641525
67	0x3cb99a0d	0.022656465
68	0x3e3ef190	0.18646836
69	0x3e238e4f	0.15972255
70	0xbc068eb5	-0.008212735
71	0x3cc4c10a	0.02401783
72	0xbb1a74f9	-0.0023568256
73	0xbe1c322d	-0.15253516
74	0x3df30876	0.11866848
75	0x3daa72d6	0.083226845
76	0x3c3df835	0.011594822
77	0xbc178853	-0.009248811
78	0xbddb041d	-0.10694144
79	0x3ce3f3db	0.02782624
80	0x3cae086c	0.02124425
81	0x3e21c719	0.15798606
82	0xbe2f03e3	-0.17091326
83	0xbda6be53	-0.0814177
84	0x3e89bbb8	0.2690103
85	0xbdd87766	-0.105696484
86	0xbdec1bac	-0.115287155
87	0x3d87e414	0.06635299
88	0xbd7061a9	-0.058686886
89	0x3d985d7d	0.074397065
90	0x3d25f98d	0.040521193
91	0x3d15bf97	0.036559667
92	0x3d8d6def	0.06905734
93	0xbd556f1d	-0.05210792
94	0xbd029176	-0.031877004
95	0xbd80f3af	-0.06296479
96	0xbe5db085	-0.21649368
97	0xbc9f03f4	-0.019411065
98	0xbdc1035b	-0.09424468
99	0xbe4eb17b	-0.20184891
100	0xbdf0ba9a	-0.117543414
101	0xbd5de591	-0.05417401
102	0x3de05e2c	0.10955462
103	0xbdbe5f7f	-0.09295558
104	0xbe5b68a9	-0.21426643
105	0xbe219830	-0.15780711
106	0xbceecfbd	-0.029151792
107	0xbe78c6f5	-0.24294646
108	0xbe3a716f	-0.18207334
109	0x3d93ee53	0.07223191
110	0x3de86b7c	0.11348626
111	0x3de531c5	0.111911334
112	0x3de298b5	0.11064283
113	0x3d9c6e90	0.076382756
114	0xbcd9ae77	-0.02657245
115	0xbe6ea745	-0.23305996
116	0x3d9e6ace	0.07735215
117	0x3ba2726e	0.0049574887
118	0xbe1b443d	-0.1516275
119	0xbd81ed00	-0.06344032
120	0x3d6fb06d	0.058517862
121	0xbe699549	-0.22810854
122	0xbd638e5a	-0.05555568
123	0xbdd21308	-0.10257536
124	0xbdb45589	-0.08805377
125	0x3dda88c3	0.106706165
126	0x3dc06be9	0.09395582
127	0xbe1af3fb	-0.15132134
128	0x3ab25c12	0.0013607761
129	0x3f662645	0.89902145
130	0x3cc3497d	0.023838753
131	0xbe0dd48b	-0.1385061
132	0x3dedc7af	0.11610352
133	0x3dc46e6a	0.09591372
134	0x3e2ec675	0.17067893
135	0x3d6d2fe5	0.057907004
136	0x3e643690	0.22286439
137	0x3ca19685	0.019725094
138	0xbe00b403	-0.12568669
139	0x3d808ec2	0.06277229
140	0xbd976a24	-0.073932916
141	0x3d2f0626	0.042730473
142	0xbc4b160e	-0.012395395
143	0x3dcc99b4	0.09990254
144	0x3cb8f18d	0.022576118
145	0xbeeb143b	-0.45913872
146	0x3d91d21d	0.07120154
147	0xbd9f5517	-0.077799015
148	0x3eda6436	0.4265458
149	0xbe1bb72a	-0.1520659
150	0x3d9e6264	0.0773361
151	0x3e0f0535	0.1396683
152	0xbe0fe8bf	-0.1405363
153	0xbe42742a	-0.18989626
154	0xbd2ea582	-0.04263831
155	0xbb923588	-0.004461948
156	0x3e2f36b0	0.17110705
157	0x3e1ec790	0.15505815
158	0x3e2b6c9b	0.16740648
159	0x3d85ee07	0.06539541
160	0x3ced2db2	0.028952453
161	0x3c22e954	0.009943325
162	0xbda9a3ff	-0.08283233
163	0xbe2d7143	-0.16937737
164	0xbe2b8bad	-0.16752501
165	0xbdd2d11a	-0.10293789
166	0xbc41d5d7	-0.011830769
167	0xbe658474	-0.22413808
168	0xbd7877fe	-0.06066131
169	0x3cad82d4	0.021180548
170	0xbe3cb7b0	-0.18429446
171	0x3dbd9423	0.092567705
172	0x3c56636d	0.013085228
173	0xbdefe38a	-0.117133215
174	0xbe1180c1	-0.14209272
175	0xbe17ec5f	-0.14836262
176	0xbb9d4a07	-0.0048000845
177	0x3c965468	0.018350795
178	0xbde22996	-0.11043088
179	0xbd592f80	-0.053023815
180	0xbdd46b60	-0.10372043
181	0xbe002480	-0.12513924
182	0xbbebc008	-0.007194523
183	0xbe642b01	-0.2228203
184	0xbe10454b	-0.14088933
185	0x3be0231e	0.006840124
186	0x3d22beaa	0.039732613
187	0xbd877a9f	-0.06615185
188	0x3d196e9c	0.037459
189	0x3c841eb1	0.016127916
190	0xbd386592	-0.04501874
191	0xbe08798b	-0.13327615
192	0xbd99e21f	-0.07513832
193	0x3ea10e00	0.31455994
194	0x3d0c797d	0.034295548
195	0xbe20e8af	-0.15713762
196	0x3e25079e	0.16116187
197	0xbdcfa582	-0.1013899
198	0x3e5f4e51	0.21807219
199	0xbc73ded0	-0.014884666
200	0x3dac0dbb	0.084010564
201	0xbe56e12d	-0.20984335
202	0x3d9c0a98	0.07619208
203	0xbc980757	-0.018558187
204	0xbd202c4a	-0.039104737
205	0x3d50c9c0	0.050973654
206	0x3e131307	0.14362727
207	0x3d99e0d5	0.075135864
208	0xba830f1f	-0.0009999013
209	0xbdf786db	-0.120862685
210	0x3d8a04d9	0.06739206
211	0xbd3d3c17	-0.046199884
212	0x3e8b058d	0.27152672
213	0xbdcbc1dc	-0.09949085
214	0xbcc63110	-0.024193317
215	0xbddc5e0c	-0.107601255
216	0xbea08093	-0.31348094
217	0xbe2ec5ac	-0.17067593
218	0xbd3dd496	-0.046345316
219	0x3cb50264	0.022095867
220	0xbcb5a492	-0.0221732
221	0x3d05c0d4	0.0326546
222	0x3cbb223e	0.022843476
223	0xbdb92e4f	-0.09042036
224	0xbdbd3fc5	-0.09240679
225	0x3db3b74e	0.08775197
226	0xbd8f4344	-0.06995252
227	0x3db3f8b7	0.08787673
228	0x3ddc2b92	0.10750498
229	0xbe62c79d	-0.22146459
230	0xbe045fc1	-0.12927152
231	0xbe6e488a	-0.23269859
232	0xbe302449	-0.17201342
233	0xbb916014	-0.0044365022
234	0xbe647310	-0.22309518
235	0xbe56ceff	-0.209774
236	0xbe6d2c5a	-0.2316145
237	0x3dd6de4f	0.10491621
238	0xbcda19e8	-0.026623681
239	0xbe1aa334	-0.1510132
240	0xbe440afa	-0.19144812
241	0x3c3b7b31	0.011442945
242	0xbd87b8b2	-0.06627025
243	0x3c8fff9f	0.017577944
244	0xbe0bb1fd	-0.13642116
245	0xbdaf1a3f	-0.08549928
246	0xbd16b580	-0.036794186
247	0x3d184199	0.037171934
248	0x3d10b598	0.03532943
249	0x395a5378	0.00020821195
250	0x3d71f8ea	0.059075274
251	0xbd5bfaa0	-0.05370581
252	0x3db71536	0.089395925
253	0x3b24fae1	0.002517395
254	0xbe028bfc	-0.12748712
255	0xbe6a3bde	-0.228744

bias f4 [32]
0	0x3ec59fe4	0.3859855
1	0xbdd950ab	-0.10611089
2	0x3e10d169	0.14142384
3	0xbe265283	-0.16242413
4	0x3cccf9d9	0.02502148
5	0xbd1e335f	-0.03862321
6	0x3e154ecc	0.1458084
7	0xbe655137	-0.22394262
8	0xbd7ad1b5	-0.06123515
9	0xbe0dda3c	-0.13852781
10	0xbd98132d	-0.074255325
11	0xbd780b8f	-0.060557898
12	0x3cece594	0.028918065
13	0xbe3a7fa7	-0.18212758
14	0x3c931dd9	0.017958568
15	0x3d02d27d	0.03193902
16	0x3e5aa6e9	0.21352734
17	0x3e15034c	0.14552039
18	0x3da36535	0.07978288
19	0x3de2267e	0.11042498
20	0x3eb56e83	0.35435876
21	0x3c81759c	0.01580315
22	0xbdc59d7f	-0.096491806
23	0xbb817e07	-0.003951791
24	0xbe1acbe9	-0.15116848
25	0x3e001821	0.12509204
26	0xbcb70b2d	-0.022344196
27	0xbe80423a	-0.25050527
28	0xbe271aa2	-0.16318753
29	0xbe4f1219	-0.20221747
30	0x3e58d3e1	0.21174575
31	0x3e558342	0.20850852

weight f4 [32, 32]
0	0xbeb48014	-0.35253966
1	0x3adc96aa	0.0016829569
2	0xbe2e432d	-0.17017813
3	0x3f87c387	1.0606545
4	0xbdd488ed	-0.10377679
5	0xbb253bd4	-0.0025212662
6	0x3db13fd5	0.08654753
7	0xbf6033f0	-0.8757925
8	0x3f16233a	0.586475
9	0xbdc73d1e	-0.09728454
10	0xbea60eff	-0.32433316
11	0xbf1ab5fa	-0.60433924
12	0xbf46bff6	-0.7763666
13	0x3dcee5ac	0.101024
14	0x3d543a0e	0.051813178
15	0x3dcbb486	0.099465415
16	0xbdce98b2	-0.10087718
17	0x3e14318d	0.14472027
18	0xbe490966	-0.19632491
19	0x3e218523	0.15773444
20	0xbede245b	-0.43387112
21	0x3f8a83d6	1.0821483
22	0xbfa8ca20	-1.3186684
23	0x3e438cae	0.19096634
24	0x3fe59064	1.793469
25	0x3f24aaeb	0.643233
26	0xbef475da	-0.47746164
27	0xbf972442	-1.180794
28	0xbdc27c41	-0.09496356
29	0x3d9fd2e5	0.07803897
30	0xbe3cb776	-0.1842936
31	0xbf122889	-0.570931
32	0xbd92c555	-0.07166544
33	0x3d8cb481	0.06870366
34	0xbe5b72d2	-0.21430519
35	0xbdd00f42	-0.1015916
36	0xbd9a9576	-0.07548039
37	0xbcd0c0df	-0.025482593
38	0x3dbdeba4	0.092734605
39	0x3e26b2e6	0.16279182
40	0xbe3da440	-0.18519688
41	0xbe9d070e	-0.30669445
42	0x3ac94a63	0.0015357252
43	0xbea1014e	-0.31446308
44	0x3b0cdbb7	0.0021493265
45	0xbe6e05fb	-0.23244469
46	0xbe326232	-0.17420271
47	0xbdfdb76f	-0.12388503
48	0x3c1e32d5	0.009655674
49	0xbdd1af4e	-0.10238515
50	0x3db409aa	0.08790906
51	0xbe42e752	-0.19033554
52	0xbe9e8c5d	-0.30966464
53	0xbdce9996	-0.10087888
54	0xbdf987cd	-0.12184105
55	0xbe6c44ab	-0.2307307
56	0x3e85333c	0.2601565
57	0xbe1ae76d	-0.15127344
58	0xbce29584	-0.027659185
59	0x3ebe27a7	0.37139627
60	0xbd678c0a	-0.056530036
61	0xbe10147c	-0.14070314
62	0xbc15056d	-0.009095532
63	0x3bb9fc2f	0.0056758146
64	0x3c8d0f1c	0.017219119
65	0xbcb2f5b2	-0.021845672
66	0x3b9508bd	0.004548161
67	0xbeaf299a	-0.34211427
68	0x3dc52616	0.09626405
69	0xbd75b2c9	-0.059984956
70	0xbb859f92	-0.00407786
71	0x3cec9644	0.028880246
72	0xbe047487	-0.12935077
73	0xbc9de218	-0.019272849
74	0xbb182787	-0.002321692
75	0x3e506936	0.20352635
76	0x3d1177f0	0.035514772
77	0x3af8a7c7	0.00189709
78	0x3e36ad08	0.17839444
79	0x3c5cebb4	0.01348393
80	0x3e033d37	0.1281632
81	0xbd2c3aca	-0.042048253
82	0x3df8f56a	0.12156184
83	0x3e5aac91	0.21354891
84	0x3da7d541	0.08194972
85	0xbea50d20	-0.32236576
86	0x3e4ab0e8	0.19794047
87	0x3dc7c464	0.097542554
88	0xbf43d2ab	-0.7649333
89	0x3cdfe0c8	0.027328864
90	0x3dff1252	0.12454666
91	0x3ed978ab	0.42474875
92	0x3dea1f3e	0.1143174
93	0xbd9acf58	-0.07559079
94	0x3e54759e	0.20747992
95	0x3e4b71ff	0.19867705
96	0xbe4adf81	-0.19811822
97	0xbd2c7c7c	-0.042110905
98	0xbdf32853	-0.118729256
99	0x3d601326	0.05470576
100	0x3cb8d9ae	0.022564735
101	0xbdf72081	-0.120667465
102	0xbe5edc67	-0.21763764
103	0xbcf3c7a0	-0.029758275
104	0xbe1a85be	-0.15090081
105	0xbcbbf301	-0.022943022
106	0x3cc6cbf0	0.024267167
107	0x3d26d017	0.040725794
108	0xbd391667	-0.04518738
109	0xbe3d43c4	-0.18482882
110	0xbe1212c5	-0.14264973
111	0x3d9e66db	0.07734462
112	0xbe6c62cf	-0.23084567
113	0xbdceda9d	-0.10100291
114	0xbddac2f8	-0.106817186
115	0xbe09d5f5	-0.13460524
116	0xbd97b9d7	-0.07408493
117	0xbe407e7c	-0.1879825
118	0xbe7345be	-0.23757073
119	0x3de2aac7	0.110677294
120	0x3dccfa56	0.10008685
121	0xbe5db4bc	-0.21650976
122	0x3d76366e	0.060110502
123	0xbe04daf9	-0.12974156
124	0x3cbfe5dc	0.023425035
125	0x3ddb7d2f	0.10717236
126	0x3cf28f8b	0.029609462
127	0xbe65b252	-0.22431305
128	0x3e56eebd	0.20989509
129	0xbd8fc831	-0.07020605
130	0x3d7f973f	0.0624001
131	0xbee96e70	-0.4559207
132	0x3e196d5c	0.14983124
133	0xbda436ec	-0.08018288
134	0x3e27b3ac	0.16377133
135	0x3ee98cb1	0.45615152
136	0xbee53361	-0.44765761
137	0x3dc6d0bb	0.09707781
138	0x3eb90474	0.3613621
139	0x3f32a80a	0.6978766
140	0x3f282e17	0.6569533
141	0xbdb1b77c	-0.08677575
142	0x3e3dea11	0.1854632
143	0xbd0f6fa1	-0.035018567
144	0x3e1a25b7	0.1505345
145	0x3ebd5583	0.36979303
146	0x3ea10151	0.31446317
147	0x3de6feae	0.11279045
148	0x3ee388b0	0.44440222
149	0xbf357f0d	-0.7089699
150	0x3f1b2e3b	0.6061742
151	0x3e86f0cb	0.26355585
152	0xbf668a23	-0.9005453
153	0xbeec9b74	-0.4621235
154	0x3f0c2d2b	0.5475642
155	0x3f1e2d6a	0.61788046
156	0xbd9e4917	-0.077287845
157	0x3e3d97df	0.18514965
158	0x3cbb88a0	0.022892296
159	0x3df6fbf1	0.12059773
160	0xbc23237e	-0.0099571925
161	0xbda81e99	-0.08208961
162	0xbd0b4826	-0.034004353
163	0xbe67b1b5	-0.22626384
164	0xbe3af17f	-0.18256186
165	0xbe588140	-0.21143055
166	0xbd219167	-0.039445307
167	0x3daf7427	0.08567076
168	0xbd2c3132	-0.042039104
169	0xbe1230c4	-0.14276415
170	0xbd621147	-0.05519226
171	0xbe20925e	-0.15680835
172	0xbe14119a	-0.1445984
173	0xbe076365	-0.1322151
174	0xbd8ffe08	-0.070308745
175	0x3d78da34	0.06075497
176	0xbdbda7d2	-0.09260525
177	0x3dc1860e	0.09449397
178	0xbd6fbd0a	-0.05852989
179	0xbe03d030	-0.12872386
180	0xbd30191b	-0.042992692
181	0x3cf93631	0.030421348
182	0xbe006c15	-0.1254123
183	0xbd6c7681	-0.0577302
184	0xbd19fa63	-0.037592303
185	0xbe292c03	-0.16520695
186	0x3d56336f	0.052295145
187	0x3f1f523d	0.6223486
188	0xbc90d0d0	-0.017677695
189	0xbd20207a	-0.039093472
190	0x3dd3994a	0.10331972
191	0xbde212b9	-0.11038727
192	0x3e186a6b	0.14884345
193	0xbbe36f93	-0.006940791
194	0x3d9bde30	0.07610738
195	0xbeba1ed3	-0.36351642
196	0xbde172f3	-0.11008253
197	0x3d8273ed	0.06369767
198	0xbcb89d9d	-0.022536093
199	0x3f01dd04	0.5072787
200	0xbe3a2e92	-0.18181828
201	0x3db89384	0.090125114
202	0x3dd4ef2b	0.1039718
203	0x3ef5d5d7	0.4801471
204	0x3e39281e	0.1808171
205	0x3d067781	0.03282881
206	0x3d3a624b	0.045503896
207	0x3e2320c7	0.15930472
208	0x3d80764c	0.06272563
209	0x3e0a201f	0.13488816
210	0x3e6e5575	0.23274787
211	0xbd0538e6	-0.032524966
212	0x3d812320	0.06305528
213	0xbee13dae	-0.4399237
214	0x3f0b952a	0.5452448
215	0x3e1c048d	0.15236111
216	0xbf1d0cf8	-0.61347914
217	0xbe43b2cb	-0.19111173
218	0x3e975857	0.29559585
219	0x3f504020	0.81347847
220	0xbd9e34f8	-0.07724947
221	0x3e4a9536	0.19783482
222	0x3e178cb9	0.14799775
223	0x3e7093c4	0.23493868
224	0xbddda0cb	-0.108216844
225	0x3cd603a9	0.026124792
226	0xbd38c672	-0.045111127
227	0x3c52d019	0.012866997
228	0xbe135c63	-0.14390711
229	0xbe5faa96	-0.21842417
230	0x3db3a22a	0.08771165
231	0xbe562939	-0.20914163
232	0xbdc9d873	-0.098557375
233	0x3d545d42	0.05184675
234	0xbce88b97	-0.028386874
235	0xbd8540f8	-0.065065324
236	0xbe651823	-0.22372489
237	0xbbe531b1	-0.006994449
238	0xbd45b9ef	-0.048273023
239	0xbdeabb00	-0.11461449
240	0xbd88fefd	-0.0668926
241	0xbde43e17	-0.11144655
242	0xbdcea9bd	-0.10090969
243	0xbd8bec4f	-0.06832182
244	0xbd9c30bf	-0.07626485
245	0xbd7e1099	-0.062027548
246	0xbdb23eb9	-0.0870337
247	0xbd98e21b	-0.07465001
248	0xbcec55e1	-0.028849544
249	0xbe11fe1e	-0.14257094
250	0xbd70a046	-0.0587466
251	0xbda7206c	-0.08160481
252	0x3c765503	0.015034917
253	0xbe4d7f49	-0.20068087
254	0xbe6cb622	-0.23116353
255	0xbe4bdce7	-0.19908486

weight f4 [2, 32]
0	0x3d906a57	0.07051533
1	0x3ccbadfe	0.02486324
2	0xbc80114c	-0.015633248
3	0xbb91f5cb	-0.0044543496
4	0xbdf07875	-0.11741725
5	0xb78f251c	-1.7064209e-05
6	0xbd10e917	-0.03537854
7	0x3c2b4d5e	0.0104554575
8	0x3dea8a12	0.11452116
9	0xbdcd1b26	-0.10014944
10	0xbdb874e5	-0.09006671
11	0x3e4a7d36	0.19774327
12	0xbd287fc8	-0.041137487
13	0x3c32aa0c	0.0109048
14	0xbdb0b77f	-0.08628749
15	0x3c0d4af4	0.008623827
16	0x3e82f995	0.2558104
17	0xbd6e9dd1	-0.058255974
18	0xbdbd6b7a	-0.09249015
19	0xbd89fadb	-0.067373
20	0xbe4c3cac	-0.1994502
21	0x3e76a556	0.24086508
22	0x3dce81a0	0.10083318
23	0xbde7f458	-0.11325902
24	0xbd92ca02	-0.07167436
25	0x3d970904	0.073747665
26	0x3d90e5d3	0.070750855
27	0x3dfa344c	0.12217006
28	0x3dc2f31d	0.095190264
29	0x3deb1b78	0.114798486
30	0x3e325226	0.1741415
31	0x3d94993e	0.07255791
32	0x3e214172	0.15747622
33	0xbd668715	-0.056281168
34	0xbb7dd833	-0.00387336
35	0xbca60bb3	-0.02026925
36	0xbde718b1	-0.112840064
37	0xbd832833	-0.06404152
38	0xbc2f2eb5	-0.010692288
39	0xbd898f4d	-0.067167856
40	0x3d86dd2e	0.065851554
41	0xbdcc3223	-0.099705
42	0xbd980701	-0.07423211
43	0x3d541f22	0.051787503
44	0xbd13918a	-0.03602747
45	0x3dc6723c	0.09689757
46	0xbd9a0a01	-0.07521439
47	0x3c54630b	0.012963067
48	0xbc8479e5	-0.016171405
49	0x3d33b696	0.0438753
50	0x3cd3e084	0.025863893
51	0xbe05caf9	-0.13065709
52	0xbdaece0a	-0.085353926
53	0x3d95edf4	0.073207766
54	0xbd494b9d	-0.049144376
55	0xbdf47774	-0.119368464
56	0xbcc13ef4	-0.023589589
57	0x3d9c6f46	0.07638411
58	0x3da61559	0.081095405
59	0xbd2b06eb	-0.041754644
60	0xbd26d45b	-0.04072986
61	0x3e09ab50	0.13444257
62	0xbdafed61	-0.08590198
63	0xbd59234d	-0.05301218

bias f4 [2]
0	0xbe88e8ec	-0.26740205
1	0x3e6fdc8c	0.23423976

weight f4 [2, 32]
0	0xbee2bd9e	-0.4428529
1	0x3e3df554	0.18550617
2	0x3e34f535	0.17671664
3	0xbde1f853	-0.11033692
4	0x3eab1788	0.3341639
5	0xbc8ad7c2	-0.016948584
6	0x3eb7828e	0.35841793
7	0x3e437e03	0.19091038
8	0x3e618d19	0.2202648
9	0x3e50218f	0.20325302
10	0x3f184f6a	0.59496176
11	0x3d76c2e7	0.060244467
12	0x3f05497b	0.5206525
13	0x3d44eb69	0.048076067
14	0x3e885ca7	0.26633188
15	0x3ef245b1	0.47318795
16	0xbcca7887	-0.024715675
17	0xbeb3daa0	-0.35127735
18	0x3d2942dd	0.04132353
19	0x3e4372d1	0.19086768
20	0xbf28fbeb	-0.66009396
21	0xbdac30e1	-0.084077604
22	0x3cf01c9b	0.029310515
23	0x3eba7464	0.36416924
24	0x3da3ac84	0.07991889
25	0x3e90aa89	0.28255108
26	0x3ece4be2	0.4029227
27	0x3d9fe688	0.07807642
28	0xbdc0ffc5	-0.09423784
29	0x3dadecf3	0.0849246
30	0x3d820880	0.063492775
31	0x3d803f30	0.06262052
32	0x3ed5e88c	0.41778982
33	0xbda65904	-0.08122447
34	0xbe342c47	-0.17595015
35	0x3d12ce31	0.03584117
36	0xbe327561	-0.17427589
37	0xbe017c10	-0.12644982
38	0xbec3a17a	-0.38209134
39	0x3dacc772	0.08436479
40	0x3d6c4e99	0.057692144
41	0xbdce4f6e	-0.10073744
42	0xbf029a3b	-0.51016587
43	0x3c4d146f	0.012517079
44	0xbf01039b	-0.50396127
45	0x3e11d9f0	0.14243293
46	0xbe98959d	-0.29801646
47	0xbefc8672	-0.49321324
48	0xbdb4c780	-0.08827114
49	0x3e90de8c	0.2829479
50	0x3d8e4195	0.069461025
51	0x3d8cf1bc	0.06882045
52	0x3f455420	0.7708149
53	0xbccd2427	-0.025041653
54	0xbdab16c6	-0.08353953
55	0xbe923b96	-0.28561085
56	0xbe0adbd4	-0.1356042
57	0xbe9d9c34	-0.30783236
58	0xbe4434a6	-0.19160709
59	0xbdc80fa0	-0.09768605
60	0xbdb11a9a	-0.08647652
61	0x3e28ff6a	0.16503683
62	0x3da9fb45	0.08299879
63	0x3e0251ba	0.12726489
