code/GraphSAGE_BPR/GraphSAGE_2.pth (torch, 7383 bytes, 6 tensors)

weight f4 [8, 5]
0	0xbdd4d44f	-0.10392057
1	0xbe959c5f	-0.29220864
2	0xbe6de88f	-0.23233245
3	0xbe142be0	-0.14469862
4	0x3c8bb1a1	0.017052474
5	0xbdbd39ef	-0.092395656
6	0xbd576ab5	-0.052591998
7	0xbe020b21	-0.12699558
8	0x3dd4befd	0.103879906
9	0x3e054e59	0.13018169
10	0xbda56630	-0.08076131
11	0xbdf90396	-0.12158887
12	0xbd180229	-0.037111435
13	0x3cba6e51	0.022757681
14	0xbd975be5	-0.07390574
15	0xbea31861	-0.31854537
16	0xbeeaede9	-0.45884636
17	0x3d3e1d98	0.04641494
18	0xbe819b9d	-0.25314036
19	0x3e296b41	0.1654482
20	0x3ea16f28	0.31530118
21	0xbbea34cc	-0.007147407
22	0xbdba9b5b	-0.09111663
23	0xbd504bcd	-0.05085354
24	0x3eba9b8f	0.36446807
25	0x3d9c87f1	0.07643116
26	0x3e47f14e	0.19525644
27	0xbe1e0f2d	-0.15435477
28	0x3dee19f7	0.11626046
29	0x3f3f0dee	0.7463063
30	0xbc908c2b	-0.017644962
31	0x3d2038d0	0.03911668
32	0x3f4dbd84	0.803673
33	0x3d6cddd8	0.057828754
34	0x3c4be44b	0.012444566
35	0x3e107da7	0.14110433
36	0x3f0283cc	0.50982356
37	0x3f349bb3	0.7055008
38	0x3ac21a65	0.0014808892
39	0x3f14abb6	0.5807451

bias f4 [8]
0	0xbeb49582	-0.35270315
1	0x3fecbf7b	1.8495935
2	0xc0062ec1	-2.0966036
3	0xbce94dfb	-0.028479567
4	0xbec2b638	-0.38029647
5	0x3ff8573a	1.940162
6	0x3fb6e70c	1.428926
7	0x3f670535	0.9024232

weight f4 [8, 5]
0	0x3eb78e88	0.3585093
1	0xbeae3b06	-0.34029406
2	0x3df25ae1	0.1183374
3	0x3e4b53c3	0.19856171
4	0xbe667ee6	-0.22509345
5	0xbda341fa	-0.079715684
6	0xbf1fc24f	-0.62405866
7	0xbd9422cb	-0.07233199
8	0xbf3639ea	-0.7118212
9	0xbf177019	-0.5915542
10	0x3bb96644	0.005657943
11	0x3f726ad4	0.94694257
12	0xbdd45e72	-0.103695765
13	0x3f9b834c	1.2149444
14	0x3f599a23	0.8500082
15	0xbe4da78f	-0.2008345
16	0xbce39cd3	-0.02778474
17	0xbe4f48a9	-0.20242561
18	0xbde1d977	-0.11027806
19	0x3de20772	0.11036576
20	0xbe705897	-0.23471294
21	0x3e87b6a0	0.2650652
22	0x3d1e4268	0.03863755
23	0x3ecc39bf	0.39887807
24	0x3ebf08aa	0.37311298
25	0x3d9e35ac	0.07725081
26	0xbf9d35b3	-1.2282013
27	0xbea126ba	-0.3147486
28	0xbf23c521	-0.6397267
29	0xbf4ad738	-0.7923465
30	0x3d1109e7	0.035409834
31	0xbf41fb67	-0.75774235
32	0xbe9c0917	-0.30475685
33	0xbf520eaf	-0.82053655
34	0xbf1ffdc5	-0.62496597
35	0x3e408d86	0.18803987
36	0xbf261039	-0.64868504
37	0xbe20cab7	-0.1570233
38	0xc00cb88b	-2.1987636
39	0x3cdfb95a	0.027310062

weight f4 [2, 8]
0	0x3caa8c98	0.020818993
1	0x3df3cec7	0.11904674
2	0xbf30d3b2	-0.6907302
3	0xbe62cd73	-0.22148685
4	0xbe84e069	-0.2595246
5	0xbda5d419	-0.08097095
6	0x3e66e0ac	0.22546643
7	0xbe235694	-0.15950996
8	0x3e28e8c2	0.1649504
9	0xbe19a9d7	-0.15006195
10	0x3ecf9f49	0.40551212
11	0x3df87d16	0.12133233
12	0x3c9eb731	0.019374462
13	0xbed35b07	-0.41280386
14	0x3d9f35d8	0.07773942
15	0x3dcae0e5	0.099061765

bias f4 [2]
0	0x3e9c5d8c	0.3054012
1	0x3e1363db	0.1439356

weight f4 [2, 8]
0	0xbde8b8be	-0.11363362
1	0x403aa521	2.9163287
2	0xbfe22db9	-1.7670203
3	0x3ed9983f	0.42498967
4	0xbe3374ca	-0.1752502
5	0x3f9b9022	1.2153361
6	0x401633f1	2.3469203
7	0x3f315361	0.6926785
8	0xbe5f5c71	-0.21812607
9	0xc0381921	-2.8765337
10	0x3fc2371c	1.5173068
11	0xbe98ebdd	-0.2986745
12	0x3eb7c752	0.35894257
13	0xbfd90a10	-1.6956196
14	0xbfe860bc	-1.8154521
15	0xbf7345e5	-0.95028526
