code/GraphSAGE_BPR/GraphSAGE_5.pth (torch, 415079 bytes, 15 tensors)

weight f4 [128, 5]
-0.3511189 -0.07871764 -0.46972293 0.34988913 -0.07575736 0.04338126 -0.4179902 -0.12284563
-0.4858165 -0.36662647 -0.5109939 -0.420578 -0.18212606 -0.3421382 -0.38164255 0.28832597
0.1384738 -0.16832234 -0.24900275 0.1874367 0.26799643 -0.43507278 0.19898704 -0.3324629
-0.11064349 -0.13890883 0.12481842 -0.24812122 0.3176299 -0.40661943 -0.36149555 0.38697946
0.08559583 0.2680813 -0.07552038 -0.25229317 0.33128253 -0.088288896 -0.1401791 -0.019619029
-0.03481362 -0.30986398 0.32407355 -0.23602824 -0.4645774 -0.2501188 -0.33121946 0.2328318
-0.20169707 -0.2871371 0.017998524 0.029654486 0.41411114 0.2473964 0.0370649 0.31274644
0.11523927 -0.20686321 0.12925678 0.083202995 0.07872563 0.21095362 0.2703912 0.06038979
-0.466789 -0.25411656 0.04847762 -0.37159246 -0.33417025 0.19158185 -0.13036817 -0.14565408
-0.27660573 -0.08217397 -0.20619072 0.15756619 0.07463635 -0.2072528 -0.4030152 -0.029240824
-0.024847368 0.27913305 -0.6923117 0.46721542 -0.34149656 -0.29324782 -0.2055655 0.43634164
0.026131637 0.27472872 -0.06567813 0.3570795 -0.21772005 -0.08909556 0.07497497 0.0681764
-0.46630484 -0.283356 -0.505143 -0.04511308 0.04818968 0.068358265 0.031383343 -0.39158642
-0.23963681 -0.48955947 -0.1910232 -0.095080346 -0.54889184 0.08044741 -0.029313564 0.2460509
-0.36025947 -0.13153216 -0.04180175 -0.5184192 0.13771829 0.050403707 -0.18715659 -0.16940242
0.41622323 0.07807636 -0.4284964 -0.3380286 -0.44197446 0.24084426 -0.13392681 -0.001680057
-0.15534529 0.12802322 -0.32442492 -0.2664619 0.14711723 0.21089566 -0.5450644 0.033321533
-0.04413049 0.25997782 0.058449835 0.15827861 -0.049520597 -0.024811355 0.020702159 -0.07973729
0.37592146 0.17925212 -0.30565912 -0.29901093 0.3388077 0.090753086 -0.11092423 0.049536373
-0.3819301 -0.30466235 0.1632673 -0.6548627 0.2617461 0.053300798 -0.33182943 -0.60357386
-0.013253282 -0.07928414 0.51149565 0.07139241 -0.15205339 -0.060366686 -0.7021251 -0.37318528
-0.29507238 0.027423171 -0.5960529 -0.6048625 -0.28748423 -0.10878694 0.21270907 -0.13203187
-0.32941893 0.2875217 0.51942503 0.22243278 0.09553048 -0.22447684 -0.2552841 -0.059343994
0.0028273726 -0.036552455 0.11461678 -0.26056722 -0.14595391 0.36883467 -0.012001667 -0.36393553
-0.36591896 0.17041007 0.36837384 -0.098128974 -0.24766214 -0.35076597 0.32898253 -0.39055166
-0.007860028 -0.105694436 -0.33597523 -0.45625013 0.13447084 -0.047727983 -0.29141748 -0.18310115
0.051728513 0.16551964 -0.3187854 -0.3619846 -0.56419694 0.20776783 0.15685494 0.14870435
-0.09176637 0.13887405 0.2770891 -0.031564847 -0.08230581 -0.25718936 0.1456563 0.12976593
-0.250215 -0.43843964 -0.14085418 -0.009035859 0.36469766 -0.3595754 0.2078725 -0.20427912
0.46672124 0.24118133 0.13504201 -0.23314783 -0.3343982 0.21953583 -0.066859834 0.21552366
0.08970078 -0.26636788 0.20772384 0.5129907 -0.16720785 -0.15435684 0.13463908 0.09720558
0.061721385 -0.33600277 -0.02733279 0.32616934 -0.13840923 0.00043100474 0.43887934 0.33238137
00000000: dbc5 b3be b736 a1bd 867f f0be ab24 b33e
00000010: ad26 9bbd 8cb0 313d d002 d6be 7d96 fbbd
00000020: f1bc f8be 77b6 bbbe 7fd0 02bf 0056 d7be
00000030: 417f 3abe bd2c afbe a766 c3be 769f 933e
00000040: 13cc 0d3e b15c 2cbe 94fa 7ebe 68ef 3f3e
00000050: d436 893e dcc1 debe 42c3 4b3e 9438 aabe
00000060: 0e99 e2bd 1e3e 0ebe cda0 ff3d 7d13 7ebe
00000070: 63a0 a23e 6c30 d0be f215 b9be 2c22 c63e
00000080: de4c af3d f441 893e 6eaa 9abd 922c 81be
00000090: dd9d a93e cfd0 b4bd 1c8b 0fbe 16b8 a0bc
000000a0: ba98 0ebd 7ea6 9ebe f8ec a53e 63b1 71be
000000b0: 17dd edbe 920f 80be 9995 a9be 766b 6e3e
000000c0: ad89 4ebe a203 93be a471 933c f7ed f23c
000000d0: 6006 d43e 7b55 7d3e 5dd1 173d 4d20 a03e
000000e0: 9102 ec3d f3d3 53be e45b 043e 5566 aa3d
000000f0: e73a a13d 3a04 583e b770 8a3e 495b 773d
00000100: f8fe eebe 911b 82be 7890 463d 5e41 bebe
00000110: 5d18 abbe 082e 443e 3c7f 05be 5826 15be
00000120: 449f 8dbe d44a a8bd a923 53be 0859 213e
00000130: f1da 983d 143a 54be 0258 cebe 748a efbc
00000140: b58c cbbc 87ea 8e3e 573b 31bf dc36 ef3e
00000150: a3d8 aebe 9424 96be c37f 52be 2c68 df3e
00000160: 0412 d63c 3ea9 8c3e 4182 86bd 20d3 b63e
00000170: 01f2 5ebe bc77 b6bd 7a8c 993d 12a0 8b3d
00000180: 82bf eebe 0a14 91be 0d51 01bf 7ec8 38bd
00000190: 8b62 453d 6bff 8b3d d28b 003d 047e c8be
000001a0: 5a63 75be 8aa7 fabe 969b 43be 7cb9 c2bd
000001b0: 2d84 0cbf 9dc1 a43d 0023 f0bc c4f4 7b3e
000001c0: ee73 b8be 5eb0 06be 5038 2bbd 1fb7 04bf
000001d0: 0606 0d3e 1e74 4e3d faa5 3fbe d477 2dbe
000001e0: 361b d53e 80e6 9f3d e163 dbbe 1612 adbe
000001f0: 7a4a e2be e19f 763e 1c24 09be 5c35 dcba
00000200: d612 1fbe 8518 033e 061b a6be b26d 88be
00000210: e6a5 163e 08f5 573e 5789 0bbf 297c 083d
00000220: 2cc2 34bd d01b 853e 1869 6f3d ca13 223e
00000230: 1cd6 4abd 2f41 cbbc 9397 a93c 4e4d a3bd
00000240: c778 c03e de8d 373e 5a7f 9cbe f617 99be
00000250: 3478 ad3e c1dc b93d 3e2c e3bd a7e6 4a3d
00000260: 588c c3be b4fc 9bbe 8b2f 273e 15a5 27bf
00000270: 9603 863e f051 5a3d 8ce5 a9be d183 1abf
00000280: 4b24 59bc b95f a2bd 61f1 023f 2f36 923d
00000290: e2b3 1bbe 0f43 77bd 78be 33bf 2412 bfbe
000002a0: ba13 97be 8fa6 e03c ec96 18bf 45d8 1abf
000002b0: 2231 93be b0cb debd 68d0 593e 5d33 07be
000002c0: 99a9 a8be 0b36 933e 0af9 043f 6bc5 633e
000002d0: 7ca5 c33d 42dd 65be 99b4 82be b012 73bd
000002e0: 714b 393b 07b8 15bd 34bc ea3d 1169 85be
000002f0: f174 15be e6d7 bc3e a4a2 44bc c255 babe
00000300: bb59 bbbe fa7f 2e3e 7f9b bc3e d8f7 c8bd
00000310: 259b 7dbe 9997 b3be 6670 a83e 63f6 c7be
00000320: 59c7 00bc 5376 d8bd f204 acbe 9e99 e9be
00000330: b9b2 093e 6b7e 43bd ac34 95be de7e 3bbe
00000340: 47e1 533d fb7d 293e d737 a3be 0c56 b9be
00000350: 366f 10bf 17c1 543e 959e 203e f445 183e
00000360: 02f0 bbbd 0035 0e3e 9fde 8d3e 244a 01bd
00000370: f38f a8bd 53ae 83be ed26 153e 5ce1 043e
00000380: 2e1c 80be 297b e0be 143c 10be 240b 14bc
00000390: a7b9 ba3e 441a b8be 87dc 543e 8c2e 51be
000003a0: 16f6 ee3e 3df8 763e 7448 0a3e 4ebe 6ebe
000003b0: 3e36 abbe 00ce 603e cfed 88bd 3cb2 5c3e
000003c0: 0bb5 b73d 5f61 88be 8fb5 543e 5c53 033f
000003d0: 8938 2bbe b80f 1ebe d4de 093e b813 c73d
000003e0: 90cf 7c3d 8e08 acbe 04e9 dfbc abff a63e
000003f0: 26bb 0dbe 7af8 e139 cbb4 e03e e42d aa3e

bias f4 [128]
0.078837916 0.02838304 0.23445944 -0.30398583 -0.22994626 -0.44279087 0.03860642 -0.40206462
0.3613682 0.25554398 0.31902537 -0.3722676 -0.07375853 -0.43942422 -0.44923362 -0.44875598
0.25731888 -0.073890395 0.22745804 0.27328232 0.077281624 -0.113983996 -0.35714385 -0.17484903
0.122299194 0.26936463 -0.15518868 0.39327446 0.29314286 0.0019241143 0.061161425 -0.047026463
0.40954557 -0.034734745 0.30817917 -0.107478425 0.12748013 0.4601391 -0.0064664413 -0.040716827
-0.11147995 -0.43571612 -0.14923915 0.36854836 -0.1457283 0.25560132 0.0540552 -0.3153744
-0.07351867 -0.31407112 0.06279135 0.26480561 -0.12835377 -0.403982 -0.06381259 0.1958246
0.2957884 0.06949331 -0.14522585 -0.17153564 -0.16750386 -0.03853502 -0.38568112 0.16097109
-0.38796726 -0.4313849 0.088504896 -0.13215834 0.26220423 -0.3638989 0.14083491 0.47625396
-0.23867099 0.39315417 -0.068977654 -0.0024006015 0.32504693 -0.08504121 -0.44110888 0.43634358
-0.36332652 -0.2959336 -0.42400932 -0.18260889 0.31286436 -0.058377232 0.06991063 0.08654579
-0.23023203 0.23012422 -0.045981992 -0.2944354 -0.1883775 0.15964325 -0.08190828 -0.12241736
-0.10094673 0.1874745 0.15483974 -0.47467232 0.13344754 -0.28585553 -0.03928044 -0.26678467
-0.41739514 -0.23324357 0.12420506 -0.19826959 -0.29632592 -0.36487234 0.3137315 0.0300278
0.5325823 -0.002145481 0.049304232 -0.23142293 -0.330795 -0.16631964 -0.17309421 0.31512812
0.12307481 -0.43981072 0.26927733 -0.15552978 0.3587345 0.020552035 -0.17744248 -0.27827653
00000000: c675 a13d 8d83 e83c 2316 703e 08a4 9bbe
00000010: 0877 6bbe 7cb5 e2be c421 1e3d 6adb cdbe
00000020: 4105 b93e a9d6 823e 4b57 a33e dc99 bebe
00000030: b60e 97bd 36fc e0be f301 e6be 58c3 e5be
00000040: 4dbf 833e d953 97bd c3ea 683e a9eb 8b3e
00000050: d445 9e3d 7170 e9bd 8fdb b6be a00b 33be
00000060: 0078 fa3d 29ea 893e c8e9 1ebe 455b c93e
00000070: d216 963e 9032 fc3a 6784 7a3d d29e 40bd
00000080: f5af d13e 0546 0ebd a9c9 9d3e a61d dcbd
00000090: 278a 023e 5a97 eb3e 71e4 d3bb b0c6 26bd
000000a0: 9a4f e4bd 2f16 dfbe 26d2 18be 5fb2 bc3e
000000b0: cd39 15be 2dde 823e fc68 5d3d c178 a1be
000000c0: f590 96bd eecd a0be c098 803d 9a94 873e
000000d0: 2c6f 03be bbd6 cebe 2db0 82bd 3e86 483e
000000e0: 9471 973e 8252 8e3d 16b6 14be 0aa7 2fbe
000000f0: 2286 2bbe e6d6 1dbd ff77 c5be 9bd5 243e
00000100: a5a3 c6be 7bde dcbe 0e42 b53d 8454 07be
00000110: a23f 863e f550 babe 0737 103e 8fd7 f33e
00000120: 2b66 74be 814b c93e 2844 8dbd 6953 1dbb
00000130: 8d6c a63e 162a aebd 06d9 e1be 6d68 df3e
00000140: ef05 babe 9c84 97be c017 d9be d3fd 3abe
00000150: c22f a03e f71c 6fbd 4e2d 8f3d eb3e b13d
00000160: f2c1 6bbe afa5 6b3e 9d57 3cbd 3dc0 96be
00000170: 08e6 40be 8579 233e 87bf a7bd f4b5 fabd
00000180: 29bd cebd 51f9 3f3e 4f8e 1e3e 4008 f3be
00000190: 79a6 083e a85b 92be 87e4 20bd 0098 88be
000001a0: d1b4 d5be 67d7 6ebe 395f fe3d 2f07 4bbe
000001b0: 08b8 97be 8cd0 babe 6aa1 a03e dcfc f53c
000001c0: 5057 083f 339b 0cbb 3cf3 493d 22fa 6cbe
000001d0: f65d a9be b24f 2abe 9c3f 31be 7958 a13e
000001e0: a50e fc3d df2e e1be b8de 893e 3343 1fbe
000001f0: 0cac b73e be5c a83c 7bb3 35be 437a 8ebe

weight f4 [128, 5]
-0.4497904 -0.20644873 0.5236436 -0.32951316 0.09545012 -0.08012911 0.118350916 -0.25770748
-0.36572438 -0.20729181 0.2736375 -0.4400496 -0.40270823 0.009137311 -0.16144583 -0.23782091
0.18762724 -0.5281468 0.20617375 -0.45779276 -0.37860987 0.44300234 0.03935932 -0.32535824
0.28940997 -0.18741 0.13601461 -0.2223204 -0.3046987 0.09837681 -0.13523227 0.119304284
-0.07130987 -0.034486722 -0.5829894 0.005719767 -0.24057423 0.1737661 -0.22345187 0.23231454
-0.5300458 0.030673185 -0.098440334 0.08634325 0.3608884 -0.032868683 0.12963645 -0.09521584
0.15836409 -0.5577067 0.05670335 -0.6293484 -0.16671593 0.08258816 -0.3788262 0.23792996
0.031266097 -0.039413657 0.37119213 -0.07648517 0.03468124 0.600218 -1.0296743 -0.1466613
-0.45532453 -0.26848468 0.3144225 -0.07108116 -0.26820725 -0.2601884 -0.43793586 0.30354032
-0.15161817 0.29431632 -0.1418253 0.10684398 0.37464765 -0.14730103 -0.029090326 -0.43589723
0.36062863 0.35405168 0.021852449 -0.10586901 -0.69164 0.030765008 -0.46216828 0.37470773
0.07464158 -0.4821387 -0.70989114 0.099793844 -0.42256305 0.43094227 -0.51867694 -0.059519105
0.10160991 0.05731008 -0.62144876 0.34292918 0.25621298 0.35874966 0.13756117 -0.6616208
-0.01898001 -0.25570107 -0.30274788 0.12383551 -0.21433502 -0.15608583 -0.36741984 -0.20103262
0.3313684 -0.21073551 -0.14196685 -0.17106067 0.14837301 0.24475648 -0.4370143 0.09253973
-0.115611315 -0.3357513 -0.42158753 0.30794734 -0.42888072 -0.4214189 0.094365515 0.031309057
-0.030326638 -0.25000954 -0.0024835393 0.28063628 -0.0587265 -0.10337091 -0.34911722 0.14732705
-0.13256639 -0.08589472 -0.2842489 -0.43933445 -0.057746693 -0.31995553 -0.023433812 0.22331487
-0.5412936 -0.65574193 0.5072241 -0.4539894 -0.88504344 0.06678439 -0.04294993 0.24681872
-0.12037045 0.03752143 -0.3453809 -0.3305223 -0.052326564 -0.5837103 0.17820214 0.058774345
-0.022287618 -0.38488823 -0.102190256 -0.26985142 -0.04399805 0.43753374 -0.6950266 -0.094186276
-0.21585515 0.46524733 0.24408786 -0.04387669 -0.30592194 0.01244395 0.21388067 -0.124970265
-0.23923467 0.20311531 0.015045782 -0.59666485 0.005577728 -0.5170171 -0.021534113 -0.37794936
-0.47867206 0.22945586 -0.24655221 -0.08086597 -0.374707 0.004452145 -0.50692654 -0.056544676
0.37873092 -0.16876562 -0.0632186 -0.00998044 -0.07854855 -0.28149676 -0.08657253 -0.046640456
-0.26285878 0.35000667 0.12978327 0.023277473 -0.13844047 0.18385473 0.33764115 0.10755788
0.4873608 -0.10805311 0.36212924 -0.0029660072 0.21861841 -0.5977324 0.50385827 0.033299193
-0.44876048 -0.44825596 -0.41301593 -0.18128693 0.17259178 -0.51382136 -0.37174937 -0.16739538
0.58287454 -0.37002465 -0.25950307 -0.31488767 0.32730252 -0.11236588 0.25674504 -0.19108549
-0.1516252 -0.55946726 0.00676513 0.19943877 -0.37591556 -0.043979168 -0.015393508 -0.36372563
0.090034954 -0.43763348 -0.087985195 -0.1979949 -0.18300903 0.041645378 -0.39002234 -0.11248675
0.41151398 -0.39544103 0.09488467 -0.5610759 -0.2772002 -0.07344704 0.11744827 0.22024255
00000000: ed4a e6be 4c67 53be 820d 063f f3b5 a8be
00000010: 5a7b c33d bb1a a4bd f761 f23d 3cf2 83be
00000020: 3a40 bbbe 4e44 54be 371a 8c3e 2e4e e1be
00000030: c62f cebe a9b4 153c 0e52 25be 5387 73be
00000040: 5b21 403e a134 07bf 361f 533e d063 eabe
00000050: 27d9 c1be 34d1 e23e 3d37 213d 5b95 a6be
00000060: 8b2d 943e 68e8 3fbe 6a47 0b3e f5a7 63be
00000070: 7801 9cbe c879 c93d 547a 0abe ce55 f43d
00000080: e90a 92bd f341 0dbd cb3e 15bf e26c bb3b
00000090: 1759 76be beef 313e 91d0 64be dde3 6d3e
000000a0: 15b1 07bf 5546 fb3c 169b c9bd bbd4 b03d
000000b0: 5dc6 b83e 50a1 06bd 6bbf 043e 8600 c3bd
000000c0: 322a 223e dec5 0ebf c641 683d fa1c 21bf
000000d0: 95b7 2abe fb23 a93d 82f5 c1be e9a3 733e
000000e0: e110 003d 3770 21bd e50c be3e 42a4 9cbd
000000f0: ea0d 0e3d e3a7 193f 5ecc 83bf 612e 16be
00000100: 4c20 e9be d376 89be fcfb a03e 0093 91bd
00000110: 7652 89be 6a37 85be 2139 e0be a369 9b3e
00000120: cb41 1bbe a1b0 963e a73a 11be 04d1 da3d
00000130: d1d1 bf3e 15d6 16be d64e eebc ec2d dfbe
00000140: 51a4 b83e 4346 b53e e803 b33c dad1 d8bd
00000150: 520f 31bf e606 fc3c 52a1 ecbe b1d9 bf3e
00000160: afdd 983d e2da f6be 6dbb 35bf b760 cc3d
00000170: 2f5a d8be 77a4 dc3e 03c8 04bf 4eca 73bd
00000180: db18 d03d f9bd 6a3d 4417 1fbf 6a94 af3e
00000190: 592e 833e 09ae b73e d6dc 0c3e fb5f 29bf
000001a0: f77b 9bbc 40eb 82be c501 9bbe 799d fd3d
000001b0: a47a 5bbe f7d4 1fbe 741e bcbe 7fdb 4dbe
000001c0: 1ea9 a93e 0dcb 57be c25f 11be 872a 2fbe
000001d0: 18ef 173e 71a1 7a3e 57c0 dfbe 7885 bd3d
000001e0: a0c5 ecbd 98e7 abbe 52da d7be 46ab 9d3e
000001f0: 4196 dbbe 38c4 d7be b542 c13d ed3d 003d
00000200: 926f f8bc 4001 80be e0c2 22bb 8faf 8f3e
00000210: 338b 70bd 21b4 d3bd 7ebf b2be e7dc 163e
00000220: 7cbf 07be 92e9 afbd 1289 91be 72f0 e0be
00000230: cc87 6cbd 36d1 a3be 44f8 bfbc a7ac 643e
00000240: 3892 0abf b4de 27bf 70d9 013f 4c71 e8be
00000250: 3592 62bf 41c6 883d 44ec 2fbd 0cbe 7c3e
00000260: c884 f6bd 12b0 193d c4d5 b0be 383a a9be
00000270: 6154 56bd 0a6e 15bf 9f7a 363e 5ebd 703d
00000280: 8694 b6bc 1210 c5be 2049 d1bd f729 8abe
00000290: 4d37 34bd 6c04 e03e 43ed 31bf bce4 c0bd
000002a0: 2209 5dbe e634 ee3e 2bf2 793e 0bb8 33bd
000002b0: cda1 9cbe b6e1 4b3c 8903 5b3e 69f0 ffbd
000002c0: eff9 74be 76fd 4f3e 9582 763c 07bf 18bf
000002d0: 60c5 b63b 3c5b 04bf 4f68 b0bc 9482 c1be
000002e0: 8114 f5be 7af6 6a3e 2f78 7cbe 0f9d a5bd
000002f0: 99d9 bfbe 4de3 913b f0c5 01bf 649b 67bd
00000300: 05e9 c13e e5d0 2cbe c178 81bd 0085 23bc
00000310: 10de a0bd 5820 90be f04c b1bd 100a 3fbd
00000320: 6d95 86be 1334 b33e e8e5 043e 66b0 be3c
00000330: 57c3 0dbe 6a44 3c3e 4ddf ac3e 4e47 dc3d
00000340: 5b87 f93e f34a ddbd 0169 b93e 5861 42bb
00000350: 81dd 5f3e fe04 19bf dbfc 003f bc64 083d
00000360: efc3 e5be ce81 e5be d376 d3be 48a3 39be
00000370: e6bb 303e cc89 03bf ef55 bebe b269 2bbe
00000380: 4437 153f df73 bdbe 96dd 84be f538 a1be
00000390: 3294 a73e 1520 e6bd 1674 833e eaab 43be
000003a0: a343 1bbe 3f39 0fbf 06ae dd3b ad39 4c3e
000003b0: 0178 c0be 8023 34bd 0d35 7cbc 3f3a babe
000003c0: 3f64 b83d 7f11 e0be 9531 b4bd 2dbf 4abe
000003d0: b866 3bbe 5894 2a3d 02b1 c7be 745f e6bd
000003e0: f6b1 d23e 3f77 cabe e552 c23d aca2 0fbf
000003f0: 2fed 8dbe 676b 96bd b888 f03d 4387 613e

weight f4 [128, 128]
-0.01776806 -0.008960632 -0.046630092 -0.08361096 -0.07507524 -0.1263419 -0.10367764 0.026048658
-0.12863365 -0.085020445 -0.084853925 -0.029677786 -0.046811484 0.07122775 0.067596264 0.031540148
-0.015247582 -0.09754944 -0.05138818 -0.049503013 -0.08999254 -0.03305417 -0.029240776 -0.10352432
0.024631515 -0.07189155 0.015296225 -0.09864956 -0.014957059 0.014452519 0.02593418 -0.03664983
-0.001913434 0.0070656044 -0.11265298 0.030589074 -0.08193087 -0.08096041 0.029717427 -0.08603844
0.015677048 -0.09365855 -0.005746455 -0.006410557 -0.060745087 -0.040860068 -0.074249886 -0.048958607
0.005872124 0.0027607977 -0.013864485 0.02053892 -0.036341324 -0.06851527 0.03840235 -0.11047453
-0.053060077 -0.027847009 -0.08212333 -0.12430043 0.0040444266 -0.01707101 -0.07207576 -0.12214516
-0.07857441 -0.10029867 0.047560304 0.0436225 -0.12491318 0.030847171 -0.024489304 0.026323814
-0.028766535 -0.06401532 -0.032025535 -0.09909631 -0.12487969 -0.12988374 0.051650964 0.042629506
-0.12985662 -0.06426675 -0.07043662 -0.060237702 -0.098795064 -0.008770057 0.12138171 -0.07955538
-0.10452326 -0.08576253 -0.11317694 -0.10712952 -0.13297346 -0.07622092 -0.07026615 0.016494762
-0.07862125 -0.072090924 0.06638765 -0.06591922 -0.0393438 -0.07231734 -0.019164717 -0.025075138
0.14144665 -0.089616746 -0.042362723 0.0411133 -0.070141986 0.05495193 0.042106777 0.030656843
0.021590387 0.009382297 0.011243259 0.025631415 -0.07790116 -0.04272899 -0.04794932 -0.094829835
0.020799445 0.004900316 -0.09024033 -0.023043796 -0.12211795 0.048278093 -0.13128635 -0.026751304
-0.059230205 -0.012341646 -0.0074831974 -0.005901136 0.074518375 0.013967544 0.008979331 -0.065956324
-0.07768278 0.0334452 -0.056683592 -0.022425627 0.0067682075 -0.08502681 -0.07278828 0.068673424
0.026607342 -0.03394239 -0.11506671 -0.096739955 -0.119348906 0.1194271 0.079877295 -0.12651622
-0.028892182 -0.06852934 -0.049203336 -0.024718901 -0.104421675 -0.04968858 -0.021717232 -0.05099326
-0.15073372 -0.0134077845 -0.013847941 -0.07182946 -0.0026554912 0.023468215 0.027376777 0.057224475
-0.12970585 -0.11547774 -0.13116439 -0.059964567 -0.06534231 -0.010090274 -0.11736556 0.13896464
0.016930591 0.077048995 -0.10868091 -0.11149476 0.0902877 -0.14582518 -0.033885688 -0.08642054
-0.11362142 -0.108135544 -0.019131256 0.004389252 0.007499388 0.12684351 -0.100502074 -0.13797128
-0.07302583 -0.003064456 0.019429786 -0.010984271 -0.011589621 -0.10284391 -0.14568752 -0.10668826
0.012222484 -0.03362764 0.07138201 -0.030607775 -0.12693858 -0.061911494 -0.04635661 -0.11569754
0.03032321 0.057516806 -0.05132906 -0.13685447 -0.08321 -0.09357918 -0.13854428 -0.028035188
-0.016707895 -0.007223172 -0.035086945 -0.03205504 -0.11805909 -0.03595358 -0.11554414 -0.036349155
-0.0012936518 -0.024360431 -0.14346386 0.070947334 -0.09393923 -0.08629275 -0.023464933 -0.05475609
-0.117305554 0.015090476 0.0103555415 -0.13922815 -0.04115458 -0.08405788 -0.013163316 -0.079537384
0.02357052 -0.11409765 -0.07569677 -0.019233048 0.0077349395 0.05659636 -0.13123177 -0.14246568
0.023264654 -0.14056002 -0.16622624 -0.087899595 -0.13301866 -0.13117947 -0.0377788 -0.10025745
00000000: 538e 91bc 9dcf 12bc 32ff 3ebd 393c abbd
00000010: 0cc1 99bd c55f 01be f154 d4bd ff63 d53c
00000020: 8ab8 03be 331f aebd e5c7 adbd d41e f3bc
00000030: 66bd 3fbd dbdf 913d e96f 8a3d 3e30 013d
00000040: ffd0 79bc 00c8 c7bd 6a7c 52bd acc3 4abd
00000050: 024e b8bd cf63 07bd 5a8a efbc 8f04 d4bd
00000060: 08c8 c93c e13b 93bd 059d 7a3c c808 cabd
00000070: 740e 75bc 42ca 6c3c eb73 d43c 221e 16bd
00000080: 31cc faba 9686 e73b 9bb6 e6bd f095 fa3c
00000090: 5fcb a7bd 92ce a5bd f671 f33c ec34 b0bd
000000a0: 276d 803c 0ed0 bfbd c24c bcbb a60f d2bb
000000b0: d7cf 78bd e35c 27bd 5310 98bd d288 48bd
000000c0: f26a c03b 80ee 343b dd27 63bc 3d41 a83c
000000d0: a4da 14bd bc51 8cbd c84b 1d3d 7840 e2bd
000000e0: 8655 59bd 691f e4bc 4730 a8bd 3991 febd
000000f0: 1c87 843b 81d8 8bbc 759c 93bd 3e27 fabd
00000100: 9feb a0bd 6469 cdbd 98ce 423d 82ad 323d
00000110: 7bd2 ffbd 35b3 fc3c cb9d c8bc 0aa5 d73c
00000120: cca7 ebbc 771a 83bd 352d 03bd 02f3 cabd
00000130: ecc0 ffbd 3e00 05be f68f 533d 479c 2e3d
00000140: 22f9 04be 499e 83bd 1341 90bd cfbb 76bd
00000150: 1155 cabd 49b0 0fbc f996 f83d eeed a2bd
00000160: 4a10 d6bd 44a4 afbd 50c9 e7bd b966 dbbd
00000170: 322a 08be b719 9cbd b3e7 8fbd 0620 873c
00000180: 2e04 a1bd 68a4 93bd 40f6 873d a800 87bd
00000190: f726 21bd 1d1b 94bd 53ff 9cbc 606a cdbc
000001a0: 64d7 103e fc88 b7bd 8984 2dbd 6b66 283d
000001b0: 9aa6 8fbd 4615 613d 2878 2c3d 0f24 fb3c
000001c0: 53de b03c 35b8 193c a535 383c f9f8 d13c
000001d0: a58a 9fbd 9804 2fbd 8266 44bd 2536 c2bd
000001e0: 9963 aa3c d492 a03b eccf b8bd 58c6 bcbc
000001f0: fa18 fabd 40bf 453d ee6f 06be 8d25 dbbc
00000200: 5f9b 72bd 9d34 4abc 9c35 f5bb 515e c1bb
00000210: 179d 983d 20d8 643c 0b1e 133c 1c14 87bd
00000220: 2618 9fbd d6fd 083d 0e2d 68bd f3b5 b7bc
00000230: d7c7 dd3b 8922 aebd 0612 95bd a7a4 8c3d
00000240: a4f7 d93c 2d07 0bbd 18a8 ebbd 991f c6bd
00000250: 336d f4bd 3296 f43d b596 a33d 788d 01be
00000260: 4caf ecbc 1c59 8cbd 7089 49bd 4b7f cabc
00000270: 08db d5bd 4186 4bbd 56e8 b1bc 4fde 50bd
00000280: f159 1abe 53ac 5bbc 79e2 62bc 531b 93bd
00000290: c007 2ebb 6a40 c03c 4345 e03c 3664 6a3d
000002a0: 9cd1 04be 987f ecbd f54f 06be 689d 75bd
000002b0: 30d2 85bd ad51 25bc 5b5d f0bd bf4c 0e3e
000002c0: 06b2 8a3c ddcb 9d3d 1994 debd 5d57 e4bd
000002d0: c2e8 b83d 3253 15be b8cb 0abd 41fd b0bd
000002e0: 59b2 e8bd 2b76 ddbd 27b9 9cbc b7d3 8f3b
000002f0: 6dbd f53b 44e3 013e 08d4 cdbd 5848 0dbe
00000300: 918e 95bd 0ad5 48bb 372b 9f3c 5ff7 33bc
00000310: 65e2 3dbc d49f d2bd 1c2f 15be 607f dabd
00000320: d040 483c 23bd 09bd bb30 923d 28bd fabc
00000330: 30fc 01be e896 7dbd 6ee0 3dbd d5f2 ecbd
00000340: 6168 f83c be96 6b3d 6c3e 52bd 9423 0cbe
00000350: 016a aabd 71a6 bfbd 8dde 0dbe 0daa e5bc
00000360: ffde 88bc 5cb0 ecbb 54b7 0fbd 254c 03bd
00000370: f7c8 f1bd 1044 13bd 68a2 ecbd dae2 14bd
00000380: c08f a9ba 878f c7bc 31e8 12be d64c 913d
00000390: 3663 c0bd 41ba b0bd 8839 c0bc ec47 60bd
000003a0: e53d f0bd 0b3e 773c 4aaa 293c d391 0ebe
000003b0: b491 28bd 8a26 acbd f3aa 57bc 7fe4 a2bd
000003c0: f716 c13c 07ac e9bd e806 9bbd a08e 9dbc
000003d0: 6075 fd3b 96d1 673d 9f61 06be 86e2 11be
000003e0: 8495 be3c f7ee 0fbe 3637 2abe b404 b4bd
000003f0: 0b36 08be e953 06be f1bd 1abd c753 cdbd

bias f4 [128]
-0.096917264 -0.047916677 0.00434305 -0.08426275 -0.057874385 -0.064791426 -0.11659036 -0.024250284
-0.12554191 -0.09579365 -0.12205172 -0.041308247 -0.11129953 -0.06460543 -0.018254247 -0.024081903
-0.065542646 -0.027791416 -0.1308738 -0.13802856 -0.08351313 -0.07952869 0.00022042655 -0.13924088
-0.013707363 -0.12456241 0.013518508 -0.017212205 -0.13614723 0.016280964 -0.06277325 -0.019082483
-0.11479028 -0.012369619 -0.06111106 -0.07983382 -0.032301232 -0.017729001 -0.04229897 -0.07592061
-0.06923685 0.02662783 -0.02407031 -0.014468908 0.015486999 -0.090720296 -0.009436445 0.1347559
-0.019154461 -0.08737567 0.02741177 -0.12734298 -0.070205174 -0.044249285 0.023499466 -0.09305676
0.06875447 0.015203735 -0.13756137 -0.022164011 -0.046135686 0.12571661 -0.18784192 0.07667278
-0.10168274 -0.08570212 -0.05103198 -0.106878035 -0.062055748 -0.12147779 0.010145505 -0.012992615
-0.017525246 -0.12227032 0.010861752 -0.015491232 -0.026933992 -0.054179695 -0.11367176 -0.040503275
-0.01604512 0.013295801 -0.15771864 -0.058808245 -0.021584373 -0.06852983 -0.08058576 -0.011457216
-0.10636138 0.077643074 -0.051662702 -0.11536638 -0.01665927 -0.022481913 -0.05707997 -0.07414278
-0.08424954 -0.03900708 -0.11515242 -0.05097039 -0.025417302 0.026590288 -0.10447351 0.0036558292
-0.015374984 0.0096140355 -0.027593842 -0.124013476 -0.057751887 -0.097416334 -0.019983111 -0.18833393
-0.065435074 0.031418305 -0.057526883 -0.085867174 -0.047922473 -0.05652044 -0.04895152 -0.1398307
-0.10310607 -0.07093026 -0.13678783 -0.09628394 -0.038377535 0.026299717 -0.10301735 -0.04040589
00000000: 8f7c c6bd 4744 44bd 2550 8e3b f391 acbd
00000010: b10d 6dbd 5eb1 84bd edc6 eebd 88a8 c6bc
00000020: 0f8e 00be 762f c4bd 41f6 f9bd d632 29bd
00000030: 02f1 e3bd da4f 84bd ee89 95bc 6947 c5bc
00000040: 393b 86bd d3aa e3bc c803 06be 5c57 0dbe
00000050: ef08 abbd f0df a2bd 4d22 6739 2995 0ebe
00000060: d994 60bc 941a ffbd bb7c 5d3c 9c00 8dbc
00000070: 2e6a 0bbe a85f 853c 438f 80bd de52 9cbc
00000080: 2b17 ebbd f1a9 4abc 974f 7abd ea7f a3bd
00000090: 4c4e 04bd 693c 91bc af41 2dbd 447c 9bbd
000000a0: 0dcc 8dbd 9b22 da3c 192f c5bc 000f 6dbc
000000b0: 2fbd 7d3c 90cb b9bd 529b 1abc 73fd 093e
000000c0: d1e9 9cbc 04f2 b2bd a68e e03c 3366 02be
000000d0: bbc7 8fbd bd3e 35bd f481 c03c 8b94 bebd
000000e0: 25cf 8c3d 1619 793c e3dc 0cbe 4d91 b5bc
000000f0: c6f8 3cbd dbbb 003e a259 40be 9e06 9d3d
00000100: 0a3f d0bd 9884 afbd e906 51bd dfe2 dabd
00000110: 2b2e 7ebd 59c9 f8bd 5539 263c fade 54bc
00000120: 1b91 8fbc dd68 fabd 7df5 313c f0ce 7dbc
00000130: ada4 dcbc 87eb 5dbd bdcc e8bd c3e6 25bd
00000140: 0e71 83bc a2d6 593c ff80 21be eae0 70bd
00000150: b6d1 b0bc 5e59 8cbd 260a a5bd 0cb7 3bbc
00000160: ffd3 d9bd 5503 9f3d 459c 53bd 3545 ecbd
00000170: 0579 88bc fd2b b8bc b0cc 69bd 2bd8 97bd
00000180: 068b acbd e3c5 1fbd 08d5 ebbd 54c6 50bd
00000190: f237 d0bc e0d3 d93c 35f6 d5bd a396 6f3b
000001a0: 5be7 7bbc 3084 1d3c 7b0c e2bc c7fa fdbd
000001b0: 3e8d 6cbd 3782 c7bd 9fb3 a3bc 9cda 40be
000001c0: d302 86bd 7bb0 003d 4fa1 6bbd 21db afbd
000001d0: 5b4a 44bd fa81 67bd 6481 48bd c72f 0fbe
000001e0: 4629 d3bd e243 91bd 1c12 0cbe 8430 c5bd
000001f0: c331 1dbd 8172 d73c c3fa d2bd a680 25bd

weight f4 [128, 128]
-0.082301065 0.06574095 -0.012792739 -0.06041331 -0.13346282 0.05166249 -0.034656134 -0.030319858
-0.0061575393 -0.015953675 -0.02949514 -0.040847473 0.016832955 -0.07140305 0.11866653 -0.06081903
0.08196391 0.004723664 0.01153937 0.07260513 -0.01873249 0.055280253 0.007518895 -0.047757294
0.027727582 -0.011613174 0.039656505 -0.09488001 0.02346351 -0.010565995 -0.09042864 0.051986117
-0.11833381 -0.050735246 0.009234682 -0.048474938 -0.07500661 -0.08622538 -0.04208752 -0.049342886
-0.0028906758 -0.04475341 -0.030229382 -0.035799827 0.030067157 0.039163284 -0.118341416 -0.002772581
-0.12356887 -0.015543766 0.029110836 -0.10643402 -0.0073305108 -0.031861577 -0.037627436 0.0050962167
0.024263207 -0.030889174 0.08343374 -0.11628029 -0.010216872 -0.007849239 0.08165492 0.018228456
-0.03294123 -0.011424469 0.08748977 0.037654445 0.0078815725 0.052916612 -0.020982727 -0.068727165
-0.06493395 0.03337355 -0.058940515 0.048573487 -0.028739523 -0.012437914 -0.11806174 0.022043444
-0.04982507 -0.053896 0.09181789 -0.061063036 -0.1240569 -0.108465016 0.0125663625 0.016206324
0.029533463 -0.11467739 -0.02267874 -0.01389551 -0.11895534 0.027109437 0.04413409 -0.0543738
-0.025086999 -0.12956278 -0.0072301147 0.042878494 -0.061446235 -0.121124394 -0.05723382 0.07136101
0.028265094 0.013705742 -0.105198264 -0.0997938 -0.0059620244 -0.020086884 -0.04395499 0.0136724105
0.028826859 0.055518016 -0.058245096 0.04014337 -0.009882861 -0.05668046 0.029360978 0.030550554
-0.07579232 -0.13256311 -0.0887067 -0.024044814 -0.0038208184 -0.06741865 -0.109708846 -0.018526876
-0.112626754 0.108035326 -0.30847308 0.017501956 -0.088454165 0.108369105 0.10435301 0.14665487
-0.16501781 0.19896396 0.008355244 -0.107491046 -0.090625495 -0.03962791 0.06871999 0.069838844
0.24896424 -0.052234724 -0.030293373 -0.013874281 0.09636871 0.016268168 -0.062295467 0.08741845
0.06937005 -0.13659564 -0.024751423 -0.020343076 -0.13295227 -0.02892668 -0.022415666 -0.08809674
0.18178096 -0.015491247 -0.22830537 -0.06424112 -0.048807673 0.046726324 -0.13535254 -0.046920937
-0.18528219 -0.1707468 0.18125236 -0.07631284 -0.21972017 0.01521665 -0.041258026 0.011676088
0.049471915 0.035268754 0.12066577 -0.1513782 -0.028195068 -0.020843629 -0.05862827 -0.17113438
-0.15963398 -0.13861136 0.017348096 -0.073805846 -0.079052664 0.016199702 -0.09092468 0.072962336
0.07400932 0.0804416 -0.008315302 -0.1438867 -0.05958584 -0.104657575 -0.010032139 0.05047473
-0.093271285 0.120163284 0.072555624 -0.060063757 -0.019005453 0.020563846 0.07563516 0.024933565
-0.0032573217 0.008047238 0.12748912 0.006532806 0.074144706 -0.033505134 -0.069148965 -0.02965559
0.06732472 0.01952778 -0.06416383 -0.20587754 -0.00749511 -0.13136421 -0.024985572 0.061023325
0.06639985 -0.10463402 0.034469835 -0.115898356 0.00035816096 -0.07132836 -0.105901994 -0.080668
-0.04565437 -0.04346097 0.14196268 -0.10155019 -0.17706896 0.083632745 -0.10713054 0.00974865
-0.34670314 -0.13906915 -0.14550447 0.09167327 -0.06412432 -0.014450945 -0.06746168 -0.10187358
-0.020125726 -0.0327948 0.15001747 0.051731687 0.043103144 -0.08128791 -0.07464305 -0.24824004
00000000: 768d a8bd 31a3 863d a398 51bc f273 77bd
00000010: 7aaa 08be 0c9c 533d 97f3 0dbd 5a61 f8bc
00000020: 2fc5 c9bb 48b1 82bc cb9f f1bc ae4f 27bd
00000030: 44e5 893c c33b 92bd 7007 f33d 601d 79bd
00000040: b2dc a73d f7c8 9a3b a00f 3d3c 00b2 943d
00000050: e174 99bc 8c6d 623d 1061 f63b 279d 43bd
00000060: f424 e33c 2f45 3ebc dc6e 223d 7350 c2bd
00000070: 8c36 c03c ff1c 2dbc a732 b9bd 65ef 543d
00000080: ff58 f2bd c3cf 4fbd 104d 173c a88d 46bd
00000090: 119d 99bd ef96 b0bd f763 2cbd c41b 4abd
000000a0: 7e71 3dbb 5a4f 37bd 9ca3 f7bc d7a2 12bd
000000b0: 664f f63c ae69 203d fc5c f2bd 31b4 35bb
000000c0: ad11 fdbd 48ab 7ebc d979 ee3c 14fa d9bd
000000d0: c834 f0bb 4981 02bd 3a1f 1abd 2afe a63b
000000e0: a2c3 c63c 4b0b fdbc 4fdf aa3d 5c24 eebd
000000f0: ab64 27bc 189a 00bc b23a a73d d853 953c
00000100: 62ed 06bd b22d 3bbc d62d b33d 8c3b 1a3d
00000110: b621 013c 17bf 583d f8e3 abbc d4c0 8cbd
00000120: 17fc 84bd b4b2 083d 9c6b 71bd fef4 463d
00000130: 266f ebbc 64c8 4bbc 5bca f1bd 7494 b43c
00000140: 5f15 4cbd 0dc2 5cbd 050b bc3d 3c1d 7abd
00000150: 8b11 febd e822 debd 25e3 4d3c 20c3 843c
00000160: 29f0 f13c fbdb eabd c4c8 b9bc fea9 63bc
00000170: db9e f3bd 9c14 de3c f3c5 343d 10b7 5ebd
00000180: 4083 cdbc 1bac 04be 99ea ecbb 5ca1 2f3d
00000190: 0caf 7bbd 1110 f8bd 036e 6abd b925 923d
000001a0: 338c e73c 0c8e 603c 3072 d7bd b160 ccbd
000001b0: 165d c3bb 408d a4bc 260a 34bd 3f02 603c
000001c0: 4e26 ec3c dc66 633d 6992 6ebd 606d 243d
000001d0: b9eb 21bc c529 68bd 6f86 f03c 2845 fa3c
000001e0: 0139 9bbd a0be 07be dcab b5bd a1f9 c4bc
000001f0: b266 7abb ca12 8abd 08af e0bd adc5 97bc
00000200: dba8 e6bd a041 dd3d 2ff0 9dbe 4360 8f3c
00000210: 7527 b5bd 9ff0 dd3d 08b7 d53d b22c 163e
00000220: 6efa 28be 35bd 4b3e 6fe4 083c 4424 dcbd
00000230: dc99 b9bd e050 22bd 11bd 8c3d ab07 8f3d
00000240: 7bf0 7e3e 14f4 55bd cf29 f8bc f450 63bc
00000250: f55c c53d d244 853c 8829 7fbd 7208 b33d
00000260: e311 8e3d badf 0bbe 7fc3 cabc 86a6 a6bc
00000270: a424 08be a5f7 ecbc 0fa1 b7bc 106c b4bd
00000280: ca24 3a3e 00cf 7dbc e2c8 69be d990 83bd
00000290: 8eea 47bd 1a64 3f3d db99 0abe 2b30 40bd
000002a0: 9dba 3dbe 40d8 2ebe 389a 393e e849 9cbd
000002b0: 53fe 60be 424f 793c 2dfe 28bd 104d 3f3c
000002c0: 10a3 4a3d f875 103d 9d1f f73d e302 1bbe
000002d0: 58f9 e6bc 42c0 aabc 3224 70bd da3d 2fbe
000002e0: 1777 23be 23f0 0dbe 981d 8e3c 8527 97bd
000002f0: 5de6 a1bd 3db5 843c b836 babd 476d 953d
00000300: 3392 973d 91be a43d e83c 08bc 0957 13be
00000310: 4810 74bd b656 d6bd d75d 24bc 97be 4e3d
00000320: 0405 bfbd 2b18 f63d 0b98 943d 6a05 76bd
00000330: 53b1 9bbc 8375 a83c 9be6 9a3d 7a41 cc3c
00000340: ca78 55bb 90d8 033c 828c 023e 2611 d63b
00000350: 2ed9 973d ae3c 09bd f99d 8dbd 48f0 f2bc
00000360: 8be1 893d b9f8 9f3c 5368 83bd 90d1 52be
00000370: 8a99 f5bb 5784 06be 8bae ccbc 98f3 793d
00000380: a5fc 873d 5c4a d6bd 3e30 0d3d 1e5c edbd
00000390: 8dc7 bb39 9a14 92bd 25e3 d8bd 4435 a5bd
000003a0: 1400 3bbd 2104 32bd aa5e 113e 8cf9 cfbd
000003b0: 9151 35be a547 ab3d 4267 dbbd cdb8 1f3c
000003c0: 1383 b1be 2568 0ebe 20ff 14be 32bf bb3d
000003d0: 9d53 83bd a8c3 6cbc 5929 8abd 18a3 d0bd
000003e0: b5de a4bc d753 06bd 2e9e 193e 9be4 533d
000003f0: ec8c 303d 477a a6bd 75de 98bd a332 7ebe

weight f4 [128, 128]
0.034360435 0.023381196 0.07305514 0.012242538 -0.028447822 0.026464755 0.007420134 -0.1405008
0.049165163 -0.0067558293 -0.024308085 -0.0009264355 -0.10629561 -0.06319214 -0.017652852 -0.0072924136
-0.13383389 -0.016618732 -0.086018845 -0.05295538 -0.08495174 -0.12802812 0.017172653 -0.096443675
0.1111515 -0.051843293 -0.12059759 0.0026876868 -0.115234934 0.064218245 -0.09064267 -0.056987792
-0.12452585 -0.06791121 -0.06462174 -0.072919466 -0.08748301 0.0017469354 -0.13463305 0.08476046
-0.022432124 0.007419202 -0.115199104 -0.043531623 -0.036560558 -0.0009568945 0.24814233 0.23033316
-0.034040302 -0.02258357 0.0011370503 -0.046027716 -0.04818684 -0.0211863 0.0002449641 0.02006144
0.26527998 -0.07487794 -0.056006502 -0.108987555 0.11483759 -0.07939088 0.089715876 0.0039856737
-0.06603504 -0.11757804 0.20248728 -0.03756517 0.024266226 -0.12478842 -0.07134124 0.14046425
0.03338878 -0.05051814 0.025376651 -0.11876596 0.009257031 -0.14579964 -0.050164387 0.00045040797
0.10282811 -0.08299757 -0.03297878 -0.010323263 -0.01356448 -0.053550135 -0.0961354 0.017973762
-0.10089045 0.1136325 0.0028417134 0.2668818 -0.13693295 -0.031481937 -0.041926395 -0.09969956
-0.04539454 -0.07536181 0.017594673 0.021432256 -0.13280596 -0.121458314 -0.10096684 -0.010451916
0.0009811317 0.10141931 0.023421831 -0.11700358 0.1126147 -0.04611171 0.005263755 0.044661853
-0.013739564 -0.0434743 -0.09892659 0.10389077 -0.113501675 0.002651858 -0.06196592 -0.012323435
-0.101181634 -0.12587124 0.13712785 -0.07880926 -0.03926499 0.0058775074 0.010677103 0.1833614
-0.092663914 0.026080117 -0.14325827 -0.0067775855 -0.011166455 -0.12906781 0.012154152 -0.031784147
-0.060241833 -0.05699204 -0.032642722 -0.018851532 -0.05081329 -0.055313546 -0.040057603 -0.09209336
-0.08576369 -0.13752383 -0.061377674 0.024331532 -0.0680881 -0.057570282 -0.028060656 0.015735308
0.012264927 -0.047241967 -0.07092463 -0.12539135 0.024622357 -0.0218999 -0.113695465 0.024283372
-0.14054734 0.016191507 -0.039464954 0.1008815 -0.009382921 -0.09981194 -0.050180975 -0.056756448
-0.13335498 0.011877329 0.016947312 -0.12382498 -0.06299417 -0.04155868 -7.4561874e-05 -0.07956228
0.10403407 0.023833103 -0.033552296 -0.022583257 -0.091772795 -0.12587057 -0.07280872 -0.09533283
-0.118814304 0.006279605 -0.07916586 -0.09854024 -0.0076850834 -0.021651702 -0.046750613 -0.07079687
-0.056459103 0.0029323904 0.0020242261 -0.11830084 -0.0035630593 -0.041749794 -0.05319096 -0.02662933
-0.012980089 -0.06829267 -0.030802079 0.10321463 -0.005605077 -0.078985095 -0.043071352 -0.035401236
-0.071699075 -0.12921068 0.004070155 -0.03121123 -0.093941845 -0.06303658 -0.1396082 -0.14477369
0.026023725 -0.1305288 -0.12463209 0.024146412 -0.12351145 -0.007095203 -0.12324088 -0.06280313
-0.13865745 -0.039004873 -0.06011483 -0.08918998 -0.120946355 -0.110341795 -0.028431775 -0.058368392
-0.106631964 -0.0075285514 -0.0229496 -0.07330977 -0.121505834 -0.05736767 -0.14094146 -0.12659752
-0.13815607 -0.04438489 -0.056159146 -0.090239145 -0.062113956 -0.025732115 -0.11827999 -0.05697112
-0.13140418 -0.1405443 -0.07182688 -0.14194635 -0.07903769 -0.010519592 -0.037893433 -0.016510215
00000000: 87bd 0c3d ec89 bf3c ef9d 953d ed94 483c
00000010: 680b e9bc 9dcc d83c 9824 f33b 71df 0fbe
00000020: 6961 493d 0160 ddbb c021 c7bc 09dc 72ba
00000030: 83b1 d9bd e16a 81bd b79c 90bc 33f5 eebb
00000040: c00b 09be 0224 88bc a62a b0bd bee7 58bd
00000050: 2efb adbd ce19 03be aaad 8c3c 4384 c5bd
00000060: 66a3 e33d a259 54bd dffb f6bd e723 303b
00000070: 4b00 ecbd db84 833d dda2 b9bd 086c 69bd
00000080: 6907 ffbd 0815 8bbd 6758 84bd cd56 95bd
00000090: 4b2a b3bd 6df9 e43a 3fdd 09be e496 ad3d
000000a0: 93c3 b7bc c71c f33b 82ed ebbd 374e 32bd
000000b0: 86c0 15bd 1ad8 7aba 0619 7e3e 75dc 6b3e
000000c0: d86d 0bbd 2e01 b9bc 1409 953a 8f87 3cbd
000000d0: 905f 45bd e48e adbc 866e 8039 e457 a43c
000000e0: c7d2 873e 9b59 99bd 1367 65bd de34 dfbd
000000f0: f82f eb3d b097 a2bd f5bc b73d 419a 823b
00000100: 613d 87bd c1cc f0bd d358 4f3e f0dd 19bd
00000110: f7c9 c63c 1291 ffbd 5b1b 92bd dcd5 0f3e
00000120: acc2 083d 1cec 4ebd b2e2 cf3c 913b f3bd
00000130: cdaa 173c 804c 15be 2c79 4dbd bc24 ec39
00000140: 8b97 d23d a1fa a9bd c214 07bd e722 29bc
00000150: 8d3d 5ebc 6357 5bbd a3e2 c4bd b63d 933c
00000160: a79f cebd 28b8 e83d 0a3c 3a3b bba4 883e
00000170: 2738 0cbe 34f3 00bd 03bb 2bbd 482f ccbd
00000180: a0ef 39bd 4b57 9abd b422 903c b392 af3c
00000190: 49fe 07be 23bf f8bd b4c7 cebd 833e 2bbc
000001a0: 5199 803a edb4 cf3d 24df bf3c 939f efbd
000001b0: 89a2 e63d a2df 3cbd 947b ac3b 59ef 363d
000001c0: e91b 61bc 1c12 32bd 069a cabd afc4 d43d
000001d0: 9173 e8bd cbca 2d3b facf 7dbd 3ce8 49bc
000001e0: 5138 cfbd 64e4 00be 3e6b 0c3e c066 a1bd
000001f0: 53d4 20bd 1b98 c03b 04ef 2e3c 17c3 3b3e
00000200: 94c6 bdbd f8a5 d53c 4cb2 12be 8216 debb
00000210: 82f3 36bc 5a2a 04be 3522 473c 1830 02bd
00000220: 24c0 76bd 7c70 69bd 60b4 05bd 876e 9abc
00000230: 9921 50bd 7590 62bd 7113 24bd 729b bcbd
00000240: e0a4 afbd 0cd3 0cbe 2867 7bbd ec52 c73c
00000250: c671 8bbd d1ce 6bbd 76df e5bc 55e7 803c
00000260: d5f2 483c cb80 41bd ef40 91bd 9766 00be
00000270: d3b4 c93c 6b67 b3bc 2bd9 e8bd eced c63c
00000280: a4eb 0fbe 0da4 843c 01a6 21bd f69a ce3d
00000290: d3ba 19bc 346a ccbd 918a 4dbd 7379 68bd
000002a0: 358e 08be 2199 423c 17d5 8a3c f397 fdbd
000002b0: 1603 81bd 6f39 2abd 1a5e 9cb8 8cf1 a2bd
000002c0: d10f d53d a43d c33c 226e 09bd 8600 b9bc
000002d0: 60f3 bbbd 37e4 00be bd1c 95bd dc3d c3bd
000002e0: ea54 f3bd 25c5 cd3b b621 a2bd 77cf c9bd
000002f0: 27d3 fbbb e95e b1bc 927d 3fbd f3fd 90bd
00000300: a941 67bd 592d 403b e1a8 043b b647 f2bd
00000310: 3782 69bb d501 2bbd c4de 59bd c125 dabc
00000320: 70aa 54bc 07dd 8bbd a454 fcbc 3162 d33d
00000330: cbaa b7bb f0c2 a1bd 966b 30bd e300 11bd
00000340: f7d6 92bd ce4f 04be ef5e 853b b2ae ffbc
00000350: 9564 c0bd 5319 81bd 74f5 0ebe 8e3f 14be
00000360: b52f d53c 57a9 05be 1c3f ffbd b2ce c53c
00000370: 92f3 fcbd e07e e8bb b765 fcbd ed9e 80bd
00000380: 38fc 0dbe 93c3 1fbd f83a 76bd 3ca9 b6bd
00000390: b9b2 f7bd e1fa e1bd c1e9 e8bc b213 6fbd
000003a0: dc61 dabd 11b2 f6bb cd00 bcbc 6f23 96bd
000003b0: 0dd8 f8bd 5dfa 6abd f552 10be c8a2 01be
000003c0: c978 0dbe eecc 35bd 2207 66bd 4dcf b8bd
000003d0: 346b 7ebd 28cc d2bc c83c f2bd 8d5a 69bd
000003e0: d18e 06be d8ea 0fbe f919 93bd 625a 11be
000003f0: 83de a1bd 5e5a 2cbc 2536 1bbd 6e40 87bc

bias f4 [128]
-0.011917335 -0.12263233 -0.1200061 -0.083517976 -0.07030421 -0.035023127 -0.10937924 -0.0708734
-0.073373675 -0.0073273666 -0.13311107 0.03158936 0.01654983 0.055524986 -0.03823247 0.090541795
-0.09781157 -0.019811057 -0.00727897 -0.17021501 0.011248465 -0.05630819 -0.13933612 -0.14813368
-0.10707508 -0.12528317 0.17062427 -0.00046344244 -0.11451164 0.16095461 -0.0094950795 -0.014568288
-0.033281993 -0.026661241 0.24989508 -0.017005349 -0.0045027137 -0.11106289 0.0006870868 0.051773973
-0.05927561 -0.06904057 -0.019064186 -0.028604323 -0.054268174 -0.04747107 0.1382446 0.032003954
-0.11957016 0.085023865 -0.04503188 -0.009853423 -0.01996859 0.0074241916 0.13089907 -0.146269
-0.10946688 -0.018164754 0.023807494 -0.036076307 -0.14658052 0.021578299 -0.04502375 -0.021173876
-0.09482244 -0.016333023 0.11765848 -0.09758779 -0.09985373 -0.026725078 -0.083470486 -0.048074216
-0.12210795 -0.08392533 -0.14747122 -0.097377725 0.007704356 0.2483489 0.08805586 -0.102924556
-0.09679056 0.15506963 -0.12272809 -0.10326833 -0.033384472 0.354587 0.013402202 -0.13179332
-0.09244813 -0.02387615 -0.03170856 -0.0108760325 0.08517686 -0.2044484 -0.11759661 -0.10389044
-0.004788556 -0.066448614 -0.14124727 -0.010391766 -0.12824218 0.044441685 -0.059911992 -0.031777333
-0.102277786 -0.0038339219 -0.13073009 -0.07124703 -0.023008415 -0.012734801 0.07554554 -0.11568566
-0.13169451 -0.14526382 0.029414726 0.0063585434 0.014259904 0.08896985 0.024101876 -0.06751194
-0.14312738 0.07744525 -0.029758709 0.015434415 -0.11101347 -0.004844667 -0.0074941907 -0.031922176
00000000: ed40 43bc a926 fbbd c2c5 f5bd 790b abbd
00000010: a7fb 8fbd 6974 0fbd 3902 e0bd 1326 91bd
00000020: f044 96bd 681a f0bb 454e 08be d863 013d
00000030: 8293 873c 2b6e 633d a799 1cbd fa6d b93d
00000040: 6f51 c8bd cc4a a2bc 6d84 eebb d84c 2ebe
00000050: 7b4b 383c 6ba3 66bd 21ae 0ebe 5bb0 17be
00000060: 2e4a dbbd 3b4a 00be 21b8 2e3e 31fa f2b9
00000070: 1485 eabd 49d1 243e 4091 1bbc d4af 6ebc
00000080: b352 08bd ad68 dabc 7fe4 7f3e cd4e 8bbc
00000090: 808b 93bb f174 e3bd 9d1d 343a f210 543d
000000a0: fbca 72bd 2465 8dbd 7f2c 9cbc 9d53 eabc
000000b0: 4e48 5ebd 0671 42bd fe8f 0d3e 9416 033d
000000c0: 33e1 f4bd fe20 ae3d 5973 38bd 4070 21bc
000000d0: 2b95 a3bc a246 f33b 680a 063e 8ac7 15be
000000e0: 2c30 e0bd 40ce 94bc ef07 c33c c0c4 13bd
000000f0: 3419 16be f9c4 b03c d36a 38bd d674 adbc
00000100: 4432 c2bd d5cc 85bc eef6 f03d 1bdc c7bd
00000110: 1d80 ccbd 8dee dabc 93f2 aabd 78e9 44bd
00000120: bc13 fabd 0be1 abbd b202 17be f96d c7bd
00000130: d374 fc3b 2d4f 7e3e a156 b43d 1cca d2bd
00000140: 213a c6bd 93ca 1e3e dd58 fbbd 597e d3bd
00000150: 28be 08bd 6d8c b53e e994 5b3c d4f4 06be
00000160: 7255 bdbd ea97 c3bc d6e0 01bd 6331 32bc
00000170: 3571 ae3d ec5a 51be 7ed6 f0bd 83c4 d4bd
00000180: 52e9 9cbb 3616 88bd 20a3 10be 3a42 2abc
00000190: eb51 03be 7c08 363d 4766 75bd f328 02bd
000001a0: 0477 d1bd 8942 7bbb 1cde 05be f6e9 91bd
000001b0: 257c bcbc a0a5 50bc 9fb7 9a3d 9aec ecbd
000001c0: edda 06be 0ac0 14be 27f7 f03c 545b d03b
000001d0: 5fa2 693c d335 b63d 4c71 c53c b343 8abd
000001e0: fc8f 12be 9d9b 9e3d 89c8 f3bc a1e0 7c3c
000001f0: 085b e3bd 03c0 9ebb d491 f5bb d4c0 02bd

weight f4 [128, 128]
0.11268657 -0.09937338 0.055919588 -0.0047853217 0.16581699 0.10319403 -0.009231118 0.019497974
0.008470516 0.27471548 -0.08571639 0.013286469 -0.07728998 0.15348007 0.2418068 0.31440288
0.0498834 0.22451855 0.035178162 -0.062314466 0.010142953 -0.03177456 0.11598134 0.092828825
0.023564339 -0.015645007 -0.10292686 -0.14747192 0.12879148 0.013632107 0.0858925 -0.06407291
-0.11854628 0.02696946 -0.13393772 0.07297136 -0.03858645 -0.13126227 -0.006373451 0.12969865
-0.009145722 -0.029411595 0.020884404 0.014963102 0.1657326 0.058670707 -0.008325856 0.21681388
0.03936843 0.03213786 0.006410763 0.06352992 0.06164082 -0.008781502 0.13648675 -0.060000733
-0.29224646 -0.019126853 0.021280594 0.09929449 0.15167274 -0.20068268 0.21227863 0.20264016
-0.0038578666 -0.019538589 0.22431779 -0.13245162 0.07011442 0.027291285 -0.0068536494 0.0066718278
0.24079838 0.10200511 0.0322781 -0.031831432 0.057053927 -0.039561722 -0.057876132 0.32586175
0.08034377 0.084713854 0.121706106 -0.105634764 0.00612573 0.105289266 0.06299675 -0.006637133
0.11414884 -0.22840525 -0.039482836 0.24919102 -0.065713584 -0.03845017 0.1310211 0.13290355
-0.004618046 0.05785972 0.1364647 -0.022420458 -0.007231816 -0.02879999 0.10082792 0.07588337
-0.011272824 -0.037763786 0.34374547 0.040412515 0.45007148 0.14484383 0.0053012636 0.11119355
0.145052 -0.07554521 0.008034993 0.07076907 0.08300705 -0.111539215 -0.085058264 -0.0046596774
-0.09203711 0.1316887 0.06428223 0.3138827 -0.000847446 -0.017891306 0.022403432 0.11702721
-0.0149184475 -0.028079782 -0.045798186 -0.102262534 -0.13263467 -0.039243642 0.047779493 -0.07012918
-0.023113677 -0.07046314 -0.100926176 -0.13183357 -0.027044464 -0.12216936 -0.060759496 -0.11874585
-0.03150942 -0.06352025 -0.0626433 -0.14679655 -0.070305526 -0.076234326 0.0077962554 -0.14374751
-0.07695911 -0.016478492 -0.00489712 -0.114895836 -0.046034455 -0.00047655904 -0.0007025274 -0.13307504
-0.09568458 -0.11596308 -0.02827367 0.016840212 -0.018582666 -0.05405677 -0.06451488 -0.058422834
-0.056049913 0.017919112 -0.066715054 -0.14813012 -0.11503655 -0.05603534 -0.147832 0.068739496
0.07297874 0.08591109 0.019928448 -0.09607569 -0.080268435 -0.011471847 -0.053327467 -0.045530513
-0.13416412 -0.122326955 -0.07603319 -0.01172386 -0.08801255 -0.06780627 0.067961656 -0.061212733
0.07226657 -0.008423323 -0.14106967 0.024292396 -0.12588838 -0.0073919366 -0.028427009 0.014759876
-0.085935265 -0.074333824 0.018297913 0.124406114 -0.12459194 -0.12214537 0.0069952477 -0.052160967
-0.05263563 -0.05924072 -0.115386866 0.014026672 -0.07199236 -0.14838669 -0.12523067 -0.13107239
-0.017195372 -0.017660052 -0.07058574 -0.10237412 -0.12414139 -0.0204083 -0.018822854 0.12734993
-0.048227176 -0.13804902 0.011945404 -0.14516222 0.015628064 -0.04452734 -0.114952 -0.11707324
0.01003781 -0.0062683565 -0.00924665 0.011514654 -0.0016169037 -0.13710879 -0.018807065 -0.02199053
-0.07254538 -0.135993 -0.07528167 0.014800949 -0.029820167 -0.1277724 -0.12336204 -0.12543136
-0.13122192 -0.12972988 -0.05674251 -0.06870015 -0.04113198 -0.12240429 -0.06270422 0.024445081
00000000: 37c8 e63d 4584 cbbd f00b 653d 30ce 9cbb
00000010: eecb 293e 6457 d33d 1d3e 17bc 37ba 9f3c
00000020: ebc7 0a3c 82a7 8c3e 138c afbd 7daf 593c
00000030: 364a 9ebd e129 1d3e 349c 773e 6af9 a03e
00000040: 8952 4c3d 31e8 653e fa16 103d 743d 7fbd
00000050: a12e 263c 0b26 02bd a087 ed3d 0a1d be3d
00000060: 000a c13c f529 80bc 51cb d2bd e102 17be
00000070: eae1 033e 3359 5f3c 68e8 af3d a838 83bd
00000080: 64c8 f2bd 0fef dc3c f826 09be 0272 953d
00000090: d30c 1ebd 9e69 06be 62d8 d0bb b9cf 043e
000000a0: f0d7 15bc 96f0 f0bc c515 ab3c cc27 753c
000000b0: cfb5 293e b250 703d 2c69 08bc 7504 5e3e
000000c0: ca40 213d fda2 033d 6111 d23b fa1b 823d
000000d0: 167b 7c3d 4ae0 0fbc 2fc3 0b3e 54c3 75bd
000000e0: 54a1 95be ebaf 9cbc a454 ae3c e95a cb3d
000000f0: 1950 1b3e c37f 4dbe 925f 593e e780 4f3e
00000100: 43d4 7cbb 640f a0bc 90b3 653e 66a1 07be
00000110: 2698 8f3d f991 df3c 9494 e0bb 599f da3b
00000120: da93 763e 0ee8 d03d 0a36 043d ad61 02bd
00000130: 61b1 693d 790b 22bd 860f 6dbd 5ad7 a63e
00000140: 468b a43d 757e ad3d 0d41 f93d 0a57 d8bd
00000150: 59ba c83b e6a1 d73d 7104 813d 4f7c d9bb
00000160: dec6 e93d 11e3 69be c1b8 21bd ee2b 7f3e
00000170: d894 86bd ed7d 1dbd 652a 063e de17 083e
00000180: fa52 97bb 50fe 6c3d 67bd 0b3e 1cab b7bc
00000190: dff8 ecbb f5ed ebbc de7e ce3d be68 9b3d
000001a0: a7b1 38bc 33ae 1abd 68ff af3e 9887 253d
000001b0: c56f e63e f151 143e 39b6 ad3b 72b9 e33d
000001c0: 8388 143e 72b7 9abd 34a5 033c 60ef 903d
000001d0: 9aff a93d ac6e e4bd 0733 aebd 35b0 98bb
000001e0: f47d bcbd 67d9 063e 67a6 833d 3cb5 a03e
000001f0: 2327 5eba ca90 92bc 6787 b73c f6ab ef3d
00000200: 816c 74bc 9207 e6bc e196 3bbd 056f d1bd
00000210: 62d1 07be f1bd 20bd 6eb4 433d e39f 8fbd
00000220: e558 bdbc fb4e 90bd 62b2 cebd 61ff 06be
00000230: 5a8c ddbc ee33 fabd f3de 78bd 0631 f3bd
00000240: 0610 01bd e816 82bd 214b 80bd d651 16be
00000250: 58fc 8fbd be20 9cbd bb77 ff3b 8c32 13be
00000260: bd9c 9dbd e7fd 86bc 0578 a0bb 824e ebbd
00000270: a08e 3cbd acda f9b9 d129 38ba d344 08be
00000280: 47f6 c3bd 0d7e edbd 2f9e e7bc 7cf4 893c
00000290: ad3a 98bc a26a 5dbd 6120 84bd c84c 6fbd
000002a0: 9894 65bd 1acb 923c e7a1 88bd 6caf 17be
000002b0: 4898 ebbd 5085 65bd 4661 17be 4bc7 8c3d
000002c0: e175 953d 27f2 af3d fc40 a33c 55c3 c4bd
000002d0: c763 a4bd 6af4 3bbc e76d 5abd 347e 3abd
000002e0: 5262 09be 8e86 fabd 4ab7 9bbd 6f15 40bc
000002f0: ec3f b4bd 04de 8abd 7b2f 8b3d 34ba 7abd
00000300: 7f00 943d fa01 0abc 9174 10be d900 c73c
00000310: e2e8 00be 0f38 f2bb c2df e8bc 68d3 713c
00000320: d4fe afbd 553c 98bd 81e5 953c a2c8 fe3d
00000330: 0f2a ffbd 5a27 fabd 6438 e53b bda6 55bd
00000340: 7598 57bd 66a6 72bd f34f ecbd 20d0 653c
00000350: bb70 93bd aef2 17be 783c 00be d737 06be
00000360: 4fdd 8cbc d0ab 90bc 428f 90bd 86a9 d1bd
00000370: d73d febd 4f2f a7bc 6332 9abc 0568 023e
00000380: dc89 45bd b95c 0dbe a8b6 433c 68a5 14be
00000390: 6d06 803c 4d62 36bd f46b ebbd 18c4 efbd
000003a0: a075 243c c966 cdbb 437f 17bc f6a7 3c3c
000003b0: 49ee d3ba 3f66 0cbe 4611 9abc 7c25 b4bc
000003c0: ac92 94bd c041 0bbe 472d 9abd ae7f 723c
000003d0: 6c49 f4bc c5d6 02be 3da5 fcbd 1471 00be
000003e0: 0a5f 06be e9d7 04be d66a 68bd aab2 8cbd
000003f0: 027a 28bd 1aaf fabd 126b 80bd 0d41 c83c
