code/GraphSAGE_BPR/GraphSAGE_3.pth (torch, 147767 bytes, 9 tensors)

weight f4 [128, 5]
0	0xbf0a3a00	-0.5399475
1	0xbe6bf8b5	-0.23044093
2	0xbf21bee2	-0.6318189
3	0x3e787d4a	0.24266544
4	0xbe76060d	-0.24025746
5	0x3d806ee2	0.06271149
6	0xbe187aeb	-0.1489064
7	0x3cb3475b	0.02188461
8	0xbf039dc9	-0.51412636
9	0xbe151c56	-0.1456159
10	0xbeed5924	-0.4635707
11	0xbee70bd0	-0.451262
12	0xbded11c4	-0.11575654
13	0xbe8229f6	-0.2542264
14	0xbe7cf37b	-0.24702255
15	0x3e7b3061	0.24530174
16	0x3dae3d3e	0.08507775
17	0xbe5b84a3	-0.21437316
18	0xbe81d61e	-0.2535867
19	0x3e278d86	0.1636258
20	0x3f11c706	0.5694431
21	0xbea02b62	-0.31283098
22	0x3e2b02a5	0.16700228
23	0xbeec9db5	-0.4621407
24	0xbc9033ca	-0.01760282
25	0xbe2d8257	-0.16944252
26	0x3e1b831b	0.15186732
27	0xbe51554e	-0.20442697
28	0x3eae8a37	0.34089825
29	0xbeafb2a8	-0.3431599
30	0xbef36807	-0.47540304
31	0x3e99114e	0.29896015
32	0x3e366234	0.17810899
33	0x3e8245ca	0.2544387
34	0x3cec68d5	0.028858582
35	0xbe746895	-0.2386802
36	0x3ea54805	0.3228151
37	0xbdd12ae4	-0.10213259
38	0xbe3bbfd0	-0.1833489
39	0xbcea42b6	-0.028596263
40	0xbd991fa5	-0.07476739
41	0xbe82b42b	-0.25528082
42	0x3ea4df52	0.3220163
43	0x3d2e41d5	0.04254325
44	0xbf02ef8f	-0.5114679
45	0xbe5fc4b9	-0.21852387
46	0xbeabb375	-0.33535352
47	0x3d894ec0	0.067044735
48	0xbe8275d4	-0.2548052
49	0xbea3d97e	-0.3200187
50	0xbd2686e4	-0.040655985
51	0xbd1ca193	-0.038240027
52	0x3ee858e9	0.45380333
53	0x3e764ce6	0.24052772
54	0x3dbca218	0.092106044
55	0x3ed080a6	0.4072315
56	0x3e2d61c8	0.16931832
57	0xbe4fa285	-0.2027684
58	0x3e3958aa	0.18100229
59	0x3e13ed72	0.14446047
60	0xb8cb8243	-9.7040574e-05
61	0x3f0c5d08	0.54829454
62	0x3ee0064f	0.43754813
63	0xbd43b0db	-0.047776084
64	0xbe72e078	-0.2371844
65	0xbe821b91	-0.25411656
66	0x3d469078	0.04847762
67	0xbebe415e	-0.37159246
68	0xbeab185d	-0.33417025
69	0x3e442e08	0.19158185
70	0xbd939e6b	-0.0720795
71	0xbe2f0238	-0.1709069
72	0xbe67ad93	-0.22624807
73	0xbdca06e2	-0.09864594
74	0xbe6b0a1d	-0.22953077
75	0x3e216086	0.15759477
76	0x3d98eaa9	0.07466633
77	0xbe542cfd	-0.20720287
78	0xbece52de	-0.40297598
79	0xbcef40be	-0.029205676
80	0xbe9d0f34	-0.30675662
81	0x3e1038fd	0.1408424
82	0xbf00acdc	-0.5026376
83	0x3ee1e766	0.44121855
84	0xbda8d676	-0.0824403
85	0xbeea7aec	-0.45796907
86	0xbeb42260	-0.35182476
87	0x3ebdaf61	0.37047866
88	0xbdd71bf7	-0.10503381
89	0x3e74f6e8	0.23922312
90	0xbc796e80	-0.015224099
91	0x3ecf16c1	0.40447047
92	0xbe4f779f	-0.20260476
93	0xbd89c4f6	-0.067270204
94	0x3d9277ce	0.07151757
95	0x3d55fe8a	0.0522447
96	0xbf2cfa51	-0.6756945
97	0xbe62a831	-0.22134472
98	0xbea15000	-0.31506348
99	0xbe2475e6	-0.160606
100	0x3e421771	0.18954255
101	0x3d8f199a	0.06987305
102	0x3e1b524a	0.1516811
103	0xbea59520	-0.32340336
104	0xbe947cc1	-0.2900143
105	0xbe2af8bd	-0.16696449
106	0xbe2e2344	-0.1700564
107	0x3e8c4ad3	0.27400836
108	0xbed2de5e	-0.41185278
109	0x3e8f2140	0.27955055
110	0xbcf02300	-0.029313564
111	0x3e7bf4c4	0.2460509
112	0xbeb873ee	-0.36025947
113	0xbe06b05e	-0.13153216
114	0xbd2b3850	-0.04180175
115	0xbf0f96b1	-0.5608931
116	0x3deb8713	0.11500373
117	0x3d8f1720	0.069868326
118	0xbe49c95d	-0.1970572
119	0xbe1fa62c	-0.15590733
120	0x3ed51b36	0.41622323
121	0x3d9fe680	0.07807636
122	0xbedb63e1	-0.4284964
123	0xbead1216	-0.3380286
124	0xbee24a7a	-0.44197446
125	0x3e738717	0.23782001
126	0xbea91658	-0.3302486
127	0xbd89baaf	-0.0672506
128	0xbe2d8ffc	-0.16949457
129	0x3d25fed1	0.040526215
130	0xbea1e9f5	-0.31623808
131	0xbe7d3b3c	-0.24729627
132	0x3e201baf	0.1563556
133	0x3e6cb062	0.2311416
134	0xbf0486de	-0.5176829
135	0x3c9fcebf	0.019507764
136	0xbd36ee73	-0.044660997
137	0x3e8b8ef3	0.272575
138	0x3dd379ed	0.1032599
139	0x3e309ac2	0.17246535
140	0x3d4821cf	0.048860367
141	0xbe0a9f75	-0.1353739
142	0xbd918fa4	-0.071074754
143	0xbecac448	-0.39602876
144	0x3e9690fb	0.29407486
145	0x3e8791ac	0.26478326
146	0xbf4fe740	-0.81212234
147	0xbe103aef	-0.14084981
148	0xbe93d3c4	-0.28872502
149	0xbd186dd4	-0.037214115
150	0xbdcd99ba	-0.10039087
151	0x3d212465	0.03934135
152	0xbec03ab5	-0.3754479
153	0xbe8e78be	-0.27826494
154	0x3dc3037c	0.09522149
155	0xbee17e6a	-0.4404176
156	0x3ebde245	0.37086692
157	0x3d860807	0.065445
158	0xbe13f485	-0.14448746
159	0xbf0f351c	-0.55940413
160	0xbd3ab7bc	-0.04558538
161	0xbdd1d3a3	-0.102454446
162	0x3f15ec88	0.58564043
163	0x3de3f10b	0.1112996
164	0xbdd3744f	-0.103249185
165	0x3cdbd1fe	0.02683353
166	0xbf2d760a	-0.6775824
167	0xbf1846e4	-0.5948317
168	0xbe59789d	-0.21237417
169	0x3cde111d	0.02710777
170	0xbee507c0	-0.44732475
171	0xbf0bb2a6	-0.5456947
172	0xbe6eccbc	-0.23320287
173	0xbdc36a69	-0.095417805
174	0x3e8fc5f0	0.28080702
175	0xbecd1ff7	-0.4006345
176	0xbef6b228	-0.48182797
177	0x3df70fdb	0.12063571
178	0x3ebc9bf9	0.36837748
179	0x3e07335d	0.13203187
180	0xbd448ee0	-0.04798782
181	0xbd41d050	-0.047317803
182	0x3d5222eb	0.05130283
183	0x3e0d683b	0.13809292
184	0x3e902cc8	0.28159165
185	0xbd83484e	-0.064102754
186	0xbde12981	-0.10994244
187	0xbef9d1cd	-0.48792878
188	0xbee7723a	-0.45204335
189	0x3e42edfb	0.19036095
190	0xbe74c825	-0.23904474
191	0xbec9fb4d	-0.3944954
192	0xbe02472e	-0.12722465
193	0x3c72fc84	0.014830712
194	0x3e51ea10	0.20499444
195	0xbdc8f7d8	-0.098128974
196	0xbe7d9b25	-0.24766214
197	0xbeb39799	-0.35076597
198	0x3ea87066	0.32898253
199	0xbec7f663	-0.39055166
200	0xbcd87184	-0.026421316
201	0xbdbfaddc	-0.09359333
202	0xbeb58f40	-0.35460854
203	0xbed8c025	-0.42334095
204	0x3df97f02	0.12182428
205	0xbd5353d7	-0.051593628
206	0xbeba8a96	-0.36433858
207	0xbe8e916a	-0.27845317
208	0x3d5aa7f0	0.053382814
209	0x3e1f72fa	0.15571204
210	0xbebaca38	-0.36482406
211	0xbe913aa9	-0.28365067
212	0xbf1f3a3d	-0.6219824
213	0x3dd7d045	0.10537771
214	0xbda0f510	-0.07859242
215	0x3daf8c3a	0.08571668
216	0xbe6a9433	-0.22908096
217	0xbb113129	-0.0022154546
218	0x3dcbca2f	0.09950673
219	0xbe278b79	-0.16361798
220	0xbd36c10b	-0.044617694
221	0xbe144239	-0.14478387
222	0x3e0f04bf	0.13966654
223	0x3e21de57	0.15807472
224	0xbe51d05b	-0.20489638
225	0xbefeb9d4	-0.4975115
226	0xbde2d0ff	-0.11075019
227	0xbd4a3e4c	-0.049375817
228	0x3e71bec3	0.23607926
229	0xbec5b26f	-0.38612697
230	0x3e975cee	0.29563087
231	0xbe43c427	-0.19117795
232	0x3f153977	0.5829081
233	0x3e95b5d5	0.2924029
234	0x3e3e65a5	0.18593462
235	0xbe63f1a5	-0.22260149
236	0xbea9b160	-0.3314314
237	0x3e664d69	0.22490467
238	0xbd7c3927	-0.061577942
239	0x3e6ad654	0.22933322
240	0x3e3a4311	0.18189646
241	0xbdd55173	-0.10415926
242	0x3e689efe	0.227169
243	0x3ec9e308	0.39431024
244	0xbe4c7b74	-0.19968969
245	0xbe1e0fb8	-0.15435684
246	0x3e09ded4	0.13463908
247	0x3dc713b8	0.09720558
248	0x3d7ccf90	0.061721385
249	0xbeac088e	-0.33600277
250	0xbe215933	-0.15756683
251	0x3e9c7c71	0.3056369
252	0xbe6e540e	-0.23274252
253	0xbe8aaa9f	-0.270833
254	0x3ea135c1	0.31486323
255	0x3e5b08b8	0.21390045

bias f4 [128]
0	0x3bbaf737	0.00570574
1	0x3eeb6a41	0.45979503
2	0x3eb78054	0.35840094
3	0xbeb28297	-0.34865257
4	0xbe7473b2	-0.2387226
5	0xbed960f6	-0.42456788
6	0xbd700e41	-0.058607344
7	0xbecc344c	-0.3988365
8	0x3eb7b995	0.35883775
9	0x3da66d98	0.08126372
10	0x3ec7e1fb	0.39039597
11	0xbea00982	-0.31257254
12	0x3e8a3956	0.2699687
13	0xbee0fc36	-0.43942422
14	0xbf0cfba6	-0.55071485
15	0xbee5bf75	-0.44872633
16	0x3f0f14be	0.55891025
17	0xbe3034fa	-0.17207709
18	0x3e511e24	0.20421654
19	0x3e8098cb	0.25116572
20	0x3e76f8d0	0.24118352
21	0x3dbed4e0	0.093179464
22	0xbeb6db8f	-0.35714385
23	0xbe050f45	-0.12994106
24	0x3dfa7800	0.122299194
25	0x3ea0b98a	0.31391555
26	0xbe14f6e2	-0.14547303
27	0x3ecfbe97	0.40575096
28	0x3e378f3a	0.1792573
29	0x3e3555e6	0.17708549
30	0x3d90f7d6	0.07078521
31	0x3d9f21f6	0.077701494
32	0x3ef8039a	0.48440248
33	0x3d646e30	0.055769145
34	0x3e8a0447	0.26956388
35	0xbe9b6cf6	-0.30356568
36	0x3f0fdfee	0.56201065
37	0x3e88c637	0.26713726
38	0xbe4e6937	-0.20157324
39	0xbd26c6b0	-0.040716827
40	0xbd7829d7	-0.060586777
41	0xbf1f58aa	-0.62244666
42	0xbde95267	-0.1139267
43	0x3e801591	0.25016454
44	0xbe22f8ed	-0.1591527
45	0x3eaaa1dc	0.33326614
46	0x3e110871	0.14163376
47	0xbe9d98b2	-0.3078056
48	0xbd01e35d	-0.03171097
49	0xbea0cdee	-0.31407112
50	0xbd817007	-0.06320196
51	0x3ec4a5c0	0.38407707
52	0xbe0d21c9	-0.1378242
53	0xbee14799	-0.43999937
54	0x3da51fe5	0.08062724
55	0x3e6e0597	0.2324432
56	0x3ea48549	0.32132939
57	0xbdcf810f	-0.10132038
58	0xbdd181dd	-0.102298476
59	0xbe36bf31	-0.17846371
60	0xbe35dded	-0.17760439
61	0xbde31784	-0.110884696
62	0xbefbe525	-0.4919826
63	0x3e3a0b52	0.18168381
64	0xbec6a3a5	-0.38796726
65	0xbf01ed6a	-0.5075289
66	0x3e8b5ae5	0.27217785
67	0xbdbacd1e	-0.09121154
68	0x3ea7fc0f	0.32809493
69	0xbebab069	-0.36462715
70	0x3e2c6333	0.16834716
71	0x3efed33c	0.49770534
72	0xbeeeda11	-0.46650746
73	0x3ec35629	0.38151672
74	0xbd8d4428	-0.068977654
75	0xbc80db62	-0.01572961
76	0x3e3ea9ad	0.18619414
77	0xbdd64582	-0.10462476
78	0xbd104922	-0.035225995
79	0x3e691e1e	0.22765395
80	0xbebc6ed3	-0.36803302
81	0xbe97849c	-0.2959336
82	0xbed7c847	-0.42144987
83	0xbe100398	-0.14063871
84	0x3f273358	0.6531272
85	0x3d273de0	0.040830493
86	0x3f084131	0.53224474
87	0x3dc37ce3	0.095453046
88	0x3dd7223b	0.10504576
89	0x3e7fe90e	0.24991247
90	0x3d810e87	0.06301599
91	0xbdfc7571	-0.12327088
92	0xbdeac340	-0.11463022
93	0x3e63a437	0.22230612
94	0xbe0dade6	-0.13835868
95	0xbcf83be7	-0.030302001
96	0xbe875a6f	-0.26436183
97	0x3e838554	0.2568766
98	0x3eb64385	0.35598388
99	0xbf196915	-0.5992597
100	0x3e3420d6	0.17590651
101	0xbe50ce24	-0.20391136
102	0xbdb95e2e	-0.090511665
103	0xbe889800	-0.26678467
104	0xbecc8ef4	-0.39952815
105	0xbe6adc6f	-0.22935651
106	0x3e395064	0.18097073
107	0xbe7ac7ea	-0.24490324
108	0xbe2f4650	-0.17116666
109	0xbebad08c	-0.36487234
110	0x3ece7929	0.40326813
111	0x3d2f4a68	0.04279557
112	0x3f27dc73	0.65570754
113	0x3e54b4cc	0.20772094
114	0x3d2235d2	0.03960211
115	0xbe27bef5	-0.16381438
116	0xbeb3a94b	-0.35090098
117	0xbe2a4fb2	-0.16631964
118	0xbe587aee	-0.21140644
119	0x3ed7a43f	0.42117497
120	0x3db276b5	0.08714048
121	0xbf08419b	-0.53225106
122	0x3ea714fe	0.32633203
123	0x3e26d036	0.16290364
124	0x3e6b1ba4	0.22959763
125	0x3e5b96d5	0.21444257
126	0xbdebf024	-0.115204126
127	0xbe783daf	-0.2424228

weight f4 [128, 5]
0	0xbebd87b2	-0.3701759
1	0xbe97948e	-0.29605526
2	0x3ef56e9e	0.47935957
3	0xbec863e7	-0.3913872
4	0x3ce4dbb8	0.027936801
5	0xbf2c3021	-0.6726094
6	0x3ec04d87	0.3755915
7	0xbd8e0a9b	-0.069356166
8	0xbe7f39fd	-0.24924465
9	0x3e3a15de	0.18172404
10	0x3f2241bb	0.63381547
11	0xbe72a37b	-0.23695175
12	0xbe5df963	-0.21677165
13	0x3dc620bd	0.09674213
14	0x3c689b5e	0.014197199
15	0xbe94f834	-0.29095614
16	0x3e5c2991	0.21500231
17	0xbef9eae1	-0.4881201
18	0x3e448b02	0.19193652
19	0xbec5af18	-0.38610148
20	0xbeb5dc3e	-0.35519594
21	0x3eaa95dc	0.3331746
22	0x3d949135	0.072542585
23	0xbe417879	-0.18893613
24	0x3ea2d9b7	0.31806728
25	0xbe8d895d	-0.27643862
26	0x3e1e082b	0.15432803
27	0xbe97c83f	-0.29644963
28	0xbeafa287	-0.34303686
29	0x3e0a7bb6	0.13523754
30	0xbf0bc057	-0.5459036
31	0x3ba94dbd	0.005166738
32	0xbe8da8bb	-0.27667794
33	0x3e854f7c	0.26037204
34	0xbf209beb	-0.6273791
35	0x3bf8bcdb	0.0075908727
36	0xbe82107d	-0.25403205
37	0x3e2ed3c7	0.17072974
38	0xbe77a799	-0.24185027
39	0x3e73b8a5	0.23800905
40	0xbf0d626f	-0.5522832
41	0xbe21840d	-0.1577303
42	0xbd300a45	-0.042978544
43	0x3d963bac	0.073356
44	0x3e839612	0.25700432
45	0xbca4b600	-0.020106316
46	0x3dd296d0	0.102826715
47	0xbe3cb3b0	-0.1842792
48	0x3ca716c0	0.02039659
49	0xbed87e94	-0.4228407
50	0x3d4d9556	0.050191246
51	0xbf2b0750	-0.66808033
52	0xbe265fb6	-0.16247448
53	0x3d33275e	0.043738715
54	0xbec0834c	-0.37600172
55	0x3e8d8fe6	0.27648848
56	0x3c483457	0.01221951
57	0xbd1b3f75	-0.037902314
58	0x3eba9b83	0.3644677
59	0xbca71a2f	-0.020398227
60	0x3e21dcb9	0.15806855
61	0x3e8b546d	0.2721285
62	0xbef15364	-0.47133934
63	0xbf0f9187	-0.5608143
64	0xbea181e1	-0.31544402
65	0xbe8976d3	-0.26848468
66	0x3ea0fbfc	0.3144225
67	0xbd919300	-0.07108116
68	0xbe895276	-0.26820725
69	0xbe85376a	-0.2601884
70	0x3e2f17ff	0.17098998
71	0x3f1359fc	0.5755918
72	0x3cf18926	0.029484343
73	0x3f19ac87	0.6002888
74	0x3e835e39	0.25657824
75	0x3ddaed3b	0.10689779
76	0x3ebfd5f7	0.3746793
77	0xbe16c93f	-0.14725207
78	0xbcee1836	-0.029064279
79	0xbedf1263	-0.43568715
80	0xbdcb5a4a	-0.09929331
81	0x3f1f0ce3	0.6212904
82	0xbe810e3b	-0.2520617
83	0xbe2539a4	-0.1613527
84	0xbf22b881	-0.6356278
85	0xbd7ac40a	-0.061222114
86	0xbeb06ed0	-0.34459543
87	0x3ea80b96	0.3282134
88	0x3d18ded4	0.03732188
89	0xbeeaeade	-0.45882314
90	0xbf2d3041	-0.67651755
91	0x3e1a3ab2	0.15061453
92	0xbef2c7d1	-0.47418073
93	0x3ec4c6d9	0.3843296
94	0xbed7c4e1	-0.42142394
95	0xbe0f6cac	-0.14006299
96	0x3eb38e7e	0.3506965
97	0x3e168125	0.14697702
98	0xbf70f8b2	-0.9412948
99	0x3e952245	0.29127708
100	0x3f16dde3	0.5893232
101	0x3ebdc3e3	0.37063512
102	0x3e21f4f8	0.15816104
103	0xbf63a063	-0.88916606
104	0xbb19999a	-0.00234375
105	0xbf0f5271	-0.5598517
106	0xbeae9de7	-0.34104845
107	0x3ea1aabf	0.3157558
108	0xbaeda97b	-0.0018132174
109	0xbe972862	-0.29522997
110	0xbebc1e74	-0.36741984
111	0xbe4ddb7f	-0.20103262
112	0x3ea9a91e	0.3313684
113	0xbe57cb0d	-0.21073551
114	0xbe115fc2	-0.14196685
115	0xbdecb1e0	-0.115573645
116	0x3e750639	0.23928155
117	0x3e9414e1	0.2892218
118	0xbecdd216	-0.40199345
119	0x3e2cf86a	0.16891637
120	0xbdecc5a0	-0.115611315
121	0xbeabe798	-0.3357513
122	0xbed7da52	-0.42158753
123	0x3e9dab46	0.30794734
124	0xbedb9641	-0.42888072
125	0xbf1d455a	-0.6143395
126	0x3bbedb75	0.005824501
127	0x3d80bad0	0.06285632
128	0x3de55e33	0.11199608
129	0xbe5cd31e	-0.2156491
130	0xbbdb7113	-0.006696829
131	0x3e9fb964	0.3119613
132	0xbd951d5c	-0.072809905
133	0xbd969105	-0.07351879
134	0xbeae5b58	-0.34054065
135	0x3e5b1a62	0.21396783
136	0xbdef0698	-0.116711795
137	0xbe040ce8	-0.12895548
138	0xbebace96	-0.36485738
139	0xbefb3e8a	-0.4907115
140	0x3d30362f	0.043020424
141	0xbe8175bd	-0.2528514
142	0xbde332d4	-0.11093679
143	0x3e503165	0.20331343
144	0xbeee6631	-0.4656234
145	0xbe9b37fa	-0.30316144
146	0x3ee79ceb	0.45236906
147	0xbd9aeb95	-0.07564465
148	0xbf262151	-0.64894587
149	0x3e607479	0.21919431
150	0x3dc05367	0.09390908
151	0x3e997f11	0.29979756
152	0xbe0b089f	-0.13577507
153	0xbb418e5b	-0.0029534313
154	0xbec90294	-0.3925978
155	0xbe480d53	-0.19536333
156	0x3dd0895f	0.101824515
157	0xbf1fac70	-0.62372494
158	0x3ea54415	0.32278505
159	0x3dea4243	0.1143842
160	0xbda0f413	-0.078590535
161	0xbedb90e5	-0.42883983
162	0xbd907935	-0.070543684
163	0xbefa94e9	-0.48941734
164	0xbd3296c9	-0.04360083
165	0x3f23a16d	0.6391819
166	0xbf12edb1	-0.5739394
167	0x3d72a63d	0.05924057
168	0xbe3bf53b	-0.18355267
169	0x3eda3ecf	0.42626044
170	0x3e34642d	0.17616339
171	0xbd5c482d	-0.05377977
172	0xbeafba4d	-0.34321824
173	0xbdeec72b	-0.11659082
174	0x3e5aa030	0.21350169
175	0xbe0aa6ca	-0.13540187
176	0xbe1a2b91	-0.15055682
177	0x3d28d73f	0.0412209
178	0x3dd27076	0.102753565
179	0xbef5a074	-0.4797398
180	0xbdd4e608	-0.103954375
181	0xbf00848d	-0.50202256
182	0x3e2de56b	0.16982047
183	0xbeabe6b5	-0.33574453
184	0xbeae83bd	-0.34084883
185	0x3eb08a81	0.3448067
186	0xbe913eb9	-0.28368166
187	0xbe07593b	-0.13217632
188	0xbe8cf344	-0.27529347
189	0xbd4c96d6	-0.049948536
190	0xbebe7fa2	-0.3720675
191	0xbd8f5ba4	-0.06999901
192	0x3e41fdca	0.18944469
193	0xbe3c97a8	-0.18417227
194	0xbe36f693	-0.17867498
195	0xbc238500	-0.00998044
196	0xbda0de10	-0.07854855
197	0xbe902058	-0.28149676
198	0xbdb14cf0	-0.08657253
199	0xbd3f0a10	-0.046640456
200	0xbeaec892	-0.34137398
201	0x3ebf9d8e	0.37424892
202	0x3e11761c	0.14205211
203	0x3cf4ef79	0.029899346
204	0xbe157ddd	-0.14598794
205	0x3e9064c1	0.2820187
206	0x3ee47d13	0.44626674
207	0x3de749bb	0.1129336
208	0x3f300cf6	0.68769777
209	0xbd459ff5	-0.04824825
210	0x3e6ffa16	0.23435244
211	0x3ca0117b	0.019539585
212	0x3f0ff1d9	0.56228405
213	0xbe99d61a	-0.3004616
214	0x3ec474cd	0.38370362
215	0xbdcf5de1	-0.10125328
216	0xbf08a961	-0.5338345
217	0xbef5c6e5	-0.48003307
218	0xbed0317b	-0.4066275
219	0xbe9191a9	-0.28431442
220	0x3eb39291	0.3507276
221	0xbf1487d4	-0.5801976
222	0xbf309d1b	-0.68989724
223	0xbd735d7c	-0.059415326
224	0x3f132971	0.5748511
225	0xbeb9039f	-0.36135575
226	0xbe9d3192	-0.30701882
227	0xbe86e55b	-0.2634686
228	0x3eb21628	0.3478253
229	0xbd0cc287	-0.034365203
230	0x3ec44840	0.38336372
231	0xbe91debc	-0.28490245
232	0xbe469d6f	-0.19395994
233	0xbf5accf0	-0.8546896
234	0xbc5e196b	-0.013555865
235	0x3e544cff	0.20732497
236	0xbeccc61b	-0.39994892
237	0xbd2d6e66	-0.042341612
238	0x3cd0a052	0.025467072
239	0xbeaa31a1	-0.3324099
240	0x3c3d2e0d	0.011546624
241	0xbdffeea2	-0.124966875
242	0xbe7efd2f	-0.2490127
243	0x3dc8cd66	0.09804802
244	0xbe93d782	-0.28875357
245	0x3d2a9458	0.041645378
246	0xbec7b102	-0.39002234
247	0xbde65f74	-0.11248675
248	0x3ed2b1f6	0.41151398
249	0xbeca773f	-0.39544103
250	0xbe432283	-0.19056134
251	0xbedf3cf4	-0.4360119
252	0xbec010cb	-0.37512812
253	0xbb88ebe3	-0.0041785105
254	0x3d8fdd4b	0.0702463
255	0x3e8ab0e3	0.2708808

weight f4 [128, 128]
0	0xbe20631b	-0.15662806
1	0x3cf222a2	0.02955753
2	0xbd465f0a	-0.04843048
3	0x3cf23492	0.029566083
4	0xbccc73ab	-0.024957499
5	0x3cbd7fef	0.023132293
6	0xbcc4b540	-0.024012208
7	0x3dfcc677	0.12342542
8	0xbdf4bea7	-0.119504265
9	0xbcd5c5cc	-0.026095293
10	0xbda0ee25	-0.078579225
11	0x3d990466	0.07471542
12	0xbc5dfd59	-0.013549172
13	0x3d91dfdb	0.07122775
14	0x3d6b7b06	0.05749037
15	0x3cfdf6ae	0.031001415
16	0xbde8454d	-0.11341343
17	0xbdb36656	-0.087597534
18	0x3ce1f15b	0.027580908
19	0xbdd36c0e	-0.10323344
20	0xbcd35b89	-0.025800483
21	0x3e6370a0	0.22210932
22	0xbcef8a5a	-0.029240776
23	0xbb92f613	-0.0044849007
24	0x3cc9c808	0.024631515
25	0xbd0a3a34	-0.033746913
26	0x3e124988	0.14285862
27	0xbd7d1447	-0.061786916
28	0x3c0dd258	0.008656107
29	0x3dd65458	0.10465306
30	0x3d5e1596	0.054219805
31	0xbdf24d24	-0.1183112
32	0x3d395bd2	0.045253582
33	0xbe11ef50	-0.14251447
34	0xbd8597ed	-0.06523118
35	0x3daec9bb	0.08534571
36	0x3c00edd4	0.007869203
37	0xbd86c2ed	-0.06580148
38	0xbb83f956	-0.004027526
39	0xbdb034ec	-0.08603844
40	0x3b897937	0.004195358
41	0x3e687a74	0.22702962
42	0xbda91d09	-0.08257491
43	0xbd358a1b	-0.04432116
44	0xbf1fed24	-0.6247122
45	0xbd0bde4b	-0.034147542
46	0xbca7140d	-0.020395303
47	0xbd94df39	-0.07269139
48	0x3d8c2159	0.06842298
49	0x3b34ee80	0.0027607977
50	0x3d81a166	0.063296124
51	0x3d9be969	0.07612879
52	0xbdde1cfa	-0.108453706
53	0x3ccebeb4	0.025237419
54	0xbed7deb1	-0.42162088
55	0xbd33e2cc	-0.043917462
56	0x39666ce8	0.0002197508
57	0xbdb812fc	-0.08987996
58	0xbda1c3d2	-0.07898678
59	0x3d914aba	0.07094331
60	0xbe114c02	-0.14189151
61	0x3cad77f1	0.021175357
62	0xbebcca7d	-0.36873236
63	0xbd80a848	-0.06282097
64	0xbda0eb9f	-0.07857441
65	0x3c56efef	0.013118728
66	0xbd99bd40	-0.075068
67	0x3db07b90	0.08617318
68	0xbd630067	-0.055420306
69	0x3e1f09d2	0.1553109
70	0x3c7a9402	0.015294077
71	0x3d888e02	0.06667711
72	0x3e11e426	0.14247188
73	0xbdab43d0	-0.083625436
74	0xbd032d35	-0.032025535
75	0xbe7ce1ee	-0.2469556
76	0xbe870d06	-0.26377124
77	0xbc1f7018	-0.009731315
78	0xbf7a1444	-0.9768717
79	0xbd1a2c97	-0.03764018
80	0xbd455be1	-0.048183326
81	0xbd839e49	-0.06426675
82	0xbe5b2f9a	-0.21404877
83	0xbc565af1	-0.013083206
84	0xbd955c32	-0.072929755
85	0x3dabba96	0.08385198
86	0x3e67223d	0.22571655
87	0xbe2b5d96	-0.16734919
88	0xbdb3b62d	-0.08774982
89	0xbd1568f8	-0.03647706
90	0x3af3eca1	0.001860995
91	0x3b26c3eb	0.0025446366
92	0x3bbe971f	0.005816355
93	0x3d15e8f9	0.036599133
94	0xbdb6ba29	-0.08922226
95	0xbe10303c	-0.140809
96	0xbcd90a66	-0.026494216
97	0x3c0c0176	0.00854527
98	0x3ddcdaa0	0.10783887
99	0x3d84e908	0.0648976
100	0xbb906f90	-0.0044078305
101	0x3c5b2f0e	0.013377918
102	0x3ce706f6	0.028201561
103	0xbccd6a60	-0.025075138
104	0x3e0e815d	0.13916536
105	0xbb9afffe	-0.0047302237
106	0xbcc32f25	-0.023826191
107	0x3e0e1d49	0.13878359
108	0x3c20ee89	0.009822496
109	0x3d611546	0.05495193
110	0x3dfe300d	0.12411509
111	0x3dba954d	0.09110508
112	0x3e3978e8	0.18112528
113	0xbd2653d8	-0.040607303
114	0x3c1753e5	0.009236311
115	0x3d98f1dd	0.07468007
116	0xbe457dfa	-0.19286337
117	0xbd2f0498	-0.04272899
118	0xbca491a4	-0.020088978
119	0xbcd48239	-0.025941001
120	0xbcfd9763	-0.030955976
121	0x3f39f5dd	0.7264078
122	0xbe20b9d3	-0.15695886
123	0xbdc0880e	-0.0940095
124	0xbdb79ae6	-0.089650914
125	0x3d427969	0.047479067
126	0xbd9439a4	-0.072375566
127	0xbdbb6335	-0.091497816
128	0xbd68b566	-0.05681362
129	0xbc83396f	-0.016018597
130	0x3d10548b	0.035236876
131	0x3dd10002	0.102050796
132	0xbcd6581c	-0.02616506
133	0x3dc978a0	0.098374605
134	0x3d45ae70	0.04826206
135	0xbc63473d	-0.013871965
136	0xbd1a57ab	-0.037681263
137	0x3d08fdd6	0.0334452
138	0xbc584291	-0.013199464
139	0x3c392c0b	0.011302005
140	0x3b7799d8	0.0037780907
141	0xbdae2289	-0.08502681
142	0xbe00206b	-0.12512366
143	0x3d9378a8	0.07200748
144	0x3db375e5	0.08762721
145	0x3d1ac808	0.03778842
146	0xbdc63db3	-0.09679737
147	0xbd262b13	-0.040568423
148	0xbdc6d89c	-0.09709284
149	0xbbbe7c67	-0.0058131698
150	0x3da396b5	0.079877295
151	0xbda67fed	-0.08129869
152	0xbcecaf4c	-0.028892182
153	0xbcee9254	-0.029122509
154	0x3ce463f5	0.027879694
155	0x3cae7ea2	0.021300618
156	0xbd7b4cf2	-0.061352678
157	0xbc97402e	-0.01846322
158	0x3be834a7	0.007086355
159	0x3cfcaede	0.030845102
160	0xbdcf9135	-0.10135118
161	0xbd9265fc	-0.07148358
162	0x3cd05acc	0.02543392
163	0x3d251cf8	0.04031083
164	0xbdb85417	-0.09000414
165	0x3bbcde8f	0.0057638357
166	0x3dd6b6d8	0.104840934
167	0x3d6a6436	0.057224475
168	0xbd9dd5cc	-0.07706794
169	0xbdf68129	-0.12036354
170	0xbdfccd8d	-0.12343893
171	0x3c043b5e	0.008070795
172	0x3d21f12d	0.039536644
173	0x3ca110e8	0.019661382
174	0xbdbd07ec	-0.092300266
175	0xbaba689f	-0.0014221853
176	0x3d141cd4	0.036160305
177	0x3d9dcbdd	0.077048995
178	0xbd657655	-0.056021053
179	0xbd8d2a45	-0.06892828
180	0x3d7d95ad	0.06191032
181	0xbd20c322	-0.039248593
182	0xbde991b4	-0.11404744
183	0xbd536d6f	-0.051618036
184	0xbdacac7d	-0.08431337
185	0x3c1cbb2f	0.009566112
186	0x3da6ecfc	0.0815067
187	0x3d694e79	0.056959603
188	0x3d9e760f	0.07737362
189	0x3ce68306	0.028138649
190	0xbd12a270	-0.035799444
191	0xbe046ccf	-0.12932132
192	0xbd958e91	-0.07302583
193	0x3da60a27	0.08107405
194	0x3cfe9cf0	0.031080693
195	0x3cd26c24	0.025686331
196	0x3c8c37aa	0.017116386
197	0xbd9dd9c0	-0.07707548
198	0xbdfa68d9	-0.12227029
199	0xbdad1971	-0.08452118
200	0x3cd5973f	0.026073096
201	0x3cd8125c	0.026375942
202	0x3d9230bb	0.07138201
203	0x3cf97812	0.030452762
204	0xbdafaf9d	-0.085784175
205	0xbbc83885	-0.0061102533
206	0xbd1e4fda	-0.03865037
207	0xbc449113	-0.011997479
208	0xbd92013c	-0.07129142
209	0x3d6b96be	0.057516806
210	0x3ccd7f9c	0.025085263
211	0xbdab63f3	-0.08368673
212	0xbd84606a	-0.06463702
213	0xbd935063	-0.07193067
214	0xbe26c948	-0.1628772
215	0x3d0d0543	0.034428846
216	0xbe59b2de	-0.21259639
217	0x3c89a843	0.016803866
218	0xbc298c4b	-0.01034839
219	0xbc392fab	-0.011302869
220	0xbdcdeec6	-0.10055308
221	0xbc90b4f1	-0.017664405
222	0xbd80d7eb	-0.06291183
223	0xbd10bd68	-0.035336882
224	0xbaa98fc0	-0.0012936518
225	0xba952fc4	-0.0011382033
226	0xbdbf3dcc	-0.09337959
227	0xbd5c33c6	-0.053760312
228	0xbd67e1d8	-0.056611866
229	0xbd7d4bf1	-0.06184
230	0x3d224a10	0.039621413
231	0xbd6047ec	-0.05475609
232	0x3aca74f7	0.0015446235
233	0x3d89df41	0.067320354
234	0x3da8a329	0.08234245
235	0xbdf183dc	-0.11792728
236	0xbce999c5	-0.028515706
237	0xbdac268a	-0.08405788
238	0x3d20aa01	0.03922463
239	0xbd3f5f60	-0.046721816
240	0x3dafecea	0.0859011
241	0xbd9ecc1b	-0.07753774
242	0x3bc12828	0.0058946796
243	0xbc2d7eb2	-0.010589289
244	0xbddcce91	-0.10781587
245	0x3d67d196	0.05659636
246	0xbd4867fb	-0.04892729
247	0xbd975062	-0.07388379
248	0x3db4aa89	0.088215895
249	0xbdd58eef	-0.10427653
250	0x3c74399c	0.014906313
251	0xbdaf6700	-0.085645676
252	0xbdd3e95b	-0.103472434
253	0xbd71030e	-0.058840804
254	0x3af48cb1	0.0018657652
255	0xbd543dd7	-0.051816788

bias f4 [128]
0	0x3d8bc53a	0.06824727
1	0x3d578cf5	0.05262466
2	0xbc35465a	-0.011064136
3	0xbd9404a3	-0.07227447
4	0xbd931eee	-0.07183634
5	0xbd9b5061	-0.075836904
6	0xbdcd6811	-0.10029615
7	0xbcf59278	-0.029977068
8	0xbde715f5	-0.11283485
9	0xbdea5c7f	-0.114434235
10	0xbdea646a	-0.11444934
11	0xbd4aa5ac	-0.049474403
12	0xbde22f62	-0.11044194
13	0xbdad28ac	-0.08455023
14	0xbd2f063c	-0.042730555
15	0xbce4b927	-0.027920319
16	0xbdc35275	-0.09537212
17	0xbd006494	-0.03134592
18	0x3e10624a	0.14099994
19	0xbd943b3c	-0.072378606
20	0xbdd65375	-0.10465137
21	0xbcb099f0	-0.021557778
22	0xbd697494	-0.056995943
23	0xbdfb5df5	-0.1227378
24	0xbcd7ed41	-0.026358249
25	0xbdfc6d32	-0.12325515
26	0x3c012d4d	0.007884336
27	0xbc8c527e	-0.01712918
28	0xbdf7adbd	-0.12093685
29	0x3cf57448	0.029962674
30	0xbd58f8b1	-0.052971546
31	0xbc93a16c	-0.018021308
32	0xbdeb134f	-0.11478292
33	0xbcc67fab	-0.024230799
34	0x3c8318ca	0.016003031
35	0xbdc2c94e	-0.09511052
36	0xbcfff092	-0.031242643
37	0x3d6fdb53	0.058558773
38	0xbd271235	-0.040788848
39	0xbd84dfa3	-0.06487968
40	0xbd60e01d	-0.05490123
41	0xbbd6efae	-0.0065593338
42	0xbcc64720	-0.024203837
43	0xbc66706e	-0.014064891
44	0x3db25162	0.08706929
45	0xbda0e164	-0.0785549
46	0xbd570012	-0.0524903
47	0x3de7f2ac	0.11325583
48	0xbc9cea96	-0.019154828
49	0x3b16f48f	0.0023033952
50	0x3ce08eb6	0.0274118
51	0xbe027957	-0.127416
52	0xbd985073	-0.074372195
53	0xbc56b4dd	-0.013104645
54	0x3d25ee03	0.04051019
55	0xbd990e92	-0.07473482
56	0xbc56173c	-0.013067063
57	0x3cc64c0e	0.024206188
58	0xbe0ee0b4	-0.13952905
59	0x3caf5618	0.021403357
60	0xbd837a53	-0.06419816
61	0xbc23d663	-0.009999844
62	0xbce8f996	-0.028439324
63	0x3d04adf7	0.03239247
64	0xbce733f5	-0.028223017
65	0xbda5bdce	-0.08092843
66	0xbd19a31f	-0.03750908
67	0xbdcd6e93	-0.10030856
68	0xbd7e16e8	-0.062033564
69	0xbdf8c980	-0.12147808
70	0x3c15499e	0.00911179
71	0xbd1f0700	-0.038825035
72	0x3d51ad81	0.051190857
73	0xbde2d6fb	-0.110761605
74	0xbaf6c216	-0.0018826153
75	0xbc7dc8e6	-0.015489792
76	0xbbd617fc	-0.006533621
77	0x3c457260	0.012051195
78	0xbd11119e	-0.03541719
79	0x3dc779cc	0.09740028
80	0xbcb2c222	-0.021821085
81	0x3e30eafa	0.17277136
82	0x3d9d2a81	0.076741226
83	0x3c078283	0.0082708625
84	0xbcc071c1	-0.023491742
85	0xbd896387	-0.067084365
86	0xbda603b3	-0.08106174
87	0x3d1e051c	0.03857909
88	0xbdd1b7a9	-0.102401085
89	0x3b0a10fe	0.0021067257
90	0x3ba06705	0.0048950934
91	0x3d74ebb4	0.059795097
92	0xbcfa3582	-0.030543093
93	0x3cd97fe7	0.026550246
94	0xbc3d77be	-0.011564193
95	0xbdbb54b8	-0.09147018
96	0xbdb18f17	-0.0866987
97	0x3ce5e6de	0.028064188
98	0xbde2fa5d	-0.11082909
99	0xbccc9f6d	-0.024978364
100	0xbcf514c2	-0.029917125
101	0x3c5d54ac	0.013508957
102	0x3deae3c7	0.11469226
103	0x3ce58901	0.02801943
104	0xbc851b47	-0.016248358
105	0xbc6e7db3	-0.014556336
106	0x3c577071	0.013149367
107	0xbe08ad32	-0.13347319
108	0xbdd3eb0d	-0.10347567
109	0xbdc739d7	-0.09727829
110	0xbc9baa13	-0.019001996
111	0xbd474c53	-0.048656773
112	0xbdd1cd01	-0.102441795
113	0x3d224140	0.03961301
114	0xbd3fa74c	-0.046790406
115	0xbde81598	-0.11332244
116	0xbd252628	-0.04031959
117	0x3c617dc7	0.013762898
118	0xbe009563	-0.12556987
119	0xbe0e6438	-0.13905418
120	0xbe199589	-0.1499845
121	0xbd2ef525	-0.042714257
122	0xbda72432	-0.081612006
123	0xbd76993e	-0.060204737
124	0x3e3aea0d	0.18253346
125	0x3c52fd14	0.012877721
126	0xbbd3145d	-0.0064416365
127	0x3e74e3ad	0.23914976

weight f4 [128, 128]
0	0xbe9d4001	-0.30712894
1	0x3e0aa093	0.13537817
2	0xbed8a1ac	-0.42310846
3	0xbde96b07	-0.11397367
4	0xbd841dad	-0.06450973
5	0xbdc66aeb	-0.09688362
6	0xbc3d7fd5	-0.011566122
7	0xbc0ef127	-0.008724487
8	0x3cfc405e	0.030792411
9	0xbc82b148	-0.015953675
10	0xbe35b28a	-0.17743888
11	0x3ddc3a59	0.107533164
12	0xbe7f1de4	-0.24913746
13	0xbd923bc3	-0.07140305
14	0x3f723f65	0.9462798
15	0xbd7a8cac	-0.06116931
16	0xbfda078b	-1.7033552
17	0xbd5d27c6	-0.05399301
18	0x3d29ad2e	0.041424923
19	0xbe9af6f6	-0.3026654
20	0xbf1861c8	-0.595242
21	0xbeec1e00	-0.46116638
22	0x3bf66110	0.007518895
23	0xbccf84a3	-0.0253318
24	0x3ce324f4	0.027727582
25	0x3c718df1	0.014743314
26	0x3e3306c2	0.17483047
27	0xbe4f91c9	-0.20270456
28	0x3daf06e5	0.08546237
29	0xbed248fe	-0.41071314
30	0x3d550aff	0.05201244
31	0xbe16fa57	-0.14743935
32	0xbfa9cc73	-1.3265518
33	0xbf201853	-0.62537116
34	0x3d3fe977	0.04685351
35	0xbcf2ac55	-0.02962319
36	0xbfa5fe57	-1.2968243
37	0xbe42b129	-0.19012894
38	0xbd18ddad	-0.03732078
39	0xbd4a1bc4	-0.049342886
40	0x3e66eacd	0.22550507
41	0x3f3576d4	0.7088444
42	0xbe9dadcf	-0.30796668
43	0xbe01af6f	-0.12664579
44	0xbe217ce5	-0.157703
45	0x3dbbcae6	0.09169559
46	0xbed55bd7	-0.4167163
47	0xbc93611b	-0.01799064
48	0xbe03689a	-0.12832871
49	0xbc7eab48	-0.015543766
50	0xbd483509	-0.048878703
51	0xbde78b84	-0.11305907
52	0xbd4ab3e0	-0.04948795
53	0x3d84e4a2	0.06488921
54	0xbfb3dadb	-1.4051164
55	0x3e299473	0.16560535
56	0xbcf82e63	-0.030295556
57	0xbe0d4c21	-0.13798572
58	0x3c9c09d5	0.019047657
59	0xbdd00b0d	-0.10158358
60	0x3ad9603c	0.0016584466
61	0xbdd08c05	-0.101829566
62	0x3e742774	0.23843175
63	0x3cd17d95	0.025572577
64	0xbd06ed62	-0.03294123
65	0x3e0342a3	0.12818389
66	0xbf9b24a5	-1.2120558
67	0x3dc11d11	0.09429372
68	0xbd9e1278	-0.077183664
69	0xbc1f8210	-0.009735599
70	0xbd9fa136	-0.077944204
71	0xbe20c85f	-0.15701436
72	0x3e9ab17b	0.30213532
73	0xbd196555	-0.037450153
74	0xbd716b9c	-0.058940515
75	0xbe7a0f6b	-0.24419944
76	0xbea6cd1b	-0.32578358
77	0x3da596bf	0.08085393
78	0xbf08351e	-0.5320605
79	0xbdba66c2	-0.09101631
80	0x3e90e4c2	0.28299528
81	0xbd5cc20d	-0.053896
82	0xbb81b61e	-0.0039584776
83	0xba949392	-0.0011335483
84	0xbf9d2fd3	-1.228022
85	0x3d941d23	0.0723212
86	0xbf5d5756	-0.8646139
87	0xbe23011e	-0.15918395
88	0xbf8d0a6f	-1.1018809
89	0xbe187bd1	-0.14890982
90	0x3dbd505f	0.09243845
91	0x3e3f16e8	0.18661082
92	0x3d795bdc	0.06087862
93	0x3e459a74	0.192972
94	0xbdefe5e8	-0.11713773
95	0xbf9d3d89	-1.2284404
96	0x3ccb52c4	0.02481974
97	0xbdeb5f6f	-0.11492812
98	0xbfccbf5a	-1.5995896
99	0x3f8749fe	1.0569456
100	0xbd92cfb7	-0.07168525
101	0xbdd3284d	-0.10310421
102	0xbe0e1b3c	-0.13877577
103	0x3d9225b9	0.07136101
104	0x3cc55cf9	0.024092184
105	0x3e277151	0.1635182
106	0xbf5c1f2e	-0.85985076
107	0x3e5270fd	0.20550914
108	0x3eb3eb21	0.35140327
109	0xbca48d40	-0.020086884
110	0xbe7745df	-0.24147747
111	0x3daf9a76	0.08574383
112	0xbf7dd5a9	-0.99154145
113	0xbd9d282b	-0.07673677
114	0xbed7ddf0	-0.42161512
115	0xbda00e7c	-0.07815263
116	0xbd97e07b	-0.07415863
117	0xbd6829c5	-0.05668046
118	0x3e20ce05	0.1570359
119	0xbdbac07c	-0.09118745
120	0xbe96ffe5	-0.29492107
121	0xbe98b8f8	-0.2982862
122	0xbe9d37dc	-0.3070668
123	0xbfa68d94	-1.3011956
124	0xbc4a759b	-0.012357141
125	0xbf9b86f0	-1.2150555
126	0xbdfb5e48	-0.12273842
127	0x3e2a8a80	0.16654396
128	0xbe0b4047	-0.13598739
129	0xbd41d3d7	-0.047321167
130	0xbe2f17f9	-0.17098989
131	0xbd0d998e	-0.03457027
132	0xbda6e994	-0.0815002
133	0xbd0b796b	-0.03405134
134	0x3ccf7ec5	0.025329003
135	0x3d86f3d8	0.06589478
136	0xbdee2e1a	-0.11629887
137	0x3d01a64a	0.031652726
138	0xbd9881b6	-0.074466154
139	0xbd92cf0d	-0.07168398
140	0xbdcf837d	-0.10132501
141	0xbd2250e0	-0.03962791
142	0xbb7c226d	-0.0038472668
143	0x3c6d5302	0.014485123
144	0xbd3fb78f	-0.046805914
145	0x3d1363da	0.035983898
146	0x3ba57ac2	0.0050500343
147	0xbd9e873b	-0.07740637
148	0xbe202b0a	-0.15641418
149	0xbda7e885	-0.081986465
150	0xbd7f2988	-0.062295467
151	0x3c8bcdb3	0.017065858
152	0x3d8e11e3	0.06937005
153	0xbdcade46	-0.099056765
154	0x3d9364c1	0.07196952
155	0x3cd520c4	0.0260166
156	0xbd992b59	-0.07478971
157	0xbd4357a3	-0.047691
158	0x3c5b4328	0.0133827105
159	0x3aacd7e4	0.0013186899
160	0x3d88b9ca	0.066760615
161	0xbd72934c	-0.059222504
162	0xbda522a9	-0.080632515
163	0xbd25fb5b	-0.040522914
164	0x3c8fcbb4	0.017553188
165	0x3da91079	0.08255095
166	0x3c9bce63	0.019019311
167	0xbd40302b	-0.046920937
168	0xbbc7bdff	-0.0060956473
169	0x3d6e9b85	0.058253784
170	0x3b9f7384	0.0048660655
171	0x3ccf88a3	0.025333708
172	0x3cc37b8a	0.023862619
173	0xbd6dca4e	-0.05805426
174	0xbd2a90d9	-0.041642044
175	0xbb7dc7cd	-0.0038723827
176	0xbd84d554	-0.064860016
177	0x3d1075f8	0.035268754
178	0x3d735a7e	0.059412472
179	0xbdc11ead	-0.09429679
180	0x3dab648e	0.08368789
181	0xbd0ddbc4	-0.034633413
182	0xbe2673d5	-0.16255124
183	0xbdcefc3c	-0.10106704
184	0xbe0cffbe	-0.13769433
185	0xbe0910fd	-0.13385387
186	0xbc36dfe1	-0.011161775
187	0xbcd14a43	-0.025548106
188	0x3c8089a8	0.01569064
189	0xbdb35f8a	-0.08758457
190	0xbdfd9898	-0.123826206
191	0xbd812eb6	-0.063077375
192	0x3d979233	0.07400932
193	0x3d815fca	0.063170984
194	0xbd2ff7bc	-0.042960867
195	0xbda071e2	-0.078342214
196	0xbc8be286	-0.017075788
197	0xbdf0971c	-0.11747572
198	0x3c1ffc84	0.009764794
199	0x3d2e7cc7	0.042599466
200	0xbd87e992	-0.06636347
201	0x3d8b4aa4	0.06801346
202	0x3d94980b	0.072555624
203	0x3cdae22d	0.026719177
204	0xbda59de6	-0.08086757
205	0x3dbf74c4	0.09348443
206	0xbd73951f	-0.059468385
207	0x3de26568	0.11054498
208	0x3d18d2b1	0.037310306
209	0x3c03d890	0.008047238
210	0x3debff33	0.11523285
211	0x3db0edd7	0.08639114
212	0xbda9bbf7	-0.082878046
213	0x3d11e071	0.035614435
214	0xbdf18b08	-0.11794096
215	0x3d695586	0.056966327
216	0xbdca8d93	-0.098902844
217	0x3d1c2c0a	0.038127936
218	0xbc29dcfd	-0.010367629
219	0xbcc71411	-0.02430156
220	0xbbf53f59	-0.0074843583
221	0xbbb97295	-0.005659411
222	0xbd7dd45a	-0.061970092
223	0xbd50d392	-0.05098302
224	0x3dae5057	0.08511417
225	0xbdb901a5	-0.09033517
226	0x3dd2b516	0.10288446
227	0xbd225204	-0.039628997
228	0xbdca6917	-0.098833255
229	0xbd2db3e0	-0.04240787
230	0x3b7975fe	0.0038064714
231	0xbda53544	-0.080668
232	0xbd6f9413	-0.058490824
233	0xbbc03fb6	-0.00586697
234	0x3cf20817	0.029544873
235	0xbcd6384a	-0.026149888
236	0x3c7a8d0a	0.015292415
237	0x3dab47a5	0.083632745
238	0xbd231200	-0.039812088
239	0x3d374fd4	0.044753864
240	0xbd4b800f	-0.049682673
241	0xbd95f88a	-0.07322796
242	0xbd20dcfb	-0.039273243
243	0xbd311d53	-0.043240856
244	0xbe588716	-0.21145281
245	0xbc6cc3a8	-0.014450945
246	0x3d17cbfe	0.037059776
247	0xbbf7671e	-0.0075501343
248	0x3d30c539	0.043156836
249	0xbd096816	-0.03354653
250	0x3d99c32b	0.075079285
251	0xbdeb7628	-0.11497146
252	0xbd43bb84	-0.04778625
253	0xbbb355c7	-0.005472872
254	0xbd4e332a	-0.050341763
255	0x3d37c023	0.04486097

weight f4 [2, 128]
0	0xba97aa6a	-0.0011571173
1	0xbcdcd661	-0.026957693
2	0x3d857d1c	0.06518003
3	0x3cf15ff4	0.0294647
4	0xbcce3cad	-0.025175417
5	0xbc3399dd	-0.010961977
6	0x3d425749	0.047446523
7	0x3d85ecc6	0.065393016
8	0xbda73bc3	-0.081656955
9	0x3b95e6c0	0.0045746267
10	0xbe0589a1	-0.13040783
11	0x3c8f2602	0.017474178
12	0x3e04670c	0.12929934
13	0x3c39f67d	0.011350271
14	0x3c2f2009	0.01068879
15	0x3b732291	0.003709946
16	0xbce58a56	-0.028020065
17	0x3b983263	0.0046446784
18	0xbdd79831	-0.10527075
19	0x3c23562e	0.009969277
20	0xbcb59ae2	-0.02216858
21	0x3d9e1766	0.07719307
22	0x3d74f8de	0.05980765
23	0x3c08b07f	0.008342861
24	0x3b46ae8c	0.003031644
25	0xbbb20da0	-0.005433753
26	0x3d5d4b4e	0.054026894
27	0xbcc84f09	-0.02445175
28	0xbdefb198	-0.11703795
29	0xbdc66eea	-0.09689124
30	0x3d1b7988	0.037957698
31	0x3d8fc260	0.07019496
32	0x3d16f775	0.036857087
33	0x3c4fd6dc	0.012685504
34	0xbcdc465c	-0.026889019
35	0xbcbc393c	-0.02297651
36	0x3d5faa45	0.05460574
37	0xbdf8954b	-0.121378504
38	0xbc28ff50	-0.0103147775
39	0x3d8d4379	0.06897635
40	0xbcec9149	-0.028877871
41	0x3d55d589	0.052205596
42	0xbccfb95b	-0.025356939
43	0x3dd3fd95	0.10351101
44	0x3d45230d	0.04812913
45	0xbd9211b8	-0.07132286
46	0x3d83f41b	0.06443044
47	0x3e1c026e	0.15235302
48	0xbc9ce0fe	-0.019150253
49	0x3abe9ed2	0.0014543182
50	0x3de5c94e	0.112200364
51	0x3c92406f	0.01785299
52	0x3d25a1aa	0.040437378
53	0xbda3be7a	-0.07995315
54	0x3cc5cddc	0.024146013
55	0x3cd976db	0.026545933
56	0x3d631bc5	0.055446405
57	0x3d6aaa5c	0.057291374
58	0x3c7dbddf	0.015487163
59	0xbc017544	-0.007901493
60	0xbc9cceda	-0.019141603
61	0x3c586cea	0.013209561
62	0x3c40f903	0.011778119
63	0x3f1edf9e	0.6205996
64	0x3c86f849	0.016475813
65	0x3db39eb4	0.087705046
66	0x3ba3e3d0	0.0050015226
67	0xbdc67c60	-0.096916914
68	0x3d787dd3	0.06066687
69	0x3dbefa0c	0.093250364
70	0xbd963c27	-0.07335692
71	0x3ce40e54	0.027838863
72	0x3cf5001e	0.029907282
73	0x3d71d3b5	0.05903979
74	0xbc2849d0	-0.0102715045
75	0x3db309d4	0.08742109
76	0xba0e4b92	-0.0005428131
77	0x3d42ada2	0.04752887
78	0x3d843b83	0.064566635
79	0x3e28735a	0.16450253
80	0x3d3e40aa	0.046448387
81	0xbdae5dc4	-0.08513978
82	0x3baaaca6	0.0052085696
83	0x3cf1e734	0.029529192
84	0xbc4ee453	-0.012627679
85	0x3ca37d21	0.019957127
86	0x3d011527	0.031514313
87	0x3d03fd0f	0.032223757
88	0x3b9ee79a	0.0048493864
89	0x3dc5920b	0.09646996
90	0xbd682d73	-0.05668397
91	0x3c82d00d	0.015968347
92	0xbd5184c5	-0.05115201
93	0xbd0f5b2a	-0.03499905
94	0x3d73ce25	0.059522767
95	0x3d98c587	0.0745955
96	0x3c27cc45	0.010241573
97	0xb9ea5921	-0.00044698364
98	0xbd2d9440	-0.04237771
99	0xbcff0781	-0.031131508
100	0x3deb8a6e	0.11501013
101	0xbcba3b3e	-0.022733327
102	0x3c2a8e59	0.010409915
103	0xbb3e3ffb	-0.0029029835
104	0x3cda9960	0.026684463
105	0xbc9da532	-0.01924381
106	0xbd80e190	-0.06293023
107	0xbb6c6b1d	-0.0036074587
108	0x3d0ef863	0.03490485
109	0xbce62b28	-0.02809675
110	0xbc3a7deb	-0.01138256
111	0xbcaa3c85	-0.020780811
112	0xbc543bf9	-0.012953752
113	0x3b2dff17	0.002654975
114	0xbda3a4dc	-0.07990429
115	0x3d55881b	0.052131753
116	0x3b3f9b37	0.0029236802
117	0x3d7adbcc	0.06124477
118	0x3c818089	0.01580836
119	0x3c94e986	0.018177759
120	0x3e79014f	0.24316905
121	0xbdb09882	-0.086228386
122	0x3c3e2ff9	0.011608117
123	0xbc7d36fd	-0.015455005
124	0x3c91c3cb	0.017793557
125	0x3c5771bf	0.013149678
126	0x3db16902	0.08662607
127	0x3e027106	0.12738428
128	0x3d8a7581	0.06760693
129	0x3d6c5cb2	0.05770559
130	0x3c3a64a5	0.011376535
131	0x3ddb66f5	0.10712997
132	0xbd3230c5	-0.04350354
133	0xbcabe73c	-0.020984285
134	0x3d40cd5e	0.047070853
135	0x3c1c70c9	0.009548374
136	0x3c96b48e	0.018396642
137	0xbdbcf8ee	-0.09227167
138	0xbc062725	-0.008188044
139	0xbcdbe746	-0.026843678
140	0x3cb78f39	0.022407161
141	0x3c4528de	0.012033669
142	0xbd964099	-0.0733654
143	0xbd5dee7d	-0.05418252
144	0xbd958954	-0.07301584
145	0xbc5cb6e8	-0.013471343
146	0x3b65e0eb	0.0035076689
147	0x3cdaf8a3	0.026729887
148	0x3b212249	0.0024587086
149	0xbd68a62c	-0.0567991
150	0xbc5fade8	-0.013652302
151	0x3d617d63	0.05505122
152	0xbd8d8371	-0.06909836
153	0xbdf2f2a4	-0.11862686
154	0x3d990e21	0.07473398
155	0xbdf13be3	-0.117790006
156	0xbd0385e4	-0.03211011
157	0xbbf5d975	-0.0075027295
158	0xbd84e3d8	-0.0648877
159	0x3c359502	0.0110828895
160	0x3aa71797	0.0012748119
161	0xbd72ccec	-0.05927746
162	0xbc9393cc	-0.018014811
163	0xbd7376ce	-0.059439473
164	0xbc766f7b	-0.015041227
165	0x3dbd0486	0.092293784
166	0xbd913888	-0.070908606
167	0xbda5c52a	-0.08094247
168	0xbbb20234	-0.0054323915
169	0x3c6bc5e5	0.014390443
170	0xbd18c40f	-0.03729635
171	0xbcbc7fd0	-0.023010164
172	0x3cc3f8df	0.023922382
173	0xbd9eb61a	-0.07749577
174	0xbd453294	-0.04814394
175	0xbe052260	-0.13001394
176	0xbcc73193	-0.024315631
177	0x3cc1d744	0.023662217
178	0x3c8a6a5f	0.016896425
179	0xbca63d88	-0.020293012
180	0xbd398500	-0.045292854
181	0xbd1762cf	-0.036959466
182	0x3d235614	0.039877012
183	0xbca5676f	-0.020190923
184	0x3db842df	0.0899713
185	0x3dd2bacc	0.10289535
186	0xbd502e3a	-0.050825335
187	0x3cdc0396	0.026857179
188	0x3c9dd33f	0.019265769
189	0xbdae52bf	-0.08511876
190	0xbca7cbf5	-0.020482996
191	0xbf16c480	-0.58893585
192	0x3d0ed7e7	0.03487387
193	0x3b43d7a6	0.0029883175
194	0x3da20e09	0.07912833
195	0xbc19bf87	-0.009384043
196	0x3c3ec63e	0.011643944
197	0xbc754394	-0.014969725
198	0x3b93cbf1	0.0045103957
199	0xbcc46214	-0.023972549
200	0x3d7d7dfd	0.06188773
201	0x3c0cb40c	0.008587848
202	0x3cdb61b6	0.02677999
203	0xbcccf490	-0.02501896
204	0xbe0ab2dc	-0.13544792
205	0x3d80cfc2	0.06289627
206	0xbd5a5d1c	-0.053311452
207	0xbe7f8e2e	-0.24956581
208	0x3b620989	0.0034490547
209	0x3ce2cc5a	0.027685333
210	0x3e070ca8	0.13188422
211	0x3d61dc30	0.055141628
212	0x3c2e9802	0.010656359
213	0x3c8c2aba	0.017110217
214	0x3cab1d4f	0.020887999
215	0x3d0661bb	0.032808047
216	0xbd36a753	-0.044593167
217	0x3d84a10f	0.06476032
218	0xbc9606f8	-0.01831387
219	0x3d035d94	0.032071665
220	0xbbd16fef	-0.0063915174
221	0xbd1b79b3	-0.03795786
222	0x3d27a741	0.04093099
223	0xbd04f38c	-0.032458827
224	0x3d38b1df	0.045091506
225	0x3c7960a3	0.015220794
226	0xbbb99efe	-0.0056647053
227	0x3d7e7737	0.06212541
228	0xbd7ad7df	-0.061241027
229	0x3ce3c51c	0.02780395
230	0x3d5e882e	0.05432909
231	0x3d87f874	0.066391855
232	0xbd256772	-0.040381856
233	0xbdf049ca	-0.11732824
234	0xbd8c62a1	-0.068547495
235	0xbdd9ddc3	-0.10638001
236	0x3c8fc46d	0.017549718
237	0xbd98c5b8	-0.07459587
238	0xbdf5bc73	-0.119988345
239	0xbb8f2065	-0.0043678754
240	0xbd83fc5a	-0.064446166
241	0x3cc9369a	0.024562169
242	0x3d7513b7	0.059833255
243	0x3d60b067	0.05485573
244	0x3cb34286	0.021882307
245	0xbdb27e78	-0.08715528
246	0x3d62658f	0.055272635
247	0xbd1b0cbe	-0.03785395
248	0xbeccc771	-0.39995912
249	0x3c075478	0.008259885
250	0xbd305cf2	-0.04305739
251	0xbd7185ec	-0.05896561
252	0x3ca2685f	0.019825159
253	0xbd0419e7	-0.032251265
254	0xbd0459f4	-0.03231235
255	0xbe34ab3f	-0.1764345

bias f4 [2]
0	0xbd5273b6	-0.05137988
1	0x3dbef054	0.09323183

weight f4 [2, 128]
0	0xbe440ccd	-0.19145508
1	0xbd476c8f	-0.048687514
2	0x3d8f45cf	0.06995737
3	0xbd874540	-0.06605005
4	0xbb281d5b	-0.0025652263
5	0x3dec6ba9	0.11543972
6	0xbdb53b97	-0.088492565
7	0x3dcbd79f	0.09953236
8	0xbb020f71	-0.001984563
9	0x3d052154	0.032502487
10	0x3bbc80da	0.005752665
11	0xbab6ea8a	-0.0013955396
12	0x3dab26c1	0.08357001
13	0x3d00fd22	0.031491406
14	0xbce0f5d2	-0.027460966
15	0x3d249269	0.04017869
16	0x3db21be6	0.086967275
17	0x3d270492	0.040775843
18	0xbe9aac60	-0.30209637
19	0x3e3c84e2	0.18410066
20	0x3d9482f8	0.07251543
21	0xbd8f1bdb	-0.06987735
22	0x3d34c653	0.04413445
23	0xbd5f31cf	-0.05449086
24	0x3d85c20d	0.06531153
25	0xbcdc09de	-0.026860174
26	0xbdeed70f	-0.11662113
27	0x3c97f815	0.018550912
28	0xbd77bbdb	-0.060481887
29	0x3c837640	0.016047597
30	0x3d913c42	0.070915714
31	0x3d582720	0.052771688
32	0x3de0927b	0.10965439
33	0xbc514e18	-0.012774967
34	0x3df15720	0.11784196
35	0x3b5e261c	0.0033897227
36	0x3c04231f	0.008065014
37	0x3c9480d3	0.018127834
38	0x3d7c1fbb	0.061553698
39	0xbbcff8ac	-0.0063467827
40	0xbd80a4bf	-0.06281423
41	0x3e0494c6	0.12947378
42	0xbc60e826	-0.0137272235
43	0x3cb9ae1f	0.022666035
44	0x3a51558d	0.00079854653
45	0xbc7a525a	-0.015278423
46	0x3cfec58a	0.031100053
47	0xbe84d9d6	-0.25947446
48	0x3dfe36ec	0.12412819
49	0x3f910e53	1.1332496
50	0xbbaa57e6	-0.0051984666
51	0x3ca7a928	0.020466402
52	0x3ccd491e	0.025059279
53	0x3e80bd08	0.2514422
54	0x3f804d44	1.002358
55	0xbda87e9e	-0.08227275
56	0x3ddd91d3	0.108188294
57	0x3e108032	0.14111403
58	0xbcc938df	-0.024563251
59	0x3e03dc1d	0.12876935
60	0x3da07773	0.07835283
61	0x3d95d102	0.07315256
62	0xbde4ddbe	-0.111751065
63	0xbe29e374	-0.16590673
64	0x3f070bf9	0.52752644
65	0x3cd1e765	0.025623033
66	0xbd396782	-0.04526473
67	0xbc987748	-0.018611565
68	0x3de6fc4a	0.11278589
69	0xbca6453c	-0.020296685
70	0xbde8ada5	-0.11361245
71	0xbc314102	-0.010818722
72	0x3f7827c5	0.96935683
73	0x3dbceef3	0.092252634
74	0x3d417898	0.047234148
75	0x3c95045e	0.018190559
76	0xbcb7f4ee	-0.022455659
77	0x3dc3439e	0.09534381
78	0x3b832f29	0.0040034247
79	0x3df7a896	0.12092702
80	0x3d800b77	0.06252187
81	0xbe36a783	-0.17837338
82	0xbd612c1c	-0.054973707
83	0x3e229bed	0.15879793
84	0xbcbd2f6f	-0.023093907
85	0x3daf60e7	0.085634045
86	0x3c0b7654	0.008512098
87	0xbcbdbe0e	-0.023161914
88	0xbcdbd2b1	-0.026833864
89	0xbd41c306	-0.04730513
90	0x3e548e7e	0.20757481
91	0xbe5d9d50	-0.21642041
92	0x3e3ae50f	0.18251441
93	0x3dba0892	0.09083666
94	0xbd030bcc	-0.031993672
95	0x3d37cd73	0.044873666
96	0xbdf03334	-0.11728516
97	0xbe3635e1	-0.1779399
98	0xbd527495	-0.051380713
99	0xbd26acdd	-0.0406922
100	0x3bb101d7	0.0054018307
101	0x3db10963	0.086443685
102	0xbea1ebb8	-0.31625152
103	0xbcf51cc0	-0.029920936
104	0x3dbfda41	0.093678005
105	0x3d9b9544	0.075968295
106	0x3e50d434	0.20393449
107	0x3c4587d6	0.012056312
108	0x3db8290a	0.089922026
109	0x3dcbd4a1	0.09952665
110	0x3d40d93b	0.047082167
111	0x3cd79f7a	0.026321162
112	0x3dc00fc7	0.09378009
113	0xbd8d0350	-0.068853974
114	0x3ced4858	0.02896516
115	0xbdafc798	-0.08582991
116	0xbd7d4c04	-0.061840072
117	0xbc1600fb	-0.009155507
118	0x3ae033fc	0.0017105336
119	0x3dcf7e33	0.101314925
120	0x3f176fb3	0.59154814
121	0xbdb6f00b	-0.08932503
122	0xbc9ae4d7	-0.018907947
123	0x3d4239aa	0.047418274
124	0xbe690d50	-0.22758985
125	0x3e0505d8	0.1299051
126	0xbcf75884	-0.030193575
127	0xbe761f87	-0.24035464
128	0x3e61d716	0.22054705
129	0x3e21dd3c	0.1580705
130	0xbd87212c	-0.06598124
131	0x3d1e7a2b	0.038690727
132	0x3c5bbfc1	0.013412417
133	0xbcb58206	-0.022156727
134	0xbcefb9d1	-0.029263409
135	0xbe0c2836	-0.13687214
136	0xbd03989e	-0.03212797
137	0xbbae2bdf	-0.0053152884
138	0xba90c2f2	-0.0011044426
139	0xbdfaa87c	-0.12239167
140	0xbc26faa5	-0.010191594
141	0x3ce26340	0.027635217
142	0x3d2444b1	0.04010457
143	0xbc8fbb22	-0.017545287
144	0xbd9e4339	-0.077276655
145	0xbe000470	-0.12501693
146	0x3ea37371	0.31924012
147	0xbe1ea6d9	-0.15493335
148	0xbdde0693	-0.10841098
149	0xba43d531	-0.00074704277
150	0xba01355e	-0.0004928912
151	0xbcf5d542	-0.030008916
152	0xbd2e4290	-0.042543948
153	0xbd2fb99f	-0.04290163
154	0xbc22dfd5	-0.009941061
155	0xbe118db4	-0.14214212
156	0xbd0dfd3a	-0.034665324
157	0x3c4335a5	0.011914645
158	0xbcb17a0a	-0.021664638
159	0xbd797a29	-0.060907517
160	0xbdccb87f	-0.09996127
161	0x3c82c9b8	0.015965328
162	0xbe1a1379	-0.1504649
163	0xbd39b392	-0.045337267
164	0xbe0e52a2	-0.1389871
165	0xbd13f13e	-0.03611874
166	0xbdb1aff3	-0.08676138
167	0xbb024f44	-0.0019883672
168	0x3d51a87d	0.051186074
169	0xbd9867ba	-0.07441659
170	0x3bce96ed	0.006304613
171	0xbda24fa3	-0.07925346
172	0x3cbf4942	0.023350362
173	0x3d1a1548	0.03761795
174	0x3cae7285	0.021294842
175	0x3e7681fd	0.24073024
176	0xbd782048	-0.06057766
177	0xbf92610b	-1.1435865
178	0xbdc4aeb5	-0.09603635
179	0xbcb190bc	-0.02167546
180	0xbab8a7ee	-0.0014088133
181	0xbe7040a2	-0.23462155
182	0xbf7c9aa0	-0.9867344
183	0x3df4b6dc	0.1194894
184	0xbe3795b2	-0.17928198
185	0xbe529313	-0.20563917
186	0xbd3095bf	-0.04311156
187	0xbdf6af2b	-0.120451294
188	0xbdae187f	-0.08500766
189	0xbbd86a5a	-0.006604475
190	0x3d062ada	0.03275571
191	0x3e401a74	0.18760091
192	0xbf288073	-0.65821
193	0xbc60a83a	-0.013711983
194	0x3d03fc98	0.032223314
195	0x3d6b4212	0.057436056
196	0xbe025a05	-0.12729652
197	0xbcd94f5e	-0.026527103
198	0x3c265833	0.010152864
199	0xbdc31522	-0.09525515
200	0xbf8133e8	-1.0093966
201	0xbcf64c5b	-0.030065706
202	0xbde9ff40	-0.11425638
203	0xbd27f2e7	-0.041003134
204	0x3c583bb7	0.013197831
205	0xbe24a6ad	-0.16079207
206	0x3d357df4	0.04430957
207	0xbca03bb8	-0.019559726
208	0x3cd9052d	0.026491726
209	0x3e26c40b	0.16285722
210	0x3e2cd394	0.16877586
211	0xbde0c5cc	-0.10975227
212	0x3d98d659	0.074627586
213	0xbe0fbbc0	-0.14036465
214	0xbd61162d	-0.05495279
215	0x3c63f5a0	0.013913542
216	0x3d62f4f3	0.055409383
217	0x3cb7c9f1	0.02243516
218	0xbe359e13	-0.17736082
219	0x3e4bd879	0.19906797
220	0xbe24b23b	-0.16083615
221	0xbe6bac79	-0.23015012
222	0x3c8324f8	0.016008839
223	0xbdc23e30	-0.094845176
224	0x3c258a6e	0.010103805
225	0x3e2da99e	0.16959235
226	0x3d2bb793	0.041923117
227	0x3df90ced	0.121606685
228	0xbc9f45dd	-0.019442493
229	0xbd43599e	-0.047692887
230	0x3e94af31	0.2903991
231	0x3d6d27c3	0.057899248
232	0xbcddb4f0	-0.027063817
233	0xbc983ebd	-0.018584603
234	0xbe8bfc0b	-0.2734073
235	0xbd7a9b51	-0.061183278
236	0xbcd12758	-0.025531456
237	0xbd4d024b	-0.050051015
238	0x3cdaf25c	0.026726894
239	0xbe135fbe	-0.14391991
240	0xbdb04407	-0.08606725
241	0xbc5e85b0	-0.013581678
242	0xbcb3cdeb	-0.021948775
243	0x3caadca8	0.02085717
244	0x3dab06e9	0.083509274
245	0xbd28f9b2	-0.041253753
246	0x3d8cb7b4	0.06870976
247	0xbda25310	-0.07925999
248	0xbf15d989	-0.5853506
249	0x3d8b0073	0.06787195
250	0x3cf997ed	0.030467952
251	0xb9288cb0	-0.00016074139
252	0x3e85c319	0.2612541
253	0xbcd2799e	-0.025692757
254	0x3dcf477c	0.101210564
255	0x3e7e5914	0.24838668
