code/GraphSAGE_BPR/GraphSAGE_6.pth (torch, 548671 bytes, 18 tensors)

weight f4 [128, 5]
00000000: a8a6 f6bd fbd5 2d3c eeea 65bf 95c8 d13e
00000010: 7f99 08be 6da2 15bc 285a e1be b59e 70be
00000020: bda6 09bf 7252 a7be 3d98 f1be 0bf4 c3be
00000030: ff8f 25be 620b a0be 1b80 acbe 5fd6 843e
00000040: ddf3 d13d a9e7 4ebe b172 73be 8468 373e
00000050: 6bee 8b3e 881f babe 4ef9 473e 63d1 9ebe
00000060: 2ebb adbd c236 4abe d6f3 023e 3c03 6bbe
00000070: 78e7 a13e 9d6d bebe 7f81 c5be 9e09 b93e
00000080: f399 b13d c315 853e 5f49 8fbd 8d24 4fbe
00000090: 15da b53e f2db 7abd 1c38 0bbe 7d69 513c
000000a0: 0ba7 cdbd c296 7abe 5afb 903e 5623 713d
000000b0: 5a83 06bf b9c4 5fbe 75b3 abbe c04e 893d
000000c0: d475 82be 7ed9 a3be 30ef ee3b b67c 1ebc
000000d0: 4f50 d23e d067 7a3e be28 333d 6149 953e
000000e0: 6da6 1b3e 1b74 3ebe 6e86 e53d 26b9 173e
000000f0: 2574 e43d 2caf 893e cd44 743e 3f86 c7be
00000100: c594 f7be 911b 82be 7890 463d 5e41 bebe
00000110: 5d18 abbe 082e 443e 3c7f 05be 5826 15be
00000120: 449f 8dbe d44a a8bd a923 53be 819b 453e
00000130: ee0a 193e 45e8 2cbe 6030 dbbe 662e 493d
00000140: 65c8 24be faa6 173e e4b9 41bf 3686 153f
00000150: cbee f8be 640d 4fbe 3724 1ebe 6f14 eb3e
00000160: 69a8 033d c5a6 953e aa63 7bbd d108 df3e
00000170: 81c3 43be 0ac7 543d b28b 773d d530 cebd
00000180: 91a8 c4be efc3 eabd 217a d7be 381b 30bd
00000190: 81e0 ab3e 3c90 0a3e 360c 0e3d 73fc e6be
000001a0: 08cc c5be 3d46 e1be 2b6d 15be 2da8 38bd
000001b0: da87 febe 6dd3 013e 0023 f0bc c4f4 7b3e
000001c0: ee73 b8be 5eb0 06be 5038 2bbd 7b2c dbbe
000001d0: 7120 df3d 7f6c 803d 3489 07be 7b6f dcbd
000001e0: 361b d53e 80e6 9f3d e163 dbbe 1612 adbe
000001f0: 7a4a e2be 5a48 973e daa2 29be 5db8 823c
00000200: 0350 54be f144 b73d 8c2b 6dbe 5748 28be
00000210: 4020 693e c515 9d3e e603 e3be 6e7a 663d
00000220: 5087 27bd 8636 893e d4c5 e83d 1286 3a3e
00000230: c11c bfbd 0959 80bd a1ec 69bc 069c 33be
00000240: 149f b13e bc60 543e e405 1dbf 9014 f0be
00000250: 86ae 55be bc68 de3c a2f8 26bd 3b33 5a3d
00000260: cf40 b2be ae63 8fbe acda 293e d5c6 01bf
00000270: f129 ab3e ebcf 603e 65d2 11be e119 d6be
00000280: f3b3 fb3d bcb3 bdbe efa4 7a3e 83f9 f5bd
00000290: 8989 ebbe 670b 4ebe 2f7a 3cbf 8cf9 46be
000002a0: 96fc 55be f266 0bbe a4d4 a1be 7849 e9be
000002b0: a2fe 0fbe 3000 8fbc 8c09 b63e 5212 d7be
000002c0: df27 00bf 267a cd3d 55ac ab3e 4033 c93d
000002d0: d165 0b3e 996d 57be da6c 9bbe 52b3 2abd
000002e0: ef3f 143d 7b79 2ebe 9658 aabb 9fe8 e1be
000002f0: 0ff6 bcbe b30d 583e f02a 64be cb3d c2be
00000300: a821 e8bd 7bd2 f73c 728a 623e d8f7 c8bd
00000310: 259b 7dbe 9997 b3be 6670 a83e 63f6 c7be
00000320: 05b9 d33c e636 b1bd 8b57 c6be a85a dabe
00000330: 3bd5 bb3d 7985 c8bd e3a4 abbe 91ad 4bbe
00000340: 2e77 ca3d e1da 6c3e 88f9 bdbe 5f55 bdbe
00000350: 9b7b f2be 509e 0d3d e7c3 9fbc a41c d3bd
00000360: a9b0 1fbe 1e32 2f3e 94c6 a53e c2c3 cdbd
00000370: b131 da3d 2097 9abe 4fbc bb3d c25d 153e
00000380: 99de a7be 06e9 bebe d5ca 09be 955f 4cbd
00000390: c266 8e3e 8166 a1be 9ac9 af3e 050e b9be
000003a0: 69ea 6e3e ed3d 8a3e c64e 05bd 8204 d4bd
000003b0: 3131 edbe 824a 2a3e 7359 39be b2cd 673e
000003c0: c971 343e 5b3f d2bd e25c 5b3e 993d c33e
000003d0: 8900 3dbe b80f 1ebe d4de 093e b813 c73d
000003e0: 90cf 7c3d 8e08 acbe 8b92 afbb 4c24 943e
000003f0: cbbe 02be 9914 f6bc 223c e63e 4d1e 143e
-0.12043506 0.010610099 -0.898116 0.40973344 -0.13339804 -0.009132964 -0.44014096 -0.23498042
-0.5377005 -0.32680088 -0.4718646 -0.38272128 -0.16168211 -0.31258684 -0.33691487 0.25944802
0.10251591 -0.20205559 -0.2377422 0.17910963 0.27330336 -0.3635218 0.19528696 -0.31019124
-0.08482967 -0.19747451 0.12788329 -0.22950453 0.3162191 -0.37193003 -0.3857536 0.3614015
0.086719416 0.25993165 -0.06996416 -0.20228787 0.35517946 -0.061244912 -0.13595623 0.012781498
-0.100416265 -0.24471572 0.28316766 0.05887159 -0.52544177 -0.21852387 -0.33535352 0.067044735
-0.2548052 -0.3200187 0.007291697 -0.009673288 0.41076896 0.24453664 0.043740027 0.29157546
0.15200205 -0.18598978 0.11207281 0.14816722 0.11154965 0.26891458 0.2385437 -0.3896961
-0.4835569 -0.25411656 0.04847762 -0.37159246 -0.33417025 0.19158185 -0.13036817 -0.14565408
-0.27660573 -0.08217397 -0.20619072 0.19297601 0.14945576 -0.16885479 -0.42810345 0.049116515
-0.1609207 0.1480979 -0.7567427 0.58407915 -0.48619685 -0.20219952 -0.15443502 0.45914027
0.03214303 0.29228798 -0.061374344 0.43561414 -0.19117548 0.05194763 0.06043596 -0.10067908
-0.38409856 -0.114631526 -0.42085364 -0.042994708 0.3356972 0.13531584 0.034679614 -0.45114478
-0.38632226 -0.439989 -0.14592426 -0.04508226 -0.49713022 0.12678309 -0.029313564 0.2460509
-0.36025947 -0.13153216 -0.04180175 -0.42807373 0.108948596 0.06270694 -0.13235933 -0.10763451
0.41622323 0.07807636 -0.4284964 -0.3380286 -0.44197446 0.29547387 -0.16566029 0.015957052
-0.20733647 0.089486964 -0.23161143 -0.16433845 0.22766209 0.3068067 -0.44338912 0.0562691
-0.04090053 0.2679941 0.11365858 0.18215206 -0.09331656 -0.06266982 -0.014277608 -0.17539987
0.3469168 0.20740026 -0.61337113 -0.46890688 -0.20867357 0.02714955 -0.04076446 0.053271513
-0.3481507 -0.28005737 0.16587323 -0.5069402 0.33430436 0.21954314 -0.14240415 -0.4181662
0.12290182 -0.3705119 0.2447698 -0.12010481 -0.46003368 -0.20121537 -0.7362394 -0.19431132
-0.20897135 -0.1361349 -0.31607544 -0.45563865 -0.14061978 -0.017456144 0.3555416 -0.42006165
-0.5006084 0.100330636 0.33529916 0.09824228 0.13613059 -0.21037902 -0.30356485 -0.04167492
0.036193784 -0.17038529 -0.0051985485 -0.44122788 -0.36906478 0.21098976 -0.22282004 -0.3793777
-0.113345444 0.030251732 0.22123125 -0.098128974 -0.24766214 -0.35076597 0.32898253 -0.39055166
0.02584506 -0.08653049 -0.38738665 -0.4264729 0.0917153 -0.09791083 -0.33524236 -0.19890429
0.09886013 0.2313037 -0.3710444 -0.36979195 -0.47359928 0.034574807 -0.019502593 -0.10308197
-0.15594734 0.17108962 0.32378066 -0.100471035 0.10654009 -0.30193424 0.091667764 0.14586547
-0.32787016 -0.37287158 -0.1345628 -0.04989584 0.27812773 -0.31523517 0.34333497 -0.3614351
0.23331608 0.2700037 -0.032545827 -0.10352422 -0.46326593 0.16629985 -0.18100528 0.2263706
0.1762153 -0.1026599 0.2142215 0.38132933 -0.18457235 -0.15435684 0.13463908 0.09720558
0.061721385 -0.33600277 -0.0053580455 0.28933942 -0.12768094 -0.030039119 0.44967753 0.14464684

bias f4 [128]
00000000: 811d 9d3c 35fa 673e 1212 533e b38b aabe
00000010: a461 7dbe 9bd5 e5be 6f0a 333d 96d7 b8be
00000020: 29f5 ae3e b226 043c f02b 9e3e bfee a1be
00000030: 770f b9bb 36fc e0be 50f2 dabe 4877 cbbe
00000040: dd4a 553e 928e 52bd a6d3 2c3e e65e 7f3e
00000050: c174 28bd a5e5 81bd 8fdb b6be 5ea8 d3bd
00000060: 0078 fa3d 5d36 813e 5255 cebd 051f cb3e
00000070: 1336 893e bf8f e33d a17f a23d 11fa 76bd
00000080: b358 d23d 6713 09bd f771 ae3e f750 aabe
00000090: a96c 163e 5eda a53e 2c30 3dbe b0c6 26bd
000000a0: a22b f7bd d11e b2be 5286 6ebe 5737 a23e
000000b0: 83e9 82be fc6b 8b3e 5faa 00be 6ccc b4be
000000c0: be72 6ebd eecd a0be d57c 8b3d c185 aa3e
000000d0: b9c4 10be 1f16 e4be 90bb c2bd 0cee 2b3e
000000e0: 2d73 993e 3b19 043e 2628 c9bd 8a68 21be
000000f0: 0df9 2cbe c845 b4bd 723c d8be 0760 3d3e
00000100: a5a3 c6be 2e3d fdbe 95f5 753e e096 4cbd
00000110: 39ad 5b3e a5b0 afbe ad18 1c3e a88d ea3e
00000120: cb2d d9be a43d ab3e 2844 8dbd 89ab 943d
00000130: 91a1 973e ce39 e1bd 686a eabe 47d5 f23e
00000140: b6ed aebe 9c84 97be 7b7c ccbe a005 12be
00000150: add4 bd3e 0c3b b6bc d5e5 aa3d e029 d6bb
00000160: 895a 48be d7b6 493e 3c12 bebc 4234 07be
00000170: 714e 25be e3c0 223e 6e3c 413e caa0 c8be
00000180: 995a 073d fe5f 583e 3793 873d 3f6c 02bf
00000190: cd7d f63d ed11 8dbe 956f b23b 0098 88be
000001a0: b499 c3be 0dfe a1be 7e35 ff3c d1dd 1abe
000001b0: 7ee7 46be 8cd0 babe c092 cb3e f206 af3d
000001c0: 3dc6 193f 4586 6c3e 1ae1 bfbc 50fc 87be
000001d0: 0977 acbe b24f 2abe 640c 07be 2836 b53e
000001e0: b1ca e63d e1a4 8fbe b0a2 8b3e ad6e 06be
000001f0: 6baa aa3e a728 723d e5e7 11be 3bba 69be
0.019179108 0.2265404 0.20612362 -0.33309707 -0.24744278 -0.4488953 0.043711122 -0.3610198
0.34171417 0.008065866 0.30892897 -0.3162746 -0.0056475955 -0.43942422 -0.42762995 -0.39739442
0.2082934 -0.051405497 0.16877612 0.24938545 -0.04112697 -0.06342629 -0.35714385 -0.10334848
0.122299194 0.25236788 -0.10074867 0.39672104 0.26799068 0.11111402 0.079344995 -0.060297076
0.10270824 -0.03346577 0.34071323 -0.33264896 0.14689888 0.32393163 -0.18475407 -0.040716827
-0.12068869 -0.34789136 -0.23293427 0.31682846 -0.2556878 0.27230823 -0.12564991 -0.35312212
-0.058214895 -0.31407112 0.06810919 0.3330517 -0.14137544 -0.44548127 -0.09508431 0.16790026
0.29970685 0.1290025 -0.09822111 -0.15762535 -0.1689188 -0.08802372 -0.42233616 0.18493663
-0.38796726 -0.4946074 0.24019463 -0.049948573 0.21452798 -0.34314457 0.15243788 0.458112
-0.4241775 0.33445466 -0.068977654 0.0725928 0.29615453 -0.109973535 -0.45784307 0.47428343
-0.34165734 -0.2959336 -0.3993872 -0.14259958 0.3707632 -0.022244953 0.08344618 -0.0065357536
-0.19565786 0.19698654 -0.023202054 -0.13203529 -0.16143204 0.15893893 0.18870708 -0.39185172
0.033045385 0.21130368 0.06619876 -0.5094642 0.12035713 -0.2755274 0.0054454305 -0.26678467
-0.38203204 -0.31639138 0.031153437 -0.15123679 -0.19424245 -0.36487234 0.397604 0.085462466
0.6006811 0.23098095 -0.023422766 -0.26559687 -0.33684567 -0.16631964 -0.1318832 0.3539288
0.11269129 -0.2805548 0.27272558 -0.13128157 0.33333144 0.0591208 -0.14248617 -0.22824948

weight f4 [128, 5]
00000000: ed42 0fbf ed54 04be 29da 213f 6b17 c4be
00000010: 9ff7 2a3d b63b 8d3d 5901 543d cbd9 e6be
00000020: a55e c9be c135 93bd 1cf1 ca3e 54a9 3dbe
00000030: aa77 7abd 74ff 6a3e 4daa 783c c86d 8abe
00000040: 988d 6e3e 0367 ebbe 6283 503e f776 c4be
00000050: 993f 9fbe f274 cd3e 65c2 573d 4027 85be
00000060: e389 863e af8f 91be d97f 043e 6a80 a7be
00000070: 8e6b bcbe 9e9e e13d e7e6 3ebe 6a12 c73d
00000080: a676 9fbd 99df c4bd 9321 17bf 7e2b a13d
00000090: 9140 59be 2e92 5d3e 1d4f 7ebe b453 8a3e
000000a0: 1e99 f7be 7f75 4cbe 622e 833c 1611 283d
000000b0: e767 883e dbd6 bdbd 013c f33c 88a6 83be
000000c0: e688 53bd 947e d8be 4130 cabc 4970 21bf
000000d0: ee27 24be 4231 983d 8e07 b1be 8df1 913e
000000e0: 74e4 703c eb96 49bd 8771 8b3e 14b6 cbbd
000000f0: 3978 583e 1293 9d3d 2b78 06bf ca78 8ebe
00000100: 59c4 52be d376 89be fcfb a03e 0093 91bd
00000110: 7652 89be 6a37 85be 3662 e2be dc08 9a3e
00000120: f4d3 21be 0ab5 a13e 54b9 15be 5a2b f43d
00000130: 5da1 e03e 9730 1dbe 0f2f 57be e8d7 e7be
00000140: b827 4d3e 9e99 b93e 89d2 f2be 92f6 db3c
00000150: 27fc 06bf 75c2 76bd 4806 03bf d23e c13e
00000160: 602a 283d 1821 e3be fc41 32bf 9b21 1b3d
00000170: c9b3 bfbe 3042 a93e 092e adbe f5e3 57bd
00000180: dfc8 083e c814 4e3c d830 08bf 9850 a83e
00000190: c98e 87bd c792 343e c05c e43d 8671 babe
000001a0: 2893 4dbe 7c25 1bbe 8577 32be 8c59 2d3e
000001b0: 706e a0bd d03d b6bd 741e bcbe 7fdb 4dbe
000001c0: 1ea9 a93e 0dcb 57be c25f 11be 5af4 a1be
000001d0: a14a f33d 9cea 8f3e a203 e0be b2ff 253e
000001e0: a0c5 ecbd 98e7 abbe 52da d7be 46ab 9d3e
000001f0: 4196 dbbe 9738 d2be 7f5b d83d 1e89 193d
00000200: 5f65 5a3d 3823 4fbe c4e8 65bd 04d3 ce3e
00000210: 0bcc 89bd 0627 a2bb 791a 95be a871 843d
00000220: 22c1 1fbe 8d1f acbd 3193 9ebe 6815 d2be
00000230: a92e 31be c1c9 90be 3c3b 15bd 5e73 493e
00000240: 3bc8 0fbf d71d bebe 5c27 9b3e 16af b8be
00000250: b92a babe 6e5f 603e a015 6a3d fcb4 913e
00000260: b267 f6bd d1dd 613c 70e1 abbe 7051 e1be
00000270: 626c 123e d0db ecbe cced 283d 0fe3 673e
00000280: 03a0 f7be f55b d7be 8a5a 9abe 78b9 cebe
00000290: fb5a 03be c5c8 9a3e b2bc 22bf 6e6a 06be
000002a0: 2634 86be f3f8 e33e eb51 323d a2b1 e1bc
000002b0: 32e9 52be 59df cdbd 45c4 8a3e b042 b2bd
000002c0: 4119 33be 6758 d93c caf4 b43d c7d8 02bf
000002d0: ecc0 abbc 4254 07bf 3a00 1dbd e70d 4fbe
000002e0: 857d cebe 6338 b13e 64a6 34be 25b9 9abd
000002f0: e85b 59be 290a df3c 40c8 b5be 0f70 5cbd
00000300: 3b28 533e 9d8d 2abe c874 25be 0085 23bc
00000310: 10de a0bd 5820 90be f04c b1bd 100a 3fbd
00000320: 591c 7dbe 7ca7 b23e 52b5 b53d a1bd e8bc
00000330: 610a 74be 2996 b03d 5fb7 e33d 12cd 0b3e
00000340: 0083 ac3e 1bd6 96be 2d9b cd3e 9083 163e
00000350: ad9d bc3e 519b 2fbf 07fb b43e 0d2d 513d
00000360: 6989 06bf 85ba d5be 344e 83be 507e 37be
00000370: 9253 963e 5fb6 14bf e763 4fbf f17b dd3d
00000380: bc72 f53e 9113 93be 9b1a 4dbe c05a 55be
00000390: fc6a 8a3e a5f1 8fbd ce85 603e 060a 1abe
000003a0: 4ea9 9fbe 3a85 d1be 5a9e 4ebd a959 bd3e
000003b0: 1e45 15bf 4278 a83d b391 6f3d b406 a3be
000003c0: caf3 a03d 0f42 95be 264b 36be 41ff eabd
000003d0: 7a3c 4ebe 5894 2a3d 02b1 c7be 745f e6bd
000003e0: f6b1 d23e 3f77 cabe a6e0 123c b3bd 0bbf
000003f0: 77c9 8bbe 8ce5 00be 969d 1a3e 5b04 0e3e
-0.55961496 -0.12923022 0.6322351 -0.38299116 0.041740056 0.068961546 0.051759098 -0.45088038
-0.3933002 -0.07187987 0.39637077 -0.18521625 -0.061149277 0.2294901 0.015177322 -0.2703688
0.23296201 -0.4597703 0.20362619 -0.38372013 -0.3110321 0.40128285 0.052675623 -0.26006508
0.26277074 -0.28429934 0.12939395 -0.3271516 -0.36800808 0.11016582 -0.1864277 0.09720309
-0.07786302 -0.0961296 -0.59035605 0.078696236 -0.21216036 0.21637794 -0.24834867 0.27016985
-0.48359007 -0.19966696 0.016013328 0.04103192 0.2664177 -0.09269496 0.029691698 -0.2571299
-0.05164423 -0.4228407 -0.024681212 -0.6306196 -0.16030857 0.0743127 -0.34576076 0.285046
0.014702905 -0.049216192 0.27235052 -0.09946838 0.21139611 0.07694067 -0.5252711 -0.2782653
-0.20582713 -0.26848468 0.3144225 -0.07108116 -0.26820725 -0.2601884 -0.44215554 0.30084884
-0.1580351 0.31583434 -0.14621478 0.11922331 0.4387311 -0.15350567 -0.21014045 -0.4528191
0.20034683 0.36250013 -0.4742625 0.026850972 -0.52728504 -0.060244042 -0.5118146 0.3774324
0.041056037 -0.44361186 -0.69631934 0.037873846 -0.37441853 0.3305831 -0.33824185 -0.05270763
0.13357876 0.012578197 -0.5319953 0.32873988 -0.06619031 0.17634116 0.11150503 -0.36414737
-0.20075667 -0.15151018 -0.17428406 0.1692869 -0.07833564 -0.088985085 -0.36741984 -0.20103262
0.3313684 -0.21073551 -0.14196685 -0.31631738 0.11879469 0.2810868 -0.43752772 0.16210821
-0.115611315 -0.3357513 -0.42158753 0.30794734 -0.42888072 -0.410588 0.105643265 0.03748428
0.05331933 -0.20228279 -0.056130186 0.40395367 -0.06728371 -0.0049484996 -0.2912176 0.06466991
-0.15601018 -0.08404455 -0.30971673 -0.41031957 -0.17302956 -0.28278926 -0.036433443 0.19672915
-0.561649 -0.3713214 0.30303466 -0.3607108 -0.3636072 0.21911404 0.05714953 0.28458393
-0.12031497 0.013785795 -0.33570433 -0.44007444 0.14299157 -0.46261454 0.041242406 0.2264521
-0.48364267 -0.42062345 -0.301472 -0.40375876 -0.12827675 0.302313 -0.63569176 -0.13126537
-0.2621166 0.4452587 0.043535154 -0.027550522 -0.2059677 -0.10052366 0.27102867 -0.08704126
-0.17490102 0.026531411 0.08835752 -0.51112026 -0.020966016 -0.5286294 -0.038330294 -0.20220147
-0.4033014 0.34613332 -0.17641598 -0.07554845 -0.21226466 0.027226524 -0.3550434 -0.053817805
0.20620815 -0.16655584 -0.1615783 -0.00998044 -0.07854855 -0.28149676 -0.08657253 -0.046640456
-0.24717845 0.34893405 0.08872475 -0.028410735 -0.23832084 0.08622391 0.1111896 0.13652447
0.33693695 -0.29460225 0.40157452 0.14698625 0.36839047 -0.6859637 0.3534777 0.051068354
-0.5255342 -0.41743866 -0.25645602 -0.17919278 0.29360634 -0.58090776 -0.81011814 0.108146556
0.47939098 -0.28725865 -0.2002968 -0.208354 0.27034748 -0.07028512 0.21926042 -0.15042886
-0.31183857 -0.40921956 -0.050443985 0.36982468 -0.5830859 0.08226062 0.05848856 -0.31841052
0.07858999 -0.2915196 -0.17802104 -0.11474467 -0.20140257 0.041645378 -0.39002234 -0.11248675
0.41151398 -0.39544103 0.008964693 -0.54586333 -0.27302143 -0.12587565 0.15099177 0.13868849

weight f4 [128, 128]
00000000: b050 37bd 4b36 ffbc 9280 8abd 9cca ddbd
00000010: 2eca b8bd f424 90bd c4a7 f3bd afd1 443c
00000020: 1c37 14be 9add aebd 580a cdbd e798 3bbd
00000030: 67d4 79bd dbdf 913d f484 ff3c fcf4 bdbc
00000040: e483 75bd 057b e4bd 0356 93bd beb2 95bd
00000050: 0049 d3bd 1cde 57bd 5a8a efbc 92aa f4bd
00000060: 08c8 c93c f012 b3bd 276f 63bb 5ec8 e9bd
00000070: 342c 02bd 477e 66bc 8923 213c 5a36 69bd
00000080: af11 9d3d ce91 82bb 5fa1 05be a546 b9bc
00000090: 182f c7bd 3879 c8bd 45f3 073b ec34 b0bd
000000a0: a9ee 85ba 3b35 e3bd 9983 f5bc 95f3 96bc
000000b0: e2a5 e0bd 85d5 74bd 0211 b5bd 2032 fe3b
000000c0: e566 24bc 80ee 343b 79f5 debc d236 b03b
000000d0: 614a 40bd bd98 afbd 7771 883c e8d4 01be
000000e0: e624 8bbd 4a0e 0a3d 8ca5 ecbd c6cf 0fbe
000000f0: f603 34bc 7a25 fcbc ebc5 34bd c776 0ebe
00000100: 9feb a0bd 15f0 ebbd 9f0c dd3c 21ff e33c
00000110: 3bd0 0fbe f48d 173c 3cda 25bd ab97 383c
00000120: 00ee 3ebd c279 a3bd 352d 03bd 75cb f2bd
00000130: 98da 14be ea59 16be 9c89 23bb 3346 4a3c
00000140: 34b6 14be 499e 83bd dcc8 0fbe f24f 9fbd
00000150: 94b3 e9bd 0acb d5bc b1be 6f3c 7e90 e4bd
00000160: 8db2 e3bd 3610 cebd e7df 04be ce93 fcbd
00000170: 9e9d 17be 6b96 bebd 7bfb e9bd ce09 2b3c
00000180: 660a d9bc 7c32 b3bd f457 8e3c 9d13 c4bd
00000190: 4f80 5ebd 688b b1bd ab68 0dbd 606a cdbc
000001a0: 0a15 af3c d610 d7bd 369c 7abd 56b7 b93c
000001b0: be24 b4bd 4615 613d b89b ac3c fd15 683c
000001c0: 78ae 433c 7dea 89bc f657 74bb 0314 5f3c
000001d0: 9217 b6bd 9804 2fbd 3e47 8abd e442 e6bd
000001e0: bc79 f33b 1aa4 29bc c022 dabd 85ef 98bc
000001f0: fabe 0bbe 19c0 ac3c 3cfa 16be 78bc 45bd
00000200: aadc 72bd 0422 3fbc e0b6 edbb 5092 c1bb
00000210: 7b6d 3abd 295b 643c 8c26 153c ef15 87bd
00000220: 4226 9fbd d6fd 083d 2da3 61bd 3ddd b8bc
00000230: a5bb de3b 8922 aebd 3fda 98bd a7a4 8c3d
00000240: 5082 d93c df0e 0bbd 7fa9 ebbd a890 c5bd
00000250: 007f e1bd bcdd 17ba b596 a33d 7f89 01be
00000260: 4caf ecbc 8123 8bbd 318e 49bd bff5 a8bc
00000270: 15dd d5bd f437 4abd a6d0 b1bc 30ed 50bd
00000280: 70b7 a5bc ff88 08be 4549 62bc 944b a1bd
00000290: e5e2 fabd c3e4 86bd ba3d dd3c 3664 6a3d
000002a0: c2d2 04be 979d ebbd 5b50 06be 59a8 75bd
000002b0: 6c05 85bd 97ee 24bc 97eb e6bd a5ba fa3d
000002c0: c5a8 8a3c ddcb 9d3d 4add debd 10ac dfbd
000002d0: 37fb f3bc 8455 15be b8cb 0abd 39e7 b0bd
000002e0: fab3 dfbd dd99 ddbd 10d3 9cbc 2644 903b
000002f0: 78a3 f53b b939 e03b 2877 cdbd e54a 0dbe
00000300: 918e 95bd 009d 49bb 8074 9e3c 3e86 27bc
00000310: d8a4 07bc 0fa7 d2bd 37c6 11be e350 dcbd
00000320: b59d 483c 02a7 09bd bb30 923d 24dc fabc
00000330: 1d80 01be 799a 7dbd 0c33 3cbd 5ffe ecbd
00000340: 87d6 b7bd be96 6b3d 1c67 52bd b925 0cbe
00000350: 5593 aabd 892f bfbd b99f 0ebe 9831 e0bc
00000360: bb01 09be 0adc abbb 58c8 12bd 2827 03bd
00000370: 2616 f4bd d7d0 13bd 830d edbd 5d58 14bd
00000380: c08f a9ba e2f6 b0bc 9efa 12be d838 49bd
00000390: da64 c0bd dabc b0bd e397 adbc ec47 60bd
000003a0: e378 f0bd 891a 773c 0685 2d3c b9aa 0ebe
000003b0: 027b 28bd 8a26 acbd 69b6 57bc 6a6b a2bd
000003c0: 2b9c 7ebc 90ad e9bd 7fb0 9bbd 77a3 9dbc
000003d0: 6386 013e 96d1 673d a269 06be 5b02 12be
000003e0: 5bd2 bf3c 92f3 0fbe 4779 3abd a63e b4bd
000003f0: 2b4d 08be 0455 06be dda6 1abd 9650 cdbd
-0.044754684 -0.031153819 -0.06762804 -0.1082966 -0.09022938 -0.07038298 -0.11897233 0.012012883
-0.14474148 -0.08538361 -0.100117385 -0.045800116 -0.06099358 0.07122775 0.031191327 -0.023188107
-0.059940234 -0.111562766 -0.0719414 -0.07309483 -0.10316658 -0.052702054 -0.029240776 -0.11946596
0.024631515 -0.087438464 -0.0034703703 -0.1141517 -0.031780437 -0.014068193 0.009835132 -0.0569366
0.076693885 -0.0039846664 -0.1304984 -0.022616694 -0.09725779 -0.09788746 0.0020744365 -0.08603844
-0.0010218221 -0.11094137 -0.029969977 -0.018426696 -0.1096914 -0.05977394 -0.088411346 0.00775744
-0.010034298 0.0027607977 -0.02721666 0.005377629 -0.046945933 -0.085740544 0.016655667 -0.12678874
-0.06794147 0.033705033 -0.11555013 -0.14044103 -0.0109872725 -0.030779589 -0.04413406 -0.13912497
-0.07857441 -0.115204014 0.026983557 0.027831616 -0.14044277 0.009250153 -0.040491328 0.011266629
-0.046613693 -0.07982208 -0.032025535 -0.118552126 -0.14536512 -0.14682737 -0.0024953848 0.012345838
-0.1452263 -0.06426675 -0.14041466 -0.0777892 -0.11411205 -0.026097793 0.014632867 -0.11160372
-0.1111804 -0.10061686 -0.12976037 -0.12332879 -0.1480622 -0.09306034 -0.11424919 0.010439349
-0.026494216 -0.087498635 0.017375924 -0.095740534 -0.054321583 -0.08669168 -0.034523647 -0.025075138
0.021372337 -0.10501258 -0.06118413 0.02267043 -0.087960705 0.05495193 0.021070346 0.014165399
0.011943452 -0.016835446 -0.0037283874 0.013615611 -0.088912144 -0.04272899 -0.067518696 -0.11243227
0.0074302834 -0.010354066 -0.10651159 -0.0186689 -0.1364707 0.021087693 -0.14743894 -0.04827544
-0.059292473 -0.011665825 -0.0072544664 -0.0059073344 -0.045514565 0.01393775 0.009103429 -0.065959804
-0.07770969 0.0334452 -0.055087257 -0.022566432 0.0067972713 -0.08502681 -0.07463502 0.068673424
0.026551396 -0.03394973 -0.11506938 -0.096467316 -0.110105515 -0.0005793234 0.079877295 -0.12650107
-0.028892182 -0.06793881 -0.04920787 -0.020624993 -0.10442559 -0.049369767 -0.021705937 -0.05100745
-0.020229071 -0.1333351 -0.013811414 -0.078757435 -0.12250308 -0.065866016 0.027006973 0.057224475
-0.12971023 -0.11504667 -0.1311659 -0.059975002 -0.06495175 -0.01006665 -0.11275404 0.12242631
0.016926179 0.077048995 -0.10882051 -0.1092149 -0.029782875 -0.14583403 -0.033885688 -0.08637852
-0.10923 -0.10820363 -0.019143611 0.004402655 0.0074962936 0.0068428186 -0.10032493 -0.13798101
-0.07302583 -0.0030763745 0.01934266 -0.010224877 -0.008279048 -0.1028577 -0.14235769 -0.107576154
0.012244632 -0.033606537 0.07138201 -0.03062255 -0.12646528 -0.061914895 -0.04594712 -0.11571955
-0.08976465 0.057516806 -0.051367864 -0.13686265 -0.083288826 -0.093352385 -0.13928117 -0.027367398
-0.13379566 -0.0052447366 -0.035835594 -0.032019764 -0.11918287 -0.036087837 -0.11574843 -0.036217082
-0.0012936518 -0.021602098 -0.14353415 -0.049126476 -0.09394236 -0.086297706 -0.02119059 -0.05475609
-0.11741807 0.01508201 0.010590797 -0.13932313 -0.041132934 -0.08405788 -0.013166049 -0.07930644
-0.015540163 -0.114100575 -0.07602023 -0.019242985 0.1264892 0.05659636 -0.13126233 -0.14258711
0.023415735 -0.14057758 -0.045525815 -0.08801012 -0.13310687 -0.13118368 -0.03775679 -0.10025136

bias f4 [128]
00000000: 26b2 eebd 79f1 e73c c2db 33bc a8b4 aebd
00000010: 0593 76bd 7a5d 7ebd bcb3 eebd e0af a4bc
00000020: ab8d 00be 4a94 0bbe 6411 fabd 20b6 1abd
00000030: 499c 09be cb7a babd df22 45bc 83c5 48bd
00000040: 1d6b cbbd fedb 65bc cb1e e1bd c06c 0fbe
00000050: 78bd ffbd 7e60 c2bd 5c12 cabd 8094 0ebe
00000060: 29eb d7bc e16b fcbd eaa2 17bc fce5 b23a
00000070: fa19 f4bd 8696 e33c e636 2abd f4a5 ffbc
00000080: e90b d4bd 44e2 2cbd 858d 9cbd 6930 cebd
00000090: 140e 84bc 6d7b 85bb a851 d0bc 8d45 a3bd
000000a0: 7a9b 61bd 1ead ec3b afeb 40bc 98fe 303c
000000b0: d821 963c d655 e5bd 9718 18bd 789d fe3c
000000c0: 9283 0d3e 55aa ddbc 079d ac3c 667b 1bbe
000000d0: cda1 71bd e4e3 74bd bcf8 9e3d 9792 9fbd
000000e0: 628f 47bd 5ec8 f13c 0201 0fbe 3b2b be3d
000000f0: 4d8a 4dbd fbbb 76bb 0a4e 513c d435 0b3d
00000100: f906 a4bd 8209 84bd 7d98 5fbd 95f9 bdbd
00000110: 53b5 81bd 6cfb 20be 86cb 6dbc dc72 28bd
00000120: 6b06 a9bd 8c2d 0abe 0074 2c3c 589d 65ba
00000130: d3aa 013c cc49 1cbd 08e2 c7bd 9249 9bbb
00000140: cb5a afbc dc89 f33c 29a2 1cbe 01d2 65bd
00000150: 0b1a 21bd 5cd6 b9bd 1cfa 8bbd accc b53b
00000160: b7e1 01be 99a9 76bc 65e5 44bd 7f45 eebd
00000170: a011 56bd 10fb 2cbd 369e 37bd 12b1 9fbd
00000180: b527 96bd a7af 8dbd b9be edbd 1460 29bd
00000190: f123 91bc cac0 0fbc a567 fcbd a317 aa3c
000001a0: 2929 56bd c4f4 b5bb 7f8d 24bd 9761 1fbe
000001b0: 0f31 dcbd e264 c7bd 9f13 54bc 2e4a 47bd
000001c0: c577 d8bd 24cb 1d3c 169e b4bd 8245 e9bd
000001d0: 8bfd 48bd fa1d 33bd 91b9 f4bd cb7d 04be
000001e0: 76d7 edbd 0529 65bd 83c7 1fbe 6946 4abd
000001f0: 7ab7 c5ba 61da d93c 8827 b8bd 2187 2abd
-0.11655073 0.028313385 -0.010977687 -0.08530551 -0.060198803 -0.062100865 -0.11655375 -0.020103395
-0.12554042 -0.13630787 -0.12210348 -0.037771344 -0.13438524 -0.09105452 -0.01203224 -0.049016487
-0.099325396 -0.014029501 -0.109922014 -0.14006329 -0.1248731 -0.09491061 -0.09866783 -0.13923836
-0.02635725 -0.12325264 -0.00925515 0.0013648863 -0.11919017 0.027781736 -0.04155626 -0.031207062
-0.10353834 -0.04220797 -0.0764418 -0.10067827 -0.016119994 -0.0040735514 -0.025429562 -0.0797225
-0.055079915 0.0072227856 -0.011774941 0.010802887 0.018326685 -0.111980125 -0.037132826 0.031080946
0.13819721 -0.02705876 0.02107097 -0.15183792 -0.058992196 -0.059787646 0.07762286 -0.07791632
-0.048720725 0.029514488 -0.13965228 0.09285589 -0.050180722 -0.0037648666 0.012774954 0.03398688
-0.080091424 -0.06447126 -0.054588784 -0.092761196 -0.06333413 -0.1572091 -0.014513856 -0.041125163
-0.08253177 -0.13493937 0.010525703 -0.0008759103 0.007914263 -0.038156316 -0.09759909 -0.004738995
-0.021405598 0.029728822 -0.15296234 -0.05610848 -0.039331477 -0.09074089 -0.06834814 0.0055480804
-0.1268376 -0.015055084 -0.04807033 -0.11634349 -0.052262902 -0.04223162 -0.044828616 -0.07797445
-0.07331792 -0.06918269 -0.11608643 -0.041351393 -0.017717334 -0.008773992 -0.12324456 0.020763224
-0.052285347 -0.00555286 -0.040174004 -0.15564571 -0.10751545 -0.09736039 -0.012944131 -0.048654728
-0.10569719 0.009630952 -0.08819215 -0.11390211 -0.049069922 -0.04372976 -0.119494565 -0.12938611
-0.116133615 -0.055947322 -0.15603451 -0.049383555 -0.0015084588 0.026593389 -0.08991915 -0.041632775

weight f4 [128, 128]
00000000: 3251 eabd af5d 93bc 9a3d 0fbe 384b 883d
00000010: 40e8 22be 9496 93bc fde6 4cbd e3be 52bd
00000020: f4e8 edbc 28dc 54bd a8dd 3abd 3e6b 6dbd
00000030: a2eb 133b c33b 92bd 3e02 f53d 601d 79bd
00000040: eebc c4bc 35eb 35bc e405 21bc 3b73 de3b
00000050: 26d8 f8bc 987e 88bd 1061 f63b 761b 8abd
00000060: f424 e33c ddd4 00bd ad8f ed3b 97fc e5bd
00000070: 0fae d43b 8932 bfbd c095 d7bd f60d 823c
00000080: c7bf 81bd ab85 14be 6c37 29bc c28a 113c
00000090: c4d8 bebd b544 d4bd ddf7 b03d c41b 4abd
000000a0: 3991 eabc 036a 6dbd 956e 11be 0349 47bd
000000b0: 7531 a0ba 5483 493c f969 08be 6a8d 573d
000000c0: f713 11be 48ab 7ebc 246b 603c 2fa4 02be
000000d0: 366d c9bc 8225 4dbd 4d50 883d 288c 8fbc
000000e0: 389f ca3b 58b0 a83c f136 8b3c 0b24 0bbe
000000f0: 78f2 dabc fc60 b1bc 7438 0dbd 2d36 a2bc
00000100: 62ed 06bd 5cde e1bc 8020 7f3c d4ca 8f3c
00000110: f88d 0cbc d283 e13c eea6 1cbd 473d adbd
00000120: 48c6 abbd a40c 7c3c 9c6b 71bd 9b24 78bb
00000130: ab00 25be a0f6 07bd 0811 82bd 76fa 7d3d
00000140: 4aee 92bd 0dc2 5cbd 6d92 d1bc 329d b8bd
00000150: 5bd2 fcbd b4f7 f8bd ee83 dbbd c9c2 5dbb
00000160: f15b b83c eca7 08be c06c 20bd 4e42 fdbc
00000170: d9ad 06be 0ca0 be3b 50e3 833d 29b6 3abd
00000180: c452 cb3c 8792 13be 15de 37bc 7e06 33bd
00000190: a268 9dbd 8a3f 0cbe a35c 90bd b925 923d
000001a0: ae1d f0bd 3632 dcb9 fee9 09be 10e3 f3bd
000001b0: 560a f0bc 408d a4bc 1b98 8fbd aa10 d5bb
000001c0: b0ab e03c 3b9e a83c 95ab b0bd 2760 ab3c
000001d0: ac44 fcbd c529 68bd bd58 1c3c b867 bc3b
000001e0: ae0b e7bd ed06 47bd ea24 ddbd df35 12be
000001f0: da9c 8ebc 8825 b4bd 3644 01be e3f3 55bd
00000200: 8584 bcbd 6646 43bc df14 0fbe f7da d1bd
00000210: dd83 9cbd b28c de3d 6db6 7dbc c5cf d93c
00000220: 45cb 15be df5c e1bc 65a3 f1bd 7e1a dcbd
00000230: 31b6 bcbd e050 22bd 11bd 8c3d ab07 8f3d
00000240: 678b 92bd 8b4e 69bd 49d8 fbbc 9a1c e7bd
00000250: 1ce9 14be 15d0 cdbd 8829 7fbd 4bcc a5bc
00000260: e311 8e3d 877d 04be dd6b cbbc 2561 99bc
00000270: 783d 08be f3f0 57bd f457 ecbc b0c8 c2bd
00000280: 9494 a4ba 046f debc 9741 fcbd 0cc5 23bd
00000290: 6534 48bd 9460 dc3a 489c e53c 2b30 40bd
000002a0: 0bde e3bd 25a3 98bd 1dfb 823c 2f40 a3bd
000002b0: d8a3 b7bd 4d72 dabd 92b0 2ebd 104d 3f3c
000002c0: a49f 90bd f875 103d d0a5 87bb c678 0bbe
000002d0: d1eb e7bc 884c 10be 421d 87bd 2a4c 04be
000002e0: cb3e 11be 2c19 0abd 4bff d2bd a672 65bd
000002f0: 5be8 a1bd b66d cfbd 5c5e b8bd b9db c6bd
00000300: 3392 973d 7a65 22bd 98d0 21bd f710 dfbd
00000310: 6a05 f9bc 555b d6bd a07f fabb d4b6 cd3c
00000320: 65d8 bebd 9530 e03b 0b98 943d c836 76bd
00000330: 6551 cdbd 4323 a73c b60d 9a3d cbc9 103b
00000340: ce99 55bb 90d8 033c 9493 003c 80c2 dc3c
00000350: 3c10 5bbd 285c 1c3c 18b5 02be 59bc 66bc
00000360: 8be1 893d a8fd 853c 5aee 18bd 4a91 69bd
00000370: 3127 19bd 1e39 29bd 5c88 f5bd 0d7a 6a3d
00000380: 5750 ae3d d178 d6bd dfa2 c53c 5ed2 94bd
00000390: e6d6 f5bd d816 92bd 77f9 59bd 4435 a5bd
000003a0: 1400 3bbd 5280 9dbd 8566 dcbc 25cc 84bd
000003b0: 57db d7bc a547 ab3d 4bf3 03be 2881 173c
000003c0: 6908 c9bd c1e8 0ebe f004 e0bd d535 e8bc
000003d0: 9d53 83bd a8c3 6cbc a838 8cbd 4cba d0bd
000003e0: 0818 49bd 21cf 06bd e5f9 4c3b d8b4 423d
000003f0: eea3 a0bd 19c9 a5bd 08fc a2bd 77f8 51bd
-0.11441268 -0.017989008 -0.13988343 0.06654972 -0.15908909 -0.018016137 -0.050024975 -0.051451575
-0.029041745 -0.05196777 -0.045621544 -0.057963602 0.0022570868 -0.07140305 0.11963318 -0.06081903
-0.02401587 -0.011103441 -0.009828065 0.006788639 -0.030376505 -0.06664771 0.007518895 -0.06743519
0.027727582 -0.031453002 0.0072497935 -0.11229818 0.006490476 -0.09335811 -0.105266094 0.015875798
-0.06335407 -0.14504115 -0.010328155 0.00888318 -0.093186885 -0.10364667 0.08641026 -0.049342886
-0.0286337 -0.05796243 -0.1420234 -0.048653614 -0.0012221771 0.0122993775 -0.13321675 0.052625097
-0.14167772 -0.015543766 0.013697419 -0.12757944 -0.024588209 -0.0500846 0.06655941 -0.017522886
0.006183531 0.0205919 0.016993972 -0.13587968 -0.026726946 -0.021652691 -0.034477666 -0.019801224
-0.03294123 -0.02757185 0.015571713 0.01755277 -0.00857877 0.027528677 -0.038245134 -0.08458953
-0.083874285 0.015383873 -0.058940515 -0.0037863615 -0.16113536 -0.033194184 -0.06350905 0.062006436
-0.07174356 -0.053896 -0.025582517 -0.090143576 -0.123448096 -0.121566206 -0.10718523 -0.0033838025
0.022504779 -0.13345307 -0.039166212 -0.030915406 -0.13152255 0.005817419 0.06439841 -0.045583878
0.02481974 -0.14411364 -0.011222382 -0.043707363 -0.07685973 -0.13696113 -0.07048919 0.07136101
-0.11724411 -0.0004199908 -0.13468167 -0.11908543 -0.029301804 -0.020086884 -0.07011434 -0.0065022307
0.027425617 0.020583263 -0.08626477 0.020919872 -0.123177856 -0.05668046 0.009542641 0.005749669
-0.112815246 -0.04859059 -0.107980564 -0.14278363 -0.017408777 -0.08796221 -0.12623677 -0.05223454
-0.092049636 -0.01191864 -0.13972805 -0.10246842 -0.076423384 0.10866679 -0.015485388 0.02658833
-0.14628322 -0.027510105 -0.11798743 -0.107472405 -0.09214438 -0.03962791 0.06871999 0.069838844
-0.07155495 -0.05695967 -0.030742781 -0.11284752 -0.14542049 -0.10049454 -0.062295467 -0.020239016
0.06937005 -0.1293851 -0.024831707 -0.01872308 -0.13304698 -0.05272002 -0.028850533 -0.09510934
-0.0012556487 -0.027152546 -0.12317198 -0.03998284 -0.048878092 0.001681345 0.028028622 -0.046920937
-0.11126336 -0.07452992 0.01598888 -0.079712264 -0.089667976 -0.106663324 -0.04264886 0.011676088
-0.07061699 0.035268754 -0.0041396394 -0.1362029 -0.028310688 -0.14091694 -0.06597377 -0.1291968
-0.1418411 -0.033715412 -0.103025995 -0.05601754 -0.079056464 -0.101283476 -0.090023726 -0.097098775
0.07400932 -0.039647557 -0.03950557 -0.10891908 -0.03039809 -0.10466639 -0.0076446086 0.025111593
-0.09318618 0.006841729 0.072555624 -0.060110837 -0.100252904 0.020402556 0.075221464 0.0022092934
-0.0032592895 0.008047238 0.007847685 0.026948214 -0.05348228 0.009543456 -0.12764394 -0.0140829915
0.06732472 0.016356304 -0.037336685 -0.057023324 -0.03739089 -0.041314237 -0.11988899 0.057245303
0.08511417 -0.10472263 0.024125515 -0.07266687 -0.12003879 -0.07133263 -0.053216424 -0.080668
-0.04565437 -0.07690491 -0.026904354 -0.0648425 -0.026349707 0.083632745 -0.12885778 0.009247102
-0.09816057 -0.13955976 -0.10938442 -0.028345982 -0.06412432 -0.014450945 -0.06846744 -0.10191783
-0.049095184 -0.032912377 0.0031276878 0.047535747 -0.07843767 -0.08094997 -0.079582274 -0.051262345

weight f4 [128, 128]
00000000: 557d e93c 7abf da3d 1114 9d3d 6420 0b3d
00000010: fdc7 45bc a950 a3bd 9c6f c13d c6ca 05be
00000020: 189b 493d 5235 163d 69c0 c6bc b9a8 613c
00000030: 075b c63b 31a1 3f3d 94cf 02be c006 2b3d
00000040: 69c6 d0bc 0726 66bd dc71 92bd 4e51 693d
00000050: 0d85 323d fe07 60bc a5b7 0e3e df55 c13c
00000060: 7b16 bbbb 840d 55bd ffca 3cba 0412 8d3c
00000070: 2779 cfbd 0053 29bd 3016 9cbd a08e 413d
00000080: cf22 e1bd eb06 433d 88c5 5b3d d155 443d
00000090: 5ed5 94bd 13a8 853c 2576 f5bd a670 1c3c
000000a0: 87e6 01be 7ab3 d83c 577d cebd c720 eebc
000000b0: ba86 473d 3061 a83b ff81 77bd 27f2 7cbb
000000c0: 14bf 97bc 40a2 ccbb d723 913c cf8d d03c
000000d0: b2de 0bbd 09a5 38bb 8df6 01bc 13ff a7bd
000000e0: 5f7c 8cbd bf95 74bd 2f86 e4bd 64bd 70bd
000000f0: 6369 e03c 764a cbbd 1937 28be 885b dbbc
00000100: ce8f 4dbd 84d0 cbbd 4ac9 98bd b920 bebc
00000110: 75e9 123e 83a8 dcbb d6dc 8f3d 560e 153e
00000120: 9ac7 dd3d 6fab 9e3c 8ff9 253d 39af d5bd
00000130: 2ad6 c93c 040a 06be 6bc8 11bd eecc b33c
00000140: 18fc aabc e766 0fbd 5796 ab3b 69b9 0e3c
00000150: 4394 6fbc a987 5b3d 872f a7bd 6150 043d
00000160: 9b36 9f3c ae80 59bc 113f 0c3b d63b a3bb
00000170: 295e 6bbd b439 7d3d ef82 dfbc 55f8 98bd
00000180: d19e 81bd eb1b 513c 4526 bbbd f6f3 0f3d
00000190: 0ed7 e9bd ab85 82bc b9cd 6e3c ce83 8e3b
000001a0: 9df3 8e3c 8c61 96bd ae1e d23c 958c 24bc
000001b0: 9ba8 c13c 3a83 973d 11e4 933d fc31 823d
000001c0: bcef b43d 460b 9d3c dce3 843c 750d a6bc
000001d0: 348d bbbd 037a 913c 54fd 893d 2f83 2e3b
000001e0: 3236 b0bd 0122 e4bd c818 0b3d c7d4 26bd
000001f0: ca91 c3bc b8de b43c 77ba d43c 7b4e 40bb
00000200: eec7 bdbd 05a9 d53c 68ab 12be 5514 debb
00000210: 12eb 36bc 4c59 01be 939d ac3c 231c 02bd
00000220: 7294 76bd 5870 69bd aae8 07bd 9c6d 9abc
00000230: 3b38 49bd 5e90 62bd 101a 1cbd 689b bcbd
00000240: c2a4 afbd 7bd2 0bbe 1ed7 7bbd 3f53 c73c
00000250: 3056 8bbd aece 6bbd 96d6 58bc 79ef 803c
00000260: 2af9 483c 7af2 933d ac40 91bd d265 00be
00000270: a1c7 d33c 9d62 b3bc 45ce e8bd 96f0 c63c
00000280: 81eb 0fbe 7da4 843c d9a5 21bd 534f 9bbc
00000290: 8afc f7bb 8ab7 cabd 438a 28bd a549 67bd
000002a0: b181 6ebc 639d 423c 8ede 8a3c 9412 f7bd
000002b0: f502 81bd 44af 68bd 22b4 84b8 41d1 a2bd
000002c0: 4172 f4bb 236d dc3c d06d 09bd 53fe b8bc
000002d0: ccbd b6bd 30e4 00be f49a 3a3d 57da c2bd
000002e0: 880e e0bd e60a ef3b b621 a2bd 8236 123e
000002f0: 6a0e d5bb 208f 9cbc 16b6 86bc 3772 30bc
00000300: 4042 bf3b 1e75 fd3b afaa 043b cd98 f3bd
00000310: 6173 69bb 7f12 2bbd 92de 59bd 5825 dabc
00000320: 70aa 54bc f9dc 8bbd 8d12 fcbc a0ce 87bc
00000330: 4b14 063c fd1e ffbd 8874 2fbd ac6a 0abd
00000340: e4d6 92bd b54f 04be c65f 853b 86ae ffbc
00000350: a107 c0bd 4219 81bd ab79 0dbe ff24 15be
00000360: 7c30 d53c 30a9 05be 461f ffbd b460 c93c
00000370: 87f3 fcbd fd7d e8bb 1cdf fcbd 02e4 74bd
00000380: 1afc 0dbe 9dc0 1fbd 185e 75bd e1a8 b6bd
00000390: 8f5e f7bd b9fa e1bd f5e8 e8bc 5010 6fbd
000003a0: 8c83 9ebd a3b9 a8bb a4fc 98bc 5f23 96bd
000003b0: a1d5 f8bd cdf9 6abd ec52 10be adac 01be
000003c0: c078 0dbe 2fb6 35bd ed06 66bd 7098 b8bd
000003d0: 8b86 7ebd 3707 c4bc a93c f2bd 0127 68bd
000003e0: 978e 06be 00da 10be e819 93bd cf82 10be
000003f0: d553 9fbd ec06 2abc 0b2e 1abd 9c08 85bc
0.028502146 0.106810525 0.07669843 0.033966437 -0.012071607 -0.07974369 0.09445116 -0.13065633
0.049220175 0.036671944 -0.02426167 0.013773137 0.006053332 0.046784583 -0.12774497 0.041754484
-0.025485234 -0.05618861 -0.07150623 0.056962304 0.04358392 -0.0136737805 0.13937242 0.023600517
-0.005709467 -0.052014843 -0.00072018796 0.017220505 -0.1013053 -0.04133892 -0.076214194 0.04725516
-0.10992967 0.04761402 0.053655177 0.047933403 -0.07267259 0.016315496 -0.11985425 0.009548342
-0.12685595 0.026452769 -0.100825004 -0.029068364 0.04871247 0.005138539 -0.06042671 -0.0038596482
-0.01852373 -0.0062449276 0.017717285 0.025458245 -0.034147926 -0.002817454 -0.007932317 -0.082029484
-0.068596594 -0.05971312 -0.11158406 -0.058774367 0.027394002 -0.09926312 -0.16427268 -0.026777044
-0.05018597 -0.099518806 -0.07460268 -0.023208963 0.1434687 -0.0067339553 0.07024543 0.1455625
0.108290866 0.019368855 0.0405212 -0.10433812 0.024638254 -0.13089758 -0.035591524 0.021948304
-0.02087216 -0.035010245 0.0052364278 0.008711197 -0.014622751 0.053596172 -0.08163362 0.032303218
0.019435218 -0.013275309 0.0021399895 -0.0049814982 -0.057462845 0.061822608 -0.027284114 -0.074692406
-0.0632912 0.012763004 -0.09138159 0.03514477 -0.114179716 -0.015932878 0.014575415 0.0043492084
0.017450148 -0.07342824 0.025649395 -0.010043283 0.023639968 0.07398076 0.072212346 0.0635719
0.08834788 0.019170415 0.016221933 -0.020270089 -0.09157792 0.017758375 0.06737772 0.0026628484
-0.08604087 -0.11139298 0.03395918 -0.040730264 -0.023873229 0.022078857 0.02596782 -0.0029343653
-0.09266649 0.026081571 -0.14323199 -0.006777326 -0.011164444 -0.1263172 0.021071231 -0.031765115
-0.060200162 -0.056991905 -0.03318087 -0.018851094 -0.04912589 -0.05531346 -0.038110793 -0.09209329
-0.08576347 -0.1365451 -0.06148445 0.024331687 -0.06803548 -0.057570152 -0.013234755 0.01573919
0.012266437 0.07223983 -0.07092413 -0.12538841 0.025852026 -0.021897608 -0.11367468 0.024284642
-0.14054681 0.016191715 -0.039464805 -0.018958723 -0.007567947 -0.098982885 -0.04114748 -0.056466717
-0.014557288 0.011878344 0.016951825 -0.1206409 -0.06299392 -0.05680777 -6.327803e-05 -0.07950068
-0.007459909 0.02690751 -0.03355199 -0.022582209 -0.0892292 -0.12587047 0.04555793 -0.09514301
-0.109402716 0.0072950004 -0.07916586 0.14278606 -0.0065019624 -0.019111216 -0.016444247 -0.010769418
0.005836755 0.0077349087 0.0020243337 -0.11894379 -0.003562175 -0.041765686 -0.053190775 -0.026629135
-0.012980089 -0.068292566 -0.030770564 -0.016578019 0.008183549 -0.124570824 -0.042835742 -0.033793136
-0.071698934 -0.12921031 0.004070255 -0.031211149 -0.09376455 -0.06303646 -0.13815944 -0.14564894
0.026024096 -0.13052821 -0.12457137 0.024582244 -0.12351137 -0.007095097 -0.12347242 -0.059787758
-0.138657 -0.03900205 -0.059904188 -0.0891893 -0.120785825 -0.1103415 -0.028431395 -0.058365166
-0.07739934 -0.0051490827 -0.018675156 -0.07330965 -0.121501215 -0.057367135 -0.14094132 -0.12663527
-0.13815594 -0.044363197 -0.05615895 -0.0901345 -0.06214003 -0.023929222 -0.11827976 -0.056677822
-0.13140331 -0.1414566 -0.071826756 -0.141124 -0.077796616 -0.010377627 -0.037641566 -0.016239457

bias f4 [128]
00000000: 4c80 7bbd 7abf 83bd 69d3 9dbd d791 9abd
00000010: 69b4 a2bd 4841 97bc 50af 0e3e ed36 febd
00000020: 7a58 1ebd e1c7 4f3d a11e adbd fe3c 483e
00000030: 2c6b 173d d477 16bd 9f85 20bd 7351 0f3d
00000040: b4b0 f5bd 85cc 7ebd 0be4 8fbd ba81 16be
00000050: c131 b73d 23c9 a7bc cf06 33be aed3 4bbd
00000060: 5b45 c2bd 6040 0abe c5ef 92bd 0bc4 983d
00000070: f987 07be 4517 323e d408 3c3e 85e6 48bd
00000080: ab03 803d 5ead 2b3c 1e20 c23d 4fc2 90bd
00000090: fe6d cebc bc41 b7bd 249a 503e 4e53 63bd
000000a0: dae9 a8bd bb73 f7bc 201d fb3d cfdb e8bd
000000b0: 34a2 713c 01e8 90bb a508 6cbd 103a e9bd
000000c0: 87ba eabd c6d2 86bd 4e2d a4bd 5d85 f5bd
000000d0: 376f f6bd 0f5c 84bd c7fc 9fbd e723 3ebc
000000e0: 7572 8fbd 2435 33bd 146c 413e 9c4d 76bc
000000f0: d79d 0dbe 7c00 47bd 0dad b1bc 04b8 90bd
00000100: 3964 32bd 52e5 ddbc 620f 35bd 8099 90bd
00000110: 75b7 a2bd 43d9 99bd 6389 efbd f4c5 613a
00000120: 9ffd e0bd 0e0c 18bd e908 1fbe 3929 8dbd
00000130: 20de 103d 4c16 c9bd 4546 b5bc 89da 42bd
00000140: 444c 1cbe e26a 5bbd 0d07 b2bc c836 06be
00000150: ce20 b4bc c04b 0cbe 280e 913d a10f 28be
00000160: 4043 c6bd 23d5 b73b 1ab6 6ebd e8fb c1bd
00000170: 2323 13be 854e a1bc fed6 bbbd ad08 8abd
00000180: 5bdf 983d 76ca 5dbd a4fd e9bd 358d 7f3d
00000190: 87e2 ebbd ffd2 8d3d 8fd8 9abc 8e9e 00be
000001a0: 2d75 03be d15d 793b c397 12be d8b4 49bc
000001b0: 2520 15bd 95eb 85bd 6539 273e 93f5 01be
000001c0: 6826 82be c2da 14be 166c 1cbd e776 b8bc
000001d0: eeea 1ebd 7201 823d 7774 1f3e 6bb8 6aba
000001e0: 83fc ffbd 26bc b73d 41c5 3d3d 866d 823d
000001f0: 689c febd af4e 83bd 97ea fcbd 39e9 50bd
-0.06140165 -0.06433006 -0.07706339 -0.07547348 -0.07944567 -0.018463746 0.13934064 -0.1241282
-0.038658597 0.05072773 -0.084531076 0.19554517 0.03696744 -0.03673537 -0.03918993 0.034989785
-0.11996594 -0.062206764 -0.070259176 -0.14697924 0.08945037 -0.020481652 -0.17483066 -0.04976242
-0.09485885 -0.1350112 -0.07174639 0.07459267 -0.13235463 0.17391689 0.18362743 -0.049047966
0.062506996 0.010478346 0.09478782 -0.070683114 -0.025198933 -0.08948085 0.203713 -0.055499367
-0.08247729 -0.030206552 0.122614145 -0.1137005 0.014748145 -0.0044221883 -0.05762543 -0.11388028
-0.114613585 -0.065831706 -0.08016454 -0.11988328 -0.12032931 -0.06462871 -0.07811885 -0.0116052395
-0.07004253 -0.04375185 0.18888885 -0.015033152 -0.13829742 -0.048584446 -0.021688962 -0.07066348
-0.04355261 -0.027086888 -0.044204123 -0.07060528 -0.07945148 -0.075121425 -0.11696126 0.0008612566
-0.109858744 -0.03712087 -0.15530743 -0.06892628 0.035368085 -0.09818706 -0.022128234 -0.047571693
-0.15263468 -0.05356873 -0.021731878 -0.13106835 -0.021988299 -0.13700771 0.07082778 -0.16412212
-0.09680796 0.0056101247 -0.058279134 -0.094718754 -0.14368872 -0.019690761 -0.09171866 -0.06739936
0.07464477 -0.05414816 -0.11425331 0.062390525 -0.11517816 0.0692501 -0.018902091 -0.12560484
-0.12837668 0.0038050304 -0.14315705 -0.012311183 -0.03640761 -0.06539074 0.16330488 -0.12691335
-0.25419927 -0.14536574 -0.038189016 -0.022517635 -0.038798265 0.06347932 0.15571772 -0.0008953872
-0.12499335 0.08971433 0.046330694 0.06368546 -0.12432176 -0.06411492 -0.12349432 -0.05100367

weight f4 [128, 128]
00000000: 1e19 ee3d 11ed d7bd ae29 443d 2e90 113c
00000010: 74ec 2f3d 75aa 03bd 8c47 bd3d 9a6f 7fbd
00000020: 8b2c 033e 31cc c73d b968 0c3d 37a2 003d
00000030: 7f83 383d e9b2 803d 353c 5bbd 7298 023e
00000040: 5b4c 913d 5cc4 06be fc9e 8fbd e63f 6d3d
00000050: f261 723d fba1 a33d a911 183e 8338 b5bc
00000060: bced a63d fbd4 d53d 29dc 543c 46fb 07be
00000070: bbf0 d33c b3ac bcbd f399 b1bc 858d 323d
00000080: 6cb3 d4bd de1a fc3c 925e 71bc b556 d43d
00000090: dff3 c0bc 58e5 f7bd bfdc eabd 67f0 9a3d
000000a0: e67c 84bd e3bc a2bc feca 103d de77 f33c
000000b0: 14a3 143e 6117 9ebd 3d56 67bc 2bd4 fbbd
000000c0: d276 d83b 1f97 a9bd 48ef bf3c a146 833d
000000d0: 02e5 9dbd 1c98 93bd fb18 c2bd 8893 8abd
000000e0: 215e a1bc 4590 6fbb 6a16 0cbd 082c c5bc
000000f0: 6d9b ab3c c0c1 e5bd e364 a9bc 9875 af3c
00000100: 54a3 0c3b 956a 00be 9467 0b3e 9137 f2bd
00000110: 6376 903d 162c ed3b aca9 633c aa0b c53c
00000120: f5b0 2fbc 2243 b43d fb44 d0bd f133 90bc
00000130: 8efa 39bd 679e cdbc 1066 32bd 7ac7 53bd
00000140: 3615 27bc 5f71 0e3d 9127 5c3d 9b1f b0bd
00000150: 09a6 f83d 0529 933d 9a7a 2dbd e01f f93b
00000160: 8699 d63d 6a08 d7bc 7e18 03be 6b80 69ba
00000170: 8501 df3c 04eb 913d e07b d03c 40fc 27bc
00000180: 748e 06be 89ed a93d 88a4 063c d456 9b3b
00000190: 11f2 15bc 641d c93d b963 ce3d f107 01bd
000001a0: 4de3 ecbd 0481 76bd c51a 8cbc c37c 95bc
000001b0: e7a9 af3d 0754 143e c1c8 ca3c a63d 87bd
000001c0: 6d29 0c3e eb85 9ebd 1dc5 0a3e c115 95bd
000001d0: 7bee 6dbd dd71 c6bd af89 c13d 4326 2d3c
000001e0: c67a f4bd d858 cc3c d849 d43c 9e7e 25bd
000001f0: eb20 d8bc fdd6 13bd 23fc 1b3d 3ecf 2dbd
00000200: b813 75bc b304 e6bc 302c 3cbd 9e6e d1bd
00000210: b4ce 07be 27cc 20bd 6eb4 433d 3708 90bd
00000220: d08f c1bc e24e 90bd 8aa7 cebd 38fb 06be
00000230: 2d6d 023d c133 fabd 9370 78bd f530 f3bd
00000240: 0a0f 01bd e548 81bd 06ee 7fbd d551 16be
00000250: 3b94 8fbd 9c20 9cbd 7800 d03c 5c2b 13be
00000260: 3b92 9dbd 2ce6 87bc 177e a0bb 314e ebbd
00000270: 55e4 3fbd 45ab 20ba b85e 37ba cc44 08be
00000280: 31f5 c3bd b97d edbd 4a9d e7bc 7cf4 893c
00000290: f620 8abc a9b1 5cbd d0ce 81bd c84c 6fbd
000002a0: 9894 65bd c3cb 923c 138e 88bd f305 40be
000002b0: 5b99 ebbd 7a67 32bd fa60 17be 4bc7 8c3d
000002c0: 5c71 643e 80a0 a83d 2c41 a33c 93c5 c4bd
000002d0: a40f a6bd 49f3 3bbc 76b9 b53d b133 3abd
000002e0: 0ed1 03be 1e44 f9bd 4ab7 9bbd e0b3 9cbe
000002f0: 57a1 b4bd acc6 88bd c3d9 1d3e 211f 27bd
00000300: 7f00 943d 5a7c babb c074 10be 4b7e c2bd
00000310: 5fe9 00be e188 f3bb 75a5 17be 5dd4 713c
00000320: d4fe afbd 513c 98bd f0e6 953c 29bb 973b
00000330: 4427 d4bd a86d a73e 8f9f e53b 413c 56bd
00000340: 3e98 57bd b8a3 72bd eb4f ecbd 94d0 653c
00000350: d5aa 93bd 82f2 17be 9953 00be 41a4 05be
00000360: f1d8 8cbc e594 90bc 3399 90bd 64b3 d1bd
00000370: c73d febd ee2e a7bc a930 9abc f5ad 1c3c
00000380: 918e 45bd 6a51 0dbe a8b6 433c 29a4 14be
00000390: 9bdb 7d3c f260 36bd 806d ebbd 1bc6 efbd
000003a0: a075 243c 4c9a babb f447 f0bb 91a8 3c3c
000003b0: ebef d7ba 1266 0cbe 0411 9abc 7c25 b4bc
000003c0: 8392 94bd 474b 0bbe 0f2d 9abd 6c80 723c
000003d0: ef59 f4bc d0f4 02be b6a5 fcbd ff7f 00be
000003e0: 2557 06be 36d8 04be ae6a 68bd 87b2 8cbd
000003f0: 093e 28bd 6ac8 f9bd 5c6c 80bd 0e89 ca3c
0.116258845 -0.10543264 0.04789131 0.008884473 0.04295011 -0.032144982 0.09242162 -0.06236229
0.1280996 0.09755743 0.03427956 0.0314047 0.04504728 0.062841244 -0.053524215 0.12753466
0.07094642 -0.13160843 -0.07012746 0.057922266 0.05917544 0.0798988 0.14850487 -0.022121673
0.08150813 0.104410134 0.012991943 -0.13279447 0.025871625 -0.09212627 -0.021679854 0.043591995
-0.103857845 0.03077453 -0.01473202 0.103681006 -0.023553787 -0.12104291 -0.11467885 0.07565384
-0.06469135 -0.019865459 0.03534984 0.029720243 0.14515334 -0.07719303 -0.014119682 -0.12296327
0.0066059614 -0.08280777 0.023429528 0.06409956 -0.077096954 -0.07206747 -0.09477421 -0.067664206
-0.019698204 -0.0036554497 -0.034201063 -0.024068847 0.020948136 -0.112185955 -0.02067799 0.021418378
0.0021459656 -0.12540658 0.1361373 -0.11827005 0.070538305 0.0072379215 0.013895433 0.024053413
-0.010723342 0.08801867 -0.10169407 -0.017602893 -0.045404963 -0.025099946 -0.043554366 -0.051703908
-0.010197928 0.034776088 0.05374867 -0.08599778 0.12141044 0.07185558 -0.04235325 0.0076026767
0.10478501 -0.02624913 -0.12802312 -0.00089073804 0.027222404 0.07124904 0.025449693 -0.010253012
-0.13140279 0.08297259 0.008217938 0.0047405753 -0.009151951 0.09820059 0.10077614 -0.031501714
-0.11566792 -0.060181633 -0.017102608 -0.018247968 0.08577328 0.14485179 0.02475393 -0.066035554
0.13687678 -0.077403866 0.13551755 -0.0727954 -0.05808876 -0.096896864 0.09450089 0.010568204
-0.1193748 0.024944708 0.025914118 -0.040403955 -0.026382884 -0.0360937 0.038082253 -0.04243397
-0.014958315 -0.028078413 -0.045940578 -0.10226177 -0.13262445 -0.039257195 0.047779493 -0.07032817
-0.023628145 -0.07046296 -0.10090549 -0.1318177 0.0318424 -0.122169025 -0.060654234 -0.11874572
-0.031508483 -0.06312732 -0.062482856 -0.14679654 -0.070106946 -0.07623407 0.025390849 -0.14372009
-0.07693907 -0.016589247 -0.0048978436 -0.11489523 -0.046848614 -0.0006129037 -0.000699501 -0.13307494
-0.09568251 -0.11596245 -0.028273243 0.016840212 -0.01686142 -0.053880367 -0.063382745 -0.058422834
-0.056049913 0.017919427 -0.066677235 -0.1875227 -0.115038596 -0.043555714 -0.14783087 0.068739496
0.22308868 0.08233738 0.019928537 -0.09607997 -0.08108452 -0.011471578 0.088732645 -0.045459453
-0.12872717 -0.121711954 -0.07603319 -0.30605984 -0.08819836 -0.06678519 0.15415101 -0.04080117
0.07226657 -0.0056910934 -0.14107037 -0.09496745 -0.12589024 -0.0074320887 -0.1480921 0.014760104
-0.085935265 -0.074333794 0.018298596 0.0046304655 -0.10359052 0.3270085 0.0070075463 -0.052303556
-0.052635424 -0.059238166 -0.11538681 0.01402678 -0.07210318 -0.14838603 -0.1253189 -0.13050939
-0.01719329 -0.017649123 -0.070604704 -0.10239294 -0.12414127 -0.02040812 -0.018822031 0.009562959
-0.048231665 -0.13800588 0.011945404 -0.14515747 0.015494253 -0.044526048 -0.11495495 -0.117077075
0.01003781 -0.005694663 -0.007332796 0.011514799 -0.0016474699 -0.13710812 -0.018806942 -0.02199053
-0.072545074 -0.13602935 -0.075281255 0.014801126 -0.02982804 -0.12788701 -0.12336294 -0.12548827
-0.1311918 -0.12973103 -0.056742363 -0.06869989 -0.041074786 -0.12196429 -0.06270668 0.024723556
